models/NFM_laye_2_30/MLP610.pt (torch, 772168 bytes, 26 tensors)

bi_BN.weight f4 [10]
00000000: 2cfb b23d 2b06 6c3d 7909 e83d 9687 0b3e
00000010: da27 173e 60c1 543d a844 b03c be0f a53d
00000020: b11a ff3d 9754 413e
0.087393135 0.05762307 0.11329932 0.1362594 0.14761296 0.05194223 0.021517113 0.08059643
0.12456263 0.18879925

bi_BN.bias f4 [10]
00000000: 22b6 8936 e0f4 d0b6 a77e 2f37 6e05 2f37
00000010: 582d 3237 8d01 85b6 b6a5 d5b6 27d7 13b7
00000020: 5e28 bfb6 c746 c035
4.104121e-06 -6.2273903e-06 1.0460301e-05 1.0432077e-05 1.0620184e-05 -3.9638894e-06 -6.367186e-06 -8.811977e-06
-5.696943e-06 1.4325714e-06

bi_BN.running_mean f4 [10]
00000000: 1c81 1045 0093 1f45 84fa 0245 b341 2445
00000010: 6381 1a45 93b6 fd44 f223 1645 20b4 2045
00000020: bc02 1c45 2e51 1a45
2312.0693 2553.1875 2095.6572 2628.1062 2472.0867 2029.7054 2402.2466 2571.2578
2496.171 2469.0737

bi_BN.running_var f4 [10]
00000000: 9f4d b14b f082 184c 2a97 954b 5e16 234c
00000010: cd13 084c c0b5 814b 63ad 104c 42d4 fe4b
00000020: 8983 cf4b 5006 bd4b
2.3239486e+07 3.997997e+07 1.9607124e+07 4.2752376e+07 3.567186e+07 1.7001344e+07 3.7926284e+07 3.3400964e+07
2.719925e+07 2.477584e+07

BN_num.weight f4 [181]
00000000: d81f 6d3f 966b 463f 641c 463f 6d5a b53e
00000010: f517 673f 1886 0f3f 084f 273f 7f38 e93e
00000020: 102f 0a3a 3a48 383f 78db d83e a151 3b3f
00000030: 8092 463f 5010 133f 214b 6c3f d87a 3d3f
00000040: eae4 f23e 97c9 423f abbd 9ebb 768d 083f
00000050: 4963 0d3f 3b21 d83e 4196 253f 965d 5b3f
00000060: 81f8 383f fd72 1f3f e6c7 32ba d4e8 703f
00000070: 178b 233f 9c22 323f ce0b 473f 0e04 a63e
00000080: a4a0 493f 5921 1d3f c5c2 063f 02c6 263f
00000090: d33b 5a3f 225c 363f fad7 5d3f 7668 7a3f
000000a0: 6ce0 2c3f edcf a53e 856f 1c3f 53eb 873f
000000b0: 55d4 1c3f 7910 b73e fbdb 233f c491 583f
000000c0: 8214 1b3f 08fb 193f d4fb 2b3f c4b3 f63e
000000d0: b12b 4b3f 0663 4c3f ed5a fe3e e199 de3e
000000e0: 949a 5a3f dc33 283f 0bb7 4f3f 8590 373f
000000f0: e4ce 603f 6934 ee3e 57f9 283f 34e2 5a3f
00000100: ea78 233f d622 113f 4add 223f b2f7 303f
00000110: 258d 5f3f 2387 b53e 78ed dd3e f625 3b3f
00000120: 820c fa3e c918 633f 8418 ef3e 1831 003f
00000130: 4e4c 633f 20cf 053f 68eb 103f f8a4 143f
00000140: aa11 163f 5beb 953e 485f 273f 8a24 333f
00000150: c5d4 583f 6944 093f 08eb 333f cda4 223f
00000160: 70dc de3e 9522 513f 5e55 0e3f 4e84 863f
00000170: 274b 1d3f ab57 3b3f f776 563f 64a0 543f
00000180: 6432 f13e 8c97 383f 9488 533f 0124 313f
00000190: fdd1 2c3f ae6d 433f 6d7c 3a3f 7a70 553f
000001a0: 8eeb 353f 4651 533f 463b 4f3f d5fd 1e3f
000001b0: 2ceb c93e e43f 2a3f 4874 c13d 82f7 2e3f
000001c0: 9383 d13e 2bf4 643f ef34 3c3f eac3 183f
000001d0: dfbf 303f 49e8 003f e3dc 913e 5a10 4d3f
000001e0: f6c1 463f ff35 4f3f 8576 123f 9db2 303f
000001f0: d369 163f 9255 203f e7b4 1a3f 7c3e 133f
00000200: 1060 3a3f 7ac9 543f 156a 383f d748 233f
00000210: 3325 603f 525b 383f c1e9 0b3f 2152 593f
00000220: 95f5 1b3f 2dc7 1c3f 4ee7 1e3f 33b2 303f
00000230: d85f f83e 89e8 363f 0ae6 173f ef37 1a3f
00000240: f34c ac3e 79d4 533f 5302 303f e2a3 123f
00000250: b33b 353f 7a6c 583f d681 953d 63ee 4c3f
00000260: 582f 5a3f 9f95 003f edbb f33e c95a 0b3f
00000270: 5a61 033f 5e96 9c3e 3811 493f 1d20 613f
00000280: ebe1 473f cc4c 463f 1f77 133f aa25 4c3f
00000290: 08b4 4a3f 7989 3d3f 1044 e23e a157 263f
000002a0: c74f 053f 1dfb 383f 44e2 003f 05c4 1a3f
000002b0: e3d0 483f 7d79 323f c714 423f 8d04 2e3f
000002c0: f303 603f 1db7 e63e 6963 533f 7f29 4a3f
000002d0: 3482 483f
0.92626715 0.77507913 0.7738707 0.35420552 0.9027093 0.56063986 0.6535497 0.45550916
0.0005271295 0.7198521 0.4235494 0.7317143 0.7756729 0.57446766 0.9230214 0.7401557
0.47440273 0.7608885 -0.0048443875 0.5334085 0.5522962 0.42212853 0.64682394 0.85689676
0.72254187 0.62284833 -0.00068199483 0.9410527 0.6388411 0.6958406 0.7775239 0.32424968
0.78760743 0.6137901 0.52640945 0.65145886 0.85247535 0.71234334 0.8665768 0.97815645
0.6752994 0.32385197 0.61107665 1.061869 0.6126149 0.35754755 0.6400754 0.8459742
0.6057817 0.6014867 0.67181134 0.48184025 0.7936354 0.798386 0.49678746 0.43476775
0.8539212 0.6570413 0.81138676 0.71704894 0.8781569 0.4652436 0.6600546 0.8550141
0.63856375 0.5669378 0.6361891 0.69127953 0.87324744 0.35454664 0.43345237 0.731048
0.48837668 0.88709694 0.4669839 0.5007491 0.88788307 0.5226917 0.566092 0.5806422
0.58620703 0.29281124 0.6537976 0.6997763 0.8469966 0.5362001 0.70280504 0.63532716
0.43527555 0.81693393 0.5559901 1.0509126 0.614428 0.73180646 0.83775276 0.83057237
0.47108757 0.7210624 0.82630277 0.6919556 0.67507917 0.7633923 0.7284611 0.8337475
0.7106255 0.8254589 0.8094982 0.62106067 0.39437234 0.6650374 0.09446007 0.68346417
0.40920696 0.8943507 0.7351827 0.5967394 0.6904277 0.5035444 0.28488836 0.80103076
0.7763971 0.80941767 0.57212096 0.6902254 0.58755225 0.6263057 0.60432285 0.5751722
0.7280283 0.8311993 0.7203687 0.6378302 0.8755676 0.72014344 0.54653555 0.84890944
0.60921603 0.6124142 0.6207169 0.6902191 0.48510623 0.7144857 0.59335387 0.602416
0.33652458 0.8274608 0.68753546 0.57281315 0.7079422 0.8454052 0.07300155 0.8005125
0.8522849 0.50228304 0.47604313 0.544354 0.5132042 0.3058347 0.785419 0.87939626
0.780791 0.7746093 0.5760364 0.7974497 0.79180956 0.7403789 0.44192553 0.6497746
0.52074856 0.7225817 0.50345254 0.6045535 0.78443736 0.69716626 0.75812954 0.67975694
0.87506026 0.4506158 0.8257356 0.7896957 0.78323674

BN_num.bias f4 [181]
00000000: 9253 6ab6 07d9 a436 f6c8 7f35 a89f a837
00000010: 33cc 30b6 0ba8 e737 fd0f b0b7 5c25 41b7
00000020: 6f28 cdb3 ffb4 b6b7 91bc 42b7 3a44 c6b7
00000030: 13c7 c037 ee99 fa36 22f8 f136 ac5d 5fb6
00000040: 4ae0 1737 71dd e8b6 4d9a 0cb6 7dfe ceb4
00000050: 67a8 27b7 3d8a 04b7 c3c4 4737 8113 0a37
00000060: 0ba9 a036 6c21 91b7 6b3d 6534 75a0 a437
00000070: 95a8 8a37 fa66 b137 b602 5eb7 8797 aa36
00000080: def4 ae37 1a9f 5f37 e832 70b5 3b26 0b37
00000090: b8f9 8ab7 da26 53b7 0d44 e436 c0a4 f537
000000a0: 64c8 9236 07aa a3b6 af83 0db7 0f4a c0b7
000000b0: 1713 f6b6 b847 3536 2067 b236 db8c 0537
000000c0: 00a5 2137 645c ecb6 4c18 0537 392f 0fb5
000000d0: 3109 d736 3235 9536 4139 8fb5 bddf b137
000000e0: 96dc 34b6 a00b 1fb7 df87 39b7 30a7 33b7
000000f0: dc3b 96b7 a33e 19b7 46e0 4eb7 4281 9ab7
00000100: f1e2 1db7 290e 3d37 ff38 5bb7 c9a5 c136
00000110: 32f1 4ab6 4041 93b7 c092 acb6 c923 1cb7
00000120: f75f e7b6 42e1 d836 2b49 1337 32ec afb6
00000130: 6715 4e37 1c7f 72b5 6004 0cb5 f6a4 26b7
00000140: 9b95 5237 1b8c edb5 4979 5837 f47e 68b6
00000150: 4cea b635 49ab 4237 5412 5db7 29bb d536
00000160: 6ec4 75b3 2e98 9636 5b47 7436 4df0 40b7
00000170: aea1 77b7 ea36 6e37 ecd9 1fb6 3f2c d7b6
00000180: be1f 5637 400e 3237 d4f4 77b7 e4c3 3137
00000190: dcf3 5437 2526 4b35 fc28 4237 368c 0cb7
000001a0: 410f 5837 b277 b036 5d75 5537 93fc 0a37
000001b0: a45d 29b6 6d57 94b7 bb35 2435 aae5 1ab7
000001c0: c0a9 3937 77c6 c836 018f 8137 6c56 10b7
000001d0: 5eff f435 7c8a c4b6 c20d 8f36 d336 e3b6
000001e0: 8fe1 1b37 f693 6437 9c14 8bb6 95c2 0db6
000001f0: 246b e3b6 5185 5f37 b9ee d1b7 506c 12b7
00000200: cf55 9cb7 e478 b737 ad4d b2b5 58dd 8036
00000210: f120 aeb6 b6ee 3c36 f980 45b5 a829 a936
00000220: ddb3 d236 55fe 15b7 c30c 9f36 4cf4 e4b6
00000230: 5ccc 86b7 8cdf f035 1331 51b7 ed1a 2937
00000240: 89d6 c5b7 acca a737 889f f2b6 1e6c 9b36
00000250: 611b 24b7 e98d 4336 ad63 93b6 3603 7037
00000260: 38f8 3ab7 9296 28b6 450d 0d37 8d67 d6b7
00000270: b387 1337 5610 1b36 c361 1d38 8e00 8f37
00000280: a219 0db6 b043 0e36 aeb1 a035 fbe9 e6b6
00000290: 67d3 4bb6 b690 b836 a777 2437 bee6 8137
000002a0: b124 6136 57c8 73b7 dc7b 5137 2203 0837
000002b0: 66cf 2d36 757a 4cb4 7999 a936 2fd4 ed37
000002c0: 362d 39b6 b136 4cb7 db2d afb6 7d78 6eb6
000002d0: 6108 0c36
-3.4917362e-06 4.912846e-06 9.528734e-07 2.0101506e-05 -2.6344903e-06 2.7615597e-05 -2.098828e-05 -1.1512395e-05
-9.553411e-08 -2.1780374e-05 -1.1607205e-05 -2.363521e-05 2.2980885e-05 7.4685004e-06 7.211246e-06 -3.3284114e-06
9.052523e-06 -6.939918e-06 -2.095144e-06 -3.8555655e-07 -9.993185e-06 -7.899999e-06 1.19071365e-05 8.229982e-06
4.788051e-06 -1.730091e-05 2.134963e-07 1.9625042e-05 1.6529384e-05 2.1147996e-05 -1.3232862e-05 5.084035e-06
2.0856442e-05 1.33288795e-05 -8.9481046e-07 8.293947e-06 -1.6567166e-05 -1.2585626e-05 6.8028517e-06 2.9282994e-05
4.3744676e-06 -4.8775723e-06 -8.434915e-06 -2.292267e-05 -7.3335937e-06 2.7012848e-06 5.3168187e-06 7.960213e-06
9.634765e-06 -7.0441038e-06 7.933075e-06 -5.334037e-07 6.4085693e-06 4.446739e-06 -1.0670993e-06 2.120423e-05
-2.6950488e-06 -9.479845e-06 -1.1058494e-05 -1.0708158e-05 -1.7909268e-05 -9.134094e-06 -1.2330775e-05 -1.8418421e-05
-9.410768e-06 1.1268575e-05 -1.3066688e-05 5.771148e-06 -3.024074e-06 -1.755415e-05 -5.1430834e-06 -9.3066565e-06
-6.8955082e-06 6.463525e-06 8.7789185e-06 -5.242903e-06 1.228354e-05 -9.0336994e-07 -5.216043e-07 -9.932779e-06
1.2551808e-05 -1.7698652e-06 1.2902842e-05 -3.464459e-06 1.3628246e-06 1.16031815e-05 -1.3176894e-05 6.369683e-06
-5.722216e-08 4.4880644e-06 3.6400368e-06 -1.1500041e-05 -1.4759991e-05 1.4198691e-05 -2.3819694e-06 -6.4126502e-06
1.27627845e-05 1.0612945e-05 -1.4779351e-05 1.05956315e-05 1.2692963e-05 7.56789e-07 1.15728435e-05 -8.377296e-06
1.2878155e-05 5.259143e-06 1.2723115e-05 8.284248e-06 -2.5237468e-06 -1.7683686e-05 6.117295e-07 -9.232588e-06
1.1066382e-05 5.983569e-06 1.544459e-05 -8.6031905e-06 1.8253738e-06 -5.857377e-06 4.2633337e-06 -6.7715096e-06
9.291237e-06 1.3624309e-05 -4.144922e-06 -2.11239e-06 -6.7776e-06 1.3322876e-05 -2.5025905e-05 -8.727497e-06
-1.8636607e-05 2.1871594e-05 -1.328464e-06 3.840465e-06 -5.189439e-06 2.815313e-06 -7.35759e-07 5.041442e-06
6.2794265e-06 -8.940308e-06 4.740055e-06 -6.8233694e-06 -1.6069207e-05 1.7946454e-06 -1.2468797e-05 1.0079454e-05
-2.358413e-05 2.0002328e-05 -7.230734e-06 4.6319465e-06 -9.781536e-06 2.9139867e-06 -4.392545e-06 1.4305862e-05
-1.1144257e-05 -2.5121594e-06 8.4073445e-06 -2.5559008e-05 8.793478e-06 2.3106309e-06 3.7522765e-05 1.7047187e-05
-2.1025558e-06 2.1199048e-06 1.197264e-06 -6.881773e-06 -3.037241e-06 5.500474e-06 9.8030205e-06 1.5485446e-05
3.354897e-06 -1.4530574e-05 1.2486209e-05 8.106961e-06 2.589973e-06 -1.904353e-07 5.054459e-06 2.8351407e-05
-2.7593464e-06 -1.2172081e-05 -5.2207447e-06 -3.5534897e-06 2.0866503e-06

BN_num.running_mean f4 [181]
00000000: b705 c640 1d28 0241 d0b6 1141 bd7c f540
00000010: 9617 0141 f483 3b41 980a fd40 7bfc a040
00000020: e901 e840 409d 0d41 8031 1c41 a07d e340
00000030: 869e b240 ed59 c140 7da2 0d41 22bb e840
00000040: f66e c840 f75b a240 8181 1841 ab7d b840
00000050: dace b840 ede0 d640 b630 cb40 5304 0841
00000060: 0818 b940 df4d aa40 0ab5 1341 911a c140
00000070: 8698 f440 6c3e e740 985a b740 6208 3641
00000080: 7f62 e140 9677 4741 8323 e540 bc64 e340
00000090: 3eaa ae40 174e 9f40 14d5 9e40 31a4 ba40
000000a0: a73a 1541 dc8e f440 9722 c740 6f41 1641
000000b0: 592d ff40 73c7 d740 7d11 0141 a76a 2841
000000c0: 384e 0441 ff48 0a41 0ac9 1241 f470 1f41
000000d0: 9626 1241 bd73 f140 34f5 f340 a1f2 3841
000000e0: 0af8 fd40 71b2 f840 4d22 1941 6f32 a540
000000f0: d7b7 1541 621e ce40 01b5 0e41 fb54 c540
00000100: 0685 aa40 8a2d ff40 4cb5 0641 a695 d540
00000110: a916 dd40 458a 2a41 8cc8 5741 195e be40
00000120: 921b ab40 54a4 ff40 84d0 1841 db9b c840
00000130: d640 c740 93f5 f340 a6bf d940 dea8 ef40
00000140: fa09 1241 77a7 2441 9328 0d41 3a38 ee40
00000150: 8444 ab40 18e5 fc40 18c6 d040 e591 0241
00000160: 5802 d940 7c6b 0141 ebef ea40 a8ba e640
00000170: d857 c840 66b5 1341 9f6d 2141 8557 3741
00000180: e4a1 c940 5fd1 ca40 c5e0 cf40 2923 1f41
00000190: 8989 a640 cf84 1041 62fb 9b40 2df0 ca40
000001a0: 3ef1 ef40 a749 0541 de21 de40 ede6 a640
000001b0: 4f6c 1741 f9aa fc40 ad3a 4141 ab78 e740
000001c0: 4d26 d940 c813 0c41 499c ba40 4a52 1841
000001d0: 67ca 0c41 e1ae 0341 c8da 0d41 f7f3 e940
000001e0: 1434 b940 7d61 d740 6e08 d940 d5b2 1b41
000001f0: 1f79 0341 7c05 ab40 4b42 1341 f3d6 2841
00000200: 4161 b840 2579 a340 5f3e d840 dfba 1e41
00000210: 0651 c240 6a01 f040 cd07 df40 9907 ad40
00000220: d986 fa40 32ad 1841 dd87 c740 d783 9640
00000230: af57 ed40 14a6 e740 e179 0e41 6f30 3041
00000240: 3814 0241 6780 3f41 6539 c440 b195 bc40
00000250: 78e8 c740 ec0b e740 439f d140 053a c040
00000260: c87d fc40 ed3b 0641 f9d0 1b41 7dc8 d240
00000270: 3f76 f740 abc7 cd40 082b b140 1209 f640
00000280: d937 e440 f52e d340 5d04 ad40 f7ec e740
00000290: 63aa f740 f079 a440 a6e1 1241 2ea3 9c40
000002a0: 025c 0541 2a6e 0b41 a983 b640 276c 3a41
000002b0: b394 2641 c1ff c840 f505 2041 830d d040
000002c0: dc3f d940 0134 3141 75f7 d240 5c3a f340
000002d0: e88c 5441
6.1881976 8.134793 9.107132 7.671477 8.068258 11.719715 7.907543 5.0308204
7.250233 8.850891 9.762085 7.109085 5.581851 6.0422273 8.85217 7.2728434
6.263545 5.073726 9.531617 5.7653403 5.7752504 6.7149568 6.349696 8.501056
5.7841835 5.3220057 9.231699 6.034493 7.6436186 7.22637 5.729809 11.377047
7.0432734 12.466696 7.160585 7.1060467 5.4582815 4.9782825 4.9635105 5.832543
9.326819 7.642439 6.2229724 9.390975 7.9742856 6.743097 8.06677 10.526038
8.269096 8.642821 9.174082 9.965076 9.13442 7.545378 7.623682 11.559236
7.936528 7.7717824 9.570874 5.1624064 9.357383 6.441209 8.91919 6.1666236
5.328738 7.974309 8.419262 6.6745176 6.909016 10.658757 13.486462 5.9489865
5.3471155 7.9888096 9.550907 6.2690253 6.2266645 7.6237273 6.8046446 7.4893637
9.127436 10.290885 8.822406 7.4443636 5.3521137 7.9029655 6.5241814 8.160619
6.781536 8.088741 7.341787 7.210285 6.260723 9.231787 10.089263 11.458867
6.301012 6.338058 6.4961877 9.946084 5.204289 9.032424 4.8744364 6.3418183
7.4981985 8.330482 6.941634 5.215689 9.463943 7.8958707 12.076825 7.23348
6.7859254 8.754829 5.831578 9.52009 8.799415 8.230195 8.865913 7.311031
5.787607 6.7306504 6.782279 9.73116 8.217071 5.3444195 9.203685 10.552478
5.761872 5.108538 6.7576137 9.920623 6.0723906 7.5001726 6.9697022 5.4071774
7.828961 9.542284 6.235335 4.7035937 7.4169536 7.239023 8.904756 11.011825
8.129936 11.968848 6.132006 5.893273 6.2471275 7.2202053 6.550691 6.0070825
7.890354 8.38963 9.738519 6.5869737 7.7331843 6.4306235 5.536503 7.688607
7.1318173 6.599482 5.4067826 7.2476764 7.739549 5.139885 9.18009 4.8949194
8.334963 8.7143955 5.703572 11.651404 10.4113035 6.28122 10.001454 6.5016494
6.7890453 11.075196 6.592707 7.600874 13.284401

BN_num.running_var f4 [181]
00000000: 0a44 b63d 3847 a13d ed9f 0b3e 9a33 9e3d
00000010: df5c d33e 10b5 313d 7e49 553f 4ea7 573e
00000020: bf40 053f f4c7 dc3c f643 eb3f e050 343d
00000030: 4443 d13c a4c2 d63d 01cd da3e 4c62 593f
00000040: b859 ba3d a4e1 673d 1eff 2740 d007 d93f
00000050: 3dc9 613e 55ac f03d df78 c83d 2c1b 1f3e
00000060: ee65 203e d6fe 033e d4b5 a93f b3a6 f63d
00000070: 30a3 463e 546d 403d f7e0 433e a945 613d
00000080: 3944 633e 8de5 a53d 4aa3 b63d aad7 073f
00000090: 2683 d23d 1a63 1d3d 6346 d63e 7d2a c93c
000000a0: e175 cd3d 8900 b43e c7f4 263f 97d0 2e40
000000b0: a6c6 f03e 5cb1 003f 6f65 e23d b223 9b3d
000000c0: 3f7f 903d f956 ae40 63c0 c43d d0a9 dd3f
000000d0: 71d4 213e ae2d c43d 21b4 933e 8639 d03d
000000e0: 2a24 483e b872 1c3e 51bf 123e ef94 233e
000000f0: ffc0 b23e 22d5 8f3e 2570 123e 50b2 3a3e
00000100: 2dc0 6a3d 3c9c 7240 a612 083f 0f0d 0f3e
00000110: 996e 353e 7372 b93d 8efd 573e 4834 b93d
00000120: b075 f23d f40c f33d e60f 533d a31f 9a3d
00000130: 7467 1c3e f36b cd3d 49f6 5e3d 52f3 5b3e
00000140: 3c7b a93e ef31 433e b898 b13d 948f 533e
00000150: 9502 753d 5009 c63d 9c1a 983d 1060 4a3e
00000160: 0798 433e 59a4 033e e67f 5840 1845 0b3e
00000170: 479c ed3c d7a2 b73e 57d1 f23f 2c82 803e
00000180: 5523 dc3e ecd2 3d3e ad3e 5a3e 74d8 d43e
00000190: 5cda 713f 2bd9 ad3e fa81 9d3d 193d 9b3e
000001a0: 3a0b e43d 1263 7b3f 6421 883d d316 a23d
000001b0: 38de e53f 8abc 3f3e 3724 9f3d 36e2 cc3e
000001c0: 48f4 6f3d 6aaa 6c3e b310 7e3e 31b0 a23f
000001d0: 2e5b c13e e4b8 b23d 68e7 a33e 468a 003f
000001e0: af7d af3d c404 2e3e c6c6 fa3d d5db cf3e
000001f0: 6827 663e 2701 253e 187c b63d 4079 863d
00000200: 35db 613d cdf3 dc3d 90f9 ab3d 49dd c73d
00000210: 728d 0e3d f3d6 0c3e cd13 be3e 70ab 973f
00000220: e34a a53e dbfc fb3d 677e 2c3e 1d1d 493e
00000230: 23b2 593f c436 3240 5744 3c3e 26e9 513e
00000240: 6194 0b3e eb6f a43d 217d b53d cb63 da3d
00000250: 88d3 493d 331b 833f 6d06 ea3d eb0e 903d
00000260: 24dc ad3f 1334 0c3f 1e88 663e 0c2b b83e
00000270: 253f 433e fc6d 043e d303 8f3d 57c0 5c3d
00000280: 5b05 373f eff4 3a3e b205 3e3d 20cc 0e3f
00000290: b044 063e 08f0 913d 0697 443e bbe7 483e
000002a0: f9f0 d23d 992b 793e 4f93 d23e c4eb 5a3d
000002b0: 8464 503d 2851 c93d abdb 2f3e 640a 543d
000002c0: 4183 0340 143e d33f 6210 a83f 9690 be3d
000002d0: f1f5 283e
0.08899696 0.07874912 0.13635226 0.07724686 0.41281793 0.043385565 0.83315265 0.21059915
0.5205192 0.026950814 1.8380115 0.04402244 0.02554477 0.104863435 0.4273453 0.84915614
0.09099144 0.056611672 2.624946 1.6955509 0.22049423 0.1175162 0.09788679 0.15537709
0.15663883 0.12890181 1.3258615 0.12043514 0.19398189 0.046979263 0.19128786 0.054998074
0.22193994 0.08100424 0.08917864 0.5306345 0.10278921 0.03842459 0.41850576 0.024556393
0.10032249 0.35156658 0.6521725 2.7314813 0.47026557 0.5027063 0.11054503 0.07575168
0.0705552 5.448117 0.09607007 1.7317448 0.15803696 0.09579025 0.28848365 0.10167222
0.19545045 0.15278137 0.14330794 0.15974782 0.3491287 0.28092295 0.14300592 0.18232083
0.05731218 3.7907858 0.53153455 0.13969825 0.17717971 0.090550326 0.21092817 0.09043175
0.11838853 0.11867705 0.051528834 0.075255655 0.15273839 0.10030355 0.054434095 0.21479538
0.33101833 0.19062017 0.08671707 0.2066024 0.059816916 0.09669745 0.0742695 0.19763207
0.19100963 0.12855662 3.3828063 0.13600576 0.029005183 0.35866424 1.8970135 0.25099313
0.42995706 0.18537492 0.21312971 0.4157139 0.94473815 0.3395475 0.07690807 0.3032005
0.11134954 0.98198044 0.06646994 0.079145096 1.7958441 0.18724266 0.07770579 0.40016335
0.058582574 0.23111883 0.24811058 1.2710019 0.37764877 0.08726671 0.32012486 0.5021099
0.08568894 0.16994005 0.12244944 0.40597406 0.2247597 0.16113721 0.08910388 0.06566095
0.055140693 0.10788689 0.0839721 0.09759004 0.03480286 0.13753872 0.37124482 1.1849194
0.32283697 0.12304088 0.16845094 0.19640012 0.8503744 2.7845926 0.18385445 0.20499095
0.13630821 0.08029159 0.08861757 0.10663565 0.049273998 1.0242676 0.11427007 0.070340954
1.3582807 0.5476696 0.22512862 0.35970342 0.19067056 0.1293258 0.06983151 0.053894367
0.71492547 0.18257497 0.04639215 0.5578022 0.1311214 0.071258605 0.19198236 0.19619648
0.10299868 0.24333037 0.41128013 0.0534475 0.05087711 0.098299325 0.1717364 0.05176772
2.054886 1.650332 1.313 0.09304921 0.16500069

linear1.weight f4 [800, 181]
00000000: 1054 e53c 3b1d aa3d a3f9 2dbe 65dc 66bb
00000010: 7ae8 d4bd e4de 2e3b 9116 a9bd 169e 82bd
00000020: 27ec 7dba c09f 983c c55b e6bc b715 50bd
00000030: ecd3 01bd 85ee 3e3e 761c 0d3e 6425 0e3b
00000040: df41 85bd 7022 033d 01c8 a8bb 8081 50bc
00000050: c24a 85bb 6b97 c93c f577 e4bd 3df2 4d3d
00000060: df4c 0cbd 8b27 583c d960 85ba 008a 24bc
00000070: 462c 283d db3d 56bd 5951 a53d 42fc ec3d
00000080: 01db 0f3d dcfd aabd 1445 243d 495f cd3d
00000090: ef20 843c 6a79 623d a695 50bd d022 b23d
000000a0: 1791 763d cd31 a33d 18c9 c33d a852 b3bd
000000b0: a422 31bd 50db 7ebd 4b45 7a3d bbe6 42bd
000000c0: cb26 0dbd 01f7 af3c 8e01 40bc 5d41 91bd
000000d0: af81 003e abba a8bd 0e8e f6bd e5ae d43c
000000e0: 75ac 863d 0396 833d dbb9 34bd f766 c83c
000000f0: a07f 2bbe 6e7c 5eba 0c5e 963b 9a2c 1a3e
00000100: acd9 a33d 1c0b a8bd 0919 13bc f2c4 9b3c
00000110: 94d7 273d 037d 95bc 834a dd3c 18b3 66bd
00000120: cd64 d2bc d5a0 e73d 3c02 0ebd 5116 dcbc
00000130: 41db 823d 3acf 9bbc e667 a2bd ab14 3bbd
00000140: 809a ee3c 0dab acbd 442f efbb 68bf 9bbd
00000150: af97 d53c f8cf 9dbb 3249 9d3d 579c a9bd
00000160: 694b 82bd 8ebf 123d f710 c3bc b8bd f1bd
00000170: 8cc1 453d 35dd febc 2408 1c3e 1bf7 193d
00000180: 18f9 1abb 8458 b0bd 7084 ac3a ba19 cbbd
00000190: c32a 133a 09eb c2bc a0b5 f1bd 5fac 093c
000001a0: b31f 48bc 3f85 0c3d c255 a93d 2ec6 95bd
000001b0: 5b40 7abd 50d9 f6bc 7569 a83a be85 493d
000001c0: 76e7 0d3b ea14 01bc b6b6 a6bb bea1 ec3d
000001d0: 33d3 1d3d 8800 8a3d c124 533d b8fa c7bd
000001e0: 410e abbd 6a92 5cbd fdc7 f73c a15d ed3c
000001f0: dadf 9fbc d1b7 8dbd 783b 6f3d a4c8 3abd
00000200: 420f 10bd 246b 023e d8de 84bc 6364 69bd
00000210: e7da f4bc e940 c1bd 0cc1 56bd d491 0ebd
00000220: 0b48 743d d3eb a13d d894 cbbc 7eac 6c3d
00000230: 59e9 39bd 4df4 44bd 4915 c73d 34c3 2c3c
00000240: d59f 0d3d c258 30bd f351 e9bd cda5 863c
00000250: 38e1 d93d 508b 983b 3081 1dbd ecea 6d3d
00000260: a962 403c e615 a83c 0bc1 9abd a6c0 c53d
00000270: 5906 4e3c 8077 a33c d354 da3d e445 023e
00000280: 80b8 bbbc 79b4 98bd 7a17 6cbd 8e18 023d
00000290: b3e2 673c 2b9a 05bd 7456 f33c 6b60 07bc
000002a0: 4a56 cebc 2f73 59bc 308c bf3d 89b7 013d
000002b0: b807 003e f2cb 933d b4e8 bb3d 2bcf ff3d
000002c0: d6d6 72bd 661c 333d c9ce 44bb b482 8a3c
000002d0: 27a6 03be 7b98 693d ceee c03c d208 483d
000002e0: 0e33 8f3c 5845 c03d 499d edbc ec7d 80bd
000002f0: 5145 2f3d f542 4db9 ba0a 7cbd 1086 f63c
00000300: 283b 8bbc dc05 86bd 91a7 2fbd 8e32 b93d
00000310: aef6 913d 2f3c 963c 8020 91bc 74c5 283c
00000320: a082 d0bc 4723 cfbb 000b 2dbd 858a 2ebb
00000330: eed0 95bc 682c cf3c f1b7 e63c a2a3 253c
00000340: ff62 2bbc 5018 a73d 6f19 babd cc00 f1bc
00000350: 9e1c d0bc cf27 a53c 40f8 563a 165c 803d
00000360: c567 153d daab 5a3d a1f1 a93c ea92 283d
00000370: 6e6a 02be 640f ffbc cc13 34bd 14f1 b2bd
00000380: 0293 4abc 4517 a03b fd30 69bc e603 b1bd
00000390: 33d8 0a3b 7004 f03c 677f 3c3d 2c27 b8bc
000003a0: b8ae 693d 260d efbd b4e8 fdbc 8870 babd
000003b0: 7582 bcbc 55ad 90bb 5d26 02be 20ca 003e
000003c0: de5a d1bd 8a5b a23d 9817 2cbd e38e 9cbd
000003d0: b694 11bd 9a8b 71bc b5f1 24bd 786b 51bd
000003e0: a512 72bd 5aae 58bd 51d4 913c 05ed 0e3b
000003f0: 3a8e 2c3c 8390 bcbc 2a0f 993d b058 d5bc
0.027994186 0.083063565 -0.1698976 -0.003522658 -0.10395904 0.0026683146 -0.08256257 -0.06377809
-0.00096863735 0.018630862 -0.028119931 -0.05080196 -0.031696245 0.18645675 0.13780388 0.0021689767
-0.065067045 0.032015264 -0.0051507954 -0.012726188 -0.0040677497 0.024608335 -0.111556925 0.050279845
-0.034252997 0.0131930215 -0.0010175958 -0.010042667 0.041057847 -0.052305084 0.080721565 0.11571552
0.035120968 -0.08349201 0.04010494 0.1002794 0.016128985 0.05529157 -0.050923966 0.08698046
0.060196962 0.07968483 0.0955984 -0.08756 -0.043245926 -0.06222087 0.06110124 -0.047583323
-0.034460824 0.021480085 -0.011719121 -0.07092545 0.1254947 -0.08238729 -0.120388135 0.025962302
0.06575862 0.06425097 -0.044122558 0.02446316 -0.16747904 -0.00084871694 0.004588848 0.15056077
0.08000502 -0.08205244 -0.008978137 0.01901481 0.040977076 -0.018248087 0.027013069 -0.05632314
-0.025682831 0.11309973 -0.0346701 -0.02686611 0.063894756 -0.019019712 -0.07929973 -0.045674007
0.029126406 -0.08431063 -0.0072993357 -0.07604867 0.026073305 -0.0048160516 0.076799765 -0.082817726
-0.063620396 0.035827212 -0.0238118 -0.11803764 0.048280284 -0.03111134 0.1523748 0.037589174
-0.0023647007 -0.08610633 0.0013162028 -0.09917016 0.0005613977 -0.023793714 -0.1180222 0.008402913
-0.012214589 0.03430676 0.0826831 -0.073131904 -0.06109653 -0.03013292 0.0012848811 0.049199812
0.0021652854 -0.007878521 -0.005087699 0.115542874 0.038531493 0.067383826 0.051548723 -0.09764618
-0.08352328 -0.05385057 0.030246729 0.02897531 -0.01951592 -0.06919826 0.058406323 -0.045601502
-0.0351708 0.12736183 -0.016219541 -0.0569805 -0.029889537 -0.09436209 -0.052430198 -0.03480704
0.059639018 0.07906308 -0.024851248 0.05778169 -0.045388553 -0.048084546 0.09720857 0.010544587
0.034576256 -0.043053396 -0.11392584 0.016436482 0.1063866 0.004655279 -0.03845328 0.058085367
0.011742272 0.020518254 -0.07556351 0.096558854 0.012574756 0.019954443 0.1066071 0.12721974
-0.022915125 -0.074562974 -0.057639576 0.0317617 0.01415317 -0.03261773 0.02970431 -0.008262734
-0.02518763 -0.013272091 0.093529105 0.031669173 0.12502944 0.07216634 0.09175244 0.12490686
-0.059286915 0.043728255 -0.003003048 0.016908027 -0.12856351 0.057030182 0.023551371 0.048836537
0.0174804 0.09388226 -0.029005663 -0.06274018 0.042790715 -0.00019575267 -0.061533667 0.030093223
-0.016995981 -0.06544086 -0.042884413 0.09042846 0.071271285 0.018339245 -0.017715693 0.010300983
-0.025452912 -0.006321344 -0.04224682 -0.0026632857 -0.018288102 0.02528973 0.028163882 0.010109814
-0.010460614 0.08158934 -0.09086882 -0.029419325 -0.02540427 0.020160584 0.0008200444 0.06267564
0.036475915 0.053386547 0.0207451 0.041155733 -0.12735912 -0.031135269 -0.043964192 -0.08737388
-0.012364151 0.0048855864 -0.014232871 -0.08643322 0.0021185994 0.029298991 0.046019938 -0.022479616
0.05705139 -0.1167243 -0.03099475 -0.09103495 -0.023011426 -0.004415194 -0.12709947 0.12577105
-0.1022241 0.07927616 -0.04201469 -0.07644441 -0.035542212 -0.014742756 -0.040269572 -0.05112788
-0.059099812 -0.05290065 0.017801436 0.0021808755 0.010531956 -0.023018127 0.074735954 -0.026043266

linear1.bias f4 [800]
00000000: 3f07 6bb5 a1eb 1735 1a7c 0600 758e ce35
00000010: b393 bbb2 af55 5134 6f9b e9b2 0037 54b5
00000020: b10c 3836 bd2c 6b34 3d61 0636 6933 c335
00000030: d5d9 4e34 8b36 85b4 02ae b835 e3fc 93b5
00000040: 928c 12b4 6f70 8237 549a f035 e829 69b6
00000050: 2dd8 1a36 7227 0436 7c5b 1633 38bf 1035
00000060: d301 4eb5 2b63 3bb6 d5f2 a0b3 d544 6334
00000070: a5bc 59b5 ddb2 5eb6 ce77 98b5 573a 13b6
00000080: 1283 f033 4cf5 b7b4 64ce b035 1f46 6f35
00000090: 4797 03b6 a8c0 73b4 6fed 94b6 6054 4836
000000a0: dfef 6c36 41a0 e5b6 9ceb 8935 2510 68b6
000000b0: 4dcd 1d36 7f7e d635 16ff f9b5 0041 1536
000000c0: bba3 7135 5731 138e f53a dfb5 5268 60b6
000000d0: f4c6 0500 22ce 0480 ecd3 deb5 5481 0cb4
000000e0: 77b2 bab5 d841 19b5 c3c6 0591 e433 7eb5
000000f0: a16c 26b5 d951 c2b6 ae2e 86b6 59f2 fcb5
00000100: 2c7b 1836 7ecc a136 3005 0fb3 0b69 29b3
00000110: 20a9 0500 21d6 0580 080a 2e1d 7f7e 15b4
00000120: 99fb f736 c298 0736 2663 33b6 18ac feb5
00000130: b70c 71b5 e91c 3a35 0c5e b636 5029 19b7
00000140: b2d9 83b5 c264 7d34 41a8 10b5 3867 5436
00000150: f492 2f34 2a42 1133 41ee 5634 594c 8a35
00000160: 9680 9bb6 b58d 0680 d3cb 2735 a704 85b5
00000170: 5165 0680 1aa9 82b5 ddc3 05b6 086d fbb3
00000180: fb95 07b4 0d51 1d36 25a7 0fb7 0792 d936
00000190: 9bd3 0735 a8b0 2735 f33b 9a29 df69 6a35
000001a0: 243f deb3 cf0d 7434 015b c435 2e26 0000
000001b0: c47e ac36 8b5a 55b6 9a77 0600 1304 c434
000001c0: 1132 15b6 d82b a435 2f68 a635 7a26 b336
000001d0: 4a3d b4b6 0656 f0b4 3324 dbb0 5570 95b5
000001e0: 5f46 0280 1d22 cfb5 6145 8635 a1ff b536
000001f0: 3eb6 dfb6 b60e 5131 7745 6b36 e0ff e135
00000200: 96d8 11b5 d5c9 7e35 2f47 1a36 da0f 3ab6
00000210: 5235 49b5 0772 aab5 8aff ffb3 fc6b dfb4
00000220: b34c a435 eae1 b2b6 5240 0c34 b2cf 2533
00000230: 96f9 c532 9461 96b5 96a4 0680 a595 58b6
00000240: 3335 ceb5 b475 d0b5 4e50 96b5 f6c3 6635
00000250: 9c61 7133 d1be 6eb3 2c4b 0080 91b0 2736
00000260: f9d3 e8b5 6cd3 9635 1ad8 37b5 0951 ca34
00000270: 22ee 0936 8ec7 6132 75ed 1035 ab10 beb5
00000280: 4db4 8cb5 2765 2cb5 240e 5ab5 38e6 f232
00000290: 3c96 0480 7147 60b2 d871 5536 a40e 05b4
000002a0: 46bd 52b7 3e08 9a28 f7b1 9cb3 e135 b335
000002b0: 4022 6636 7dc6 6b36 017c 06b4 0c37 0180
000002c0: 21fc 11b3 af7b fdb3 2ff4 1ab6 b0fb d032
000002d0: 593d b0b4 1afe 0180 746f ba35 3941 0300
000002e0: 4d71 19b5 595e 0500 5069 a3b3 6028 9335
000002f0: ddaf adb6 60b1 9b34 f0f1 0db6 0b92 46b5
00000300: f516 feb4 c4d0 7bb5 abdd b835 5ff1 dbb3
00000310: 9e67 0837 45d9 4f36 447c a7b6 b8b0 a7b5
00000320: adc2 08a4 d302 3ab6 51e9 84b6 3f4a 32b5
00000330: b126 e232 3a6e 9634 637e 87b6 0fb4 5236
00000340: dfdf b7b5 2794 5935 d210 3f36 d3ac 9e34
00000350: 8d55 3336 c3ba a6b4 c4d0 8cb5 740c 4ab6
00000360: 0752 12b5 70a1 46b5 2c54 32b6 8a8e 1db6
00000370: 6aa6 89b6 5898 1bb6 d229 7f33 a407 ac36
00000380: 612f 5fb3 1de7 9035 f63c 1cb6 4821 29b1
00000390: 68d1 ba33 29a0 8835 974e 1837 52ac d3b4
000003a0: 4ec8 6835 0f89 80b5 7242 08b6 8b1b 9633
000003b0: 9926 8035 8ee2 d834 2c85 e2b6 515b a482
000003c0: 5470 1a35 f8e1 24b6 3dc9 83b6 118e 4db6
000003d0: 8d5f 9496 70cc d234 6ccd 0db6 127f 0580
000003e0: e7f9 0480 528d 4536 7c89 0680 87f2 7036
000003f0: a884 e632 1b16 b3b3 565f 0c35 952c 0680
-8.7554866e-07 5.659477e-07 5.95532e-40 1.5389656e-06 -2.1836831e-08 1.9495813e-07 -2.7195453e-08 -7.905619e-07
2.7425524e-06 2.1902356e-07 2.0024156e-06 1.4543594e-06 1.9264492e-07 -2.4812866e-07 1.3759711e-06 -1.1025953e-06
-1.3648449e-07 1.5549564e-05 1.7926309e-06 -3.4744098e-06 2.307362e-06 1.9692493e-06 3.50078e-08 5.392244e-07
-7.6743635e-07 -2.7922895e-06 -7.4947515e-08 2.1166063e-07 -8.1113313e-07 -3.318469e-06 -1.135975e-06 -2.1938665e-06
1.11997124e-07 -3.4264883e-07 1.3173089e-06 8.913648e-07 -1.9608576e-06 -2.2701226e-07 -4.4383846e-06 2.9851435e-06
3.5306364e-06 -6.843388e-06 1.0275867e-06 -3.4580091e-06 2.3514324e-06 1.5981058e-06 -1.8626185e-06 2.2240565e-06
9.0017755e-07 -1.8142905e-30 -1.6631953e-06 -3.3439323e-06 5.30548e-40 -4.41289e-40 -1.6601966e-06 -1.3085565e-07
-1.391002e-06 -5.7092757e-07 -1.0553098e-28 -9.4697884e-07 -6.1997895e-07 -5.791179e-06 -3.9989454e-06 -1.8845996e-06
2.272146e-06 4.82198e-06 -3.32995e-08 -3.9443915e-08 5.19848e-40 -5.35992e-40 2.3033894e-21 -1.3922725e-07
7.3904635e-06 2.0205484e-06 -2.673079e-06 -1.8974561e-06 -8.9798e-07 6.933247e-07 5.434971e-06 -9.1291295e-06
-9.823618e-07 2.3599117e-07 -5.388902e-07 3.1650543e-06 1.6351606e-07 3.382062e-08 2.001698e-07 1.0304021e-06
-4.6343293e-06 -6.01848e-40 6.250895e-07 -9.910626e-07 -5.87358e-40 -9.73497e-07 -1.9932552e-06 -1.1707931e-07
-1.2627417e-07 2.3442e-06 -8.562381e-06 6.484104e-06 5.0599346e-07 6.2469417e-07 6.8493734e-14 8.7325856e-07
-1.0349166e-07 2.2729294e-07 1.4629624e-06 1.3696e-41 5.140757e-06 -3.1792176e-06 5.93918e-40 3.651081e-07
-2.2231873e-06 1.2231712e-06 1.2398285e-06 5.339095e-06 -5.371553e-06 -4.4766074e-07 -1.5944636e-09 -1.1134058e-06
-2.08915e-40 -1.543263e-06 1.000397e-06 5.4239795e-06 -6.6671337e-06 3.0421865e-09 3.5058163e-06 1.6838276e-06
-5.4331883e-07 9.491608e-07 2.2989223e-06 -2.7725387e-06 -7.4955926e-07 -1.2699173e-06 -1.1920845e-07 -4.1615556e-07
1.2241275e-06 -5.3311132e-06 1.3061916e-07 3.8605954e-08 2.3047317e-08 -1.120427e-06 -6.10055e-40 -3.2273613e-06
-1.5363679e-06 -1.5531464e-06 -1.1199243e-06 8.596684e-07 5.620096e-08 -5.558724e-08 -2.6967e-41 2.4987714e-06
-1.7347039e-06 1.1237403e-06 -6.848728e-07 3.7684393e-07 2.0553202e-06 1.3142097e-08 5.3989726e-07 -1.4160954e-06
-1.0483287e-06 -6.422219e-07 -8.1231906e-07 2.82772e-08 -4.21236e-40 -1.305476e-08 3.180574e-06 -1.2391916e-07
-1.2561044e-05 1.7101009e-14 -7.296688e-08 1.335222e-06 3.4292607e-06 3.5133264e-06 -1.2524835e-07 -1.11583e-40
-3.3989753e-08 -1.18037285e-07 -2.3089922e-06 2.4328841e-08 -3.282719e-07 -1.8299e-40 1.3890517e-06 2.98904e-40
-5.7161816e-07 4.93023e-40 -7.609435e-08 1.0964104e-06 -5.176275e-06 2.9000057e-07 -2.1151463e-06 -7.397327e-07
-4.732789e-07 -9.380858e-07 1.3773582e-06 -1.0241887e-07 8.130357e-06 3.0971871e-06 -4.9914543e-06 -1.2493902e-06
-2.9655196e-17 -2.7717804e-06 -3.961068e-06 -6.641821e-07 2.6327458e-08 2.8019878e-07 -4.038027e-06 3.1397246e-06
-1.3699718e-06 8.105439e-07 2.8471009e-06 2.955554e-07 2.6722876e-06 -3.1055797e-07 -1.0491572e-06 -3.0107594e-06
-5.4508604e-07 -7.399567e-07 -2.6573061e-06 -2.3477792e-06 -4.1022913e-06 -2.3185476e-06 5.940985e-08 5.126889e-06
-5.1964324e-08 1.0796099e-06 -2.3281295e-06 -2.4611655e-09 8.699391e-08 1.0179402e-06 9.078204e-06 -3.9427192e-07
8.6718217e-07 -9.576632e-07 -2.0304255e-06 6.989929e-08 9.547977e-07 4.0397975e-07 -6.750828e-06 -2.4150047e-37
5.753293e-07 -2.4569435e-06 -3.9275315e-06 -3.0630074e-06 -2.397099e-25 3.9264296e-07 -2.1130209e-06 -5.04762e-40
-4.5699e-40 2.9437547e-06 -6.00333e-40 3.5903956e-06 2.6835849e-08 -8.339358e-08 5.2292796e-07 -5.67006e-40

bn1.weight f4 [800]
00000000: 7bf8 aa3e f741 8b3e 9d90 0100 a181 e13e
00000010: e751 313e cafe cc3e ce1a 9d3b 73c7 e13e
00000020: 4e6b db3e 898d 373e 6ac2 803e a8b4 4e3e
00000030: 5421 b43e af1f a33e a5fe 8b3e 2f67 d23d
00000040: dada 983e 8baa d63e e2f3 713e 1bf0 b13e
00000050: 0662 9d3e 78be b83e ac68 653d 887e a43e
00000060: 6fd3 b23e 6a01 d33e fe7b 033e 0653 0e3e
00000070: 9629 b43e 52be df3e b2c0 b03e f869 c93e
00000080: 3948 113e d661 d73e 3a3a c93e 8f0a cd3e
00000090: 9a49 b13e 40f9 323e 185b df3e 5418 803e
000000a0: a350 953e fcc1 c43e 15e3 533e 7b7c bf3e
000000b0: 6767 d43e 2f8d 7d3e e4ec 9e3e 4a1e fa3e
000000c0: b642 a03e 4016 c83b 4d60 b03e 6d43 cb3e
000000d0: 264e 6785 6822 0000 605b 8d3e 0891 083d
000000e0: 2505 af3e ebcd d03e 5ec3 16bb 10f0 933e
000000f0: 5c02 723e ee8e dd3e a327 943e 9daa c83e
00000100: 78a8 c63e ec81 d73e e9dd cf3e 34b8 5b3e
00000110: 22f3 0887 3f9f d7b6 8d9f 8f3a 3ba7 ab3e
00000120: cec1 c33e 9ab6 ee3e 225f f83e 8eb6 913e
00000130: 736c 993e d875 b03e ccda c03e d402 c83e
00000140: e742 b53e 7adb 563e d081 a33e 7b69 c53e
00000150: a6f5 ca3e 6781 023e 0571 683e 0f09 9d3e
00000160: 4f86 ff3e f700 2b23 9785 ba3e df9d a33e
00000170: 5bac 5b39 e102 813e c966 973e f466 be3e
00000180: fdb2 c13d cfe3 c43e 1a0f ca3e 8d4c d33e
00000190: 23f3 f03e 8685 463e 1451 5e3d 6e6e db3e
000001a0: f027 c63e 34cb c53e 5b9e d53e 6d9b 1dba
000001b0: b423 b63e b43f b73e 994e c2b4 cce4 673e
000001c0: 202b d13e a936 b93e a6ca 763e d047 c93e
000001d0: c8f3 be3e 2d48 b13e d194 ac3c 9681 d13e
000001e0: 2e3c 6136 084e ac3e ce5e 8c3e 5889 d63e
000001f0: 0d8d e93e 93d6 7e3e b064 e03e 1af7 e93e
00000200: f1ac 4e3e 30ae 833e 0843 d93e 2566 ce3e
00000210: 9bf6 8f3e 3277 ae3e 40df 1a3e ea13 d83e
00000220: f880 a93e 4f95 f63e 8683 ca3e d645 113e
00000230: d6df dd3e 6dc4 ab3e c813 0ab8 2af0 ba3e
00000240: 7567 8b3e b1ad 893e 468a 843e ad89 d43e
00000250: 2394 0b3e 35e2 c83e 753d 2538 ddd1 df3e
00000260: 8816 e13e 0b26 ba3e b79c 773e b970 7d3e
00000270: 493f ce3e ea23 9e3d 90af af3e 3c93 a03e
00000280: 71a4 8e3e 87ab ac3e 1914 d83e 60b6 763e
00000290: e3e5 9737 15a7 0c3e 46cb bc3e ecd0 333e
000002a0: 1dc7 bf3e 4698 9b3c 702d 053e 70a6 013f
000002b0: 194a bd3e 180a d83e 8072 e1ba 843c 130d
000002c0: ba98 593e 2c85 9f3e eb3d a53e 8f87 cb3e
000002d0: 5755 583e 4c5d 0800 7336 cd3e 171a 0000
000002e0: 91e7 853e afd2 b1b8 7f91 0d3c 2d3d dc3e
000002f0: af71 f53e da8c d33e e597 d93e 4496 913e
00000300: cb3a 823e e1f1 e33e 6bb5 ab3e 1f1f 293c
00000310: 952c cf3e 2c86 cf3e bd65 0a3f d66a e03e
00000320: b2ea 1b3c 2f75 a93e 94b6 dd3e 24e8 ee3e
00000330: 0d47 f43c 8026 4a3e 0a2b 083f 32c6 993e
00000340: ebf8 b53e 88cf 823e 1bb4 ad3e 5e71 5e3e
00000350: 235a b53e 7c14 493d 199e bc3e 788f bb3e
00000360: ac11 9e3e 51c8 ab3e 51a8 cf3e 9057 ba3e
00000370: e823 ad3e 0f00 d03e 2c2e b63d f622 aa3e
00000380: 7969 403e cfe0 503e bf68 a93e 584a 893c
00000390: c9ad 8e3d 1fb7 dd3e 3bdc d93e db40 273e
000003a0: b52d 763e 439b ad3e 51f1 943e da4c 513e
000003b0: 21fd d23e 2aa5 613e 1461 b43e 0c02 64bb
000003c0: e775 b23e 4236 bf3e 9e71 923e 2a70 ff3e
000003d0: e3d7 d43c 3ca5 5d3e 4fc6 063f 3c8e e58a
000003e0: e604 8d8e dde4 ef3e f5c5 0080 c807 a23e
000003f0: c079 df3e cb71 a93e 307e d43e 12cb 2fa6
0.333927 0.27198765 1.43713e-40 0.44044212 0.173164 0.4003814 0.004794455 0.4409748
0.42855304 0.17925085 0.25148326 0.20186102 0.35181677 0.3186011 0.27342716 0.10273587
0.2985447 0.4192699 0.2362819 0.34753498 0.30738848 0.36082816 0.056008026 0.32127786
0.34926936 0.41212016 0.12840268 0.13898858 0.35187978 0.4369989 0.34522015 0.3933866
0.14187707 0.4206683 0.39302236 0.40047118 0.34626466 0.17477894 0.43624187 0.2501856
0.29163083 0.38429248 0.20692094 0.3739966 0.4148514 0.24760889 0.31040108 0.48851234
0.31300896 0.006106168 0.34448472 0.3969988 -1.08759214e-35 1.2343e-41 0.27608776 0.033341438
0.34183612 0.40782103 -0.0023004632 0.2889409 0.23633713 0.4327311 0.2893649 0.39192668
0.38800406 0.4209131 0.40598992 0.21456987 -1.0302953e-34 -6.426038e-06 0.0010957584 0.33526024
0.382338 0.4662369 0.4851008 0.2845959 0.29965553 0.34464908 0.3766693 0.39064658
0.35402605 0.20982161 0.31934977 0.38557038 0.3964054 0.12744676 0.22699364 0.30670974
0.49907157 9.270133e-18 0.36430046 0.31956384 0.00020949675 0.2519751 0.29570606 0.37187922
0.094579674 0.38455054 0.39464647 0.4126934 0.470605 0.19386873 0.05427654 0.4285769
0.38702345 0.38631594 0.41722378 -0.0006012235 0.35574114 0.3579079 -3.6192503e-07 0.22645873
0.40853214 0.36174515 0.24100742 0.393126 0.37295365 0.34625378 0.021067055 0.4091918
3.3562642e-06 0.33653283 0.2741608 0.4190166 0.45615426 0.24886541 0.43826818 0.45696336
0.2018316 0.25718832 0.42433953 0.40312305 0.28117833 0.34075314 0.15124226 0.42202693
0.33106208 0.48160788 0.3955347 0.14186797 0.43334836 0.33548298 -3.2920187e-05 0.36511356
0.2722737 0.2689033 0.25886744 0.41511288 0.13630728 0.39235082 3.9396302e-05 0.437148
0.43962502 0.3635715 0.24180876 0.24750032 0.40282658 0.07721694 0.3431363 0.3136233
0.27859834 0.33724615 0.42202833 0.24093008 1.8107652e-05 0.13735612 0.36873835 0.17560166
0.374566 0.018993508 0.13005614 0.5064459 0.36970595 0.421952 -0.0017200261 4.5370715e-31
0.21249667 0.3115629 0.32273802 0.3975186 0.21126305 7.68153e-40 0.40080604 9.359e-42
0.26153234 -8.4792606e-05 0.008640646 0.43015423 0.47938296 0.413184 0.424987 0.28434956
0.2543548 0.44520476 0.33536848 0.010322361 0.404637 0.40532053 0.5406149 0.4383151
0.009516405 0.33097216 0.4330336 0.46661484 0.029819036 0.19741249 0.5319067 0.30034024
0.35541472 0.2554896 0.33926472 0.21722934 0.3542033 0.0490918 0.3683937 0.36632895
0.30872858 0.33551267 0.40558103 0.3639493 0.33816457 0.40625045 0.08895525 0.33229798
0.18790235 0.20398258 0.33087727 0.016759083 0.06966741 0.43303773 0.42550835 0.16333334
0.24040873 0.33907518 0.2909036 0.20439473 0.41208747 0.22035661 0.35230315 -0.003479126
0.34855577 0.37346083 0.28602308 0.49890262 0.025981849 0.21645063 0.52646345 -2.21054e-32
-3.47639e-30 0.46854296 -7.1014e-41 0.31646562 0.43647575 0.3309463 0.41502523 -6.0990533e-16

bn1.bias f4 [800]
00000000: fece 48be 8274 f6bd 0be9 8eb0 995f 83be
00000010: 94ae 70be 6e32 71be b097 e33c 036d 81be
00000020: bb6a 7dbe 8985 85be d834 82be 7738 16be
00000030: 2c58 82be d8b1 6ebe dbb8 77be 7be0 9dbd
00000040: 85f5 62be 1423 79be 106d 68be cc3a 4fbe
00000050: 3cc1 85be 9f42 9cbe 052a a0bd a908 5dbe
00000060: bea1 90be 65b8 8bbe 00ad 3fbe 7fce 20be
00000070: 9072 35be 9776 8cbe 7c8c 7abe 049e 56be
00000080: bf34 43be 18f3 5fbe df3c 2abe 0a86 96be
00000090: aab2 5fbe d10f 72be f3aa a2be c51a 6fbe
000000a0: 70ae 1ebe c63d 8ebe 1278 58be 4775 8dbe
000000b0: 688f 18be eebb 1bbe b0d6 95be 51d3 a4be
000000c0: 3c5e 5bbe ce08 2bbc 1120 4cbe 6f0c 82be
000000d0: bdaf 6c2d 7ecc 8f30 a9a5 29be 850b bfbd
000000e0: e720 2fbe 6a6e 7cbe 80b7 8abc bd48 60be
000000f0: d797 59be 0f7a 02be 63db 57be 2072 a2be
00000100: 9aa5 38be 6913 4fbe 85dc 93be 1255 56be
00000110: 8873 20a9 4e1a 04b7 afd7 82bc 47c3 f7bd
00000120: b5c4 81be cf80 50be 02cd 61be d20b 3abe
00000130: 5ce2 8bbe 4743 1abe a72a 83be e0c7 57be
00000140: 433e 9abe 0f03 75be d1f8 9dbe c5ed a4be
00000150: 9221 a5be 10f5 fcbd 0a24 b1bd d0a7 57be
00000160: 700b 8cbe 1b93 2ca7 58df 81be d2a2 1fbe
00000170: e417 c7b8 8154 38be 9516 53be 2595 44be
00000180: bd13 08be 2142 86be 55ce 4ebe c9cc 74be
00000190: f747 99be 4836 50be c7b2 d8bd c401 64be
000001a0: ce9e 9ebe 70d6 54be 334e 32be 7e8a bbba
000001b0: 5eaf 53be 866b 49be 7a72 23af 4198 46be
000001c0: d7dc 44be a30a 79be 8922 4fbe 14aa 7cbe
000001d0: a439 51be 8ed2 8bbe a647 31bd 0796 98be
000001e0: ff5f 66ae dc85 71be dab1 80be 888d 50be
000001f0: 150c 98be ea81 4cbe 4c73 53be 3309 80be
00000200: 57de 05be a21a 4dbe 2cd1 9fbe 47f6 79be
00000210: b204 a8be 4866 4dbe 7105 48be ec80 67be
00000220: c52e 41be bb3d 94be 2d38 82be b8d8 51be
00000230: bcbb a0be d6a3 89be 9a43 a4b8 f585 8bbe
00000240: feb7 2fbe 00e9 4cbe e0e7 1dbe 02a3 8bbe
00000250: 7ff1 6bbe e3db d7be 36d8 48ba e73b 64be
00000260: 3e94 2ebe 2532 80be 505c c9bd 71af 9fbe
00000270: 7d62 34be e7dc 32be 1059 9abe 6e70 3abe
00000280: 5d62 6cbe 4334 68be 906d aabe 5cf6 a7be
00000290: 1aad 33b6 6f97 51be a945 67be 944f 90be
000002a0: ac8d 41be 1a5e 26bd 0ff7 4dbe d90b 9ebe
000002b0: 1750 91be 803a 73be 52a2 163d 0163 15ac
000002c0: a335 37be 1cb6 6cbe 270f 59be e73b b6be
000002d0: 5cb4 11be 4d2e 38ba 6ab0 67be bcb3 d9ab
000002e0: a66c 2abe 9d84 10ba 2d04 ac3d 9223 2bbe
000002f0: 92aa 7abe 9533 88be 0f1e 55be 586d 3cbe
00000300: 5717 81be d827 3dbe e09e 80be 3b25 ed3c
00000310: ca5b 4abe 7a3b 41be 388e 82be 4963 a0be
00000320: e38f 22bd e5c2 56be 81eb 84be 8891 9abe
00000330: 43ed e8bd c303 31be 8019 aabe 0d18 80be
00000340: 47e8 6bbe 02e5 76be c831 22be ddce 77be
00000350: 777b 94be 1d08 993c e7e8 8abe 0d1d 2abe
00000360: c51a 81be fcfe 29be 8bcf 7cbe 1097 79be
00000370: 1241 0bbe 9be1 4bbe 1e16 1cbe 1e75 b0bd
00000380: 5579 76be 2c09 19be b9cd 0bbe b435 30bd
00000390: cc10 63bd ebb7 8dbe c101 9dbe eace 38be
000003a0: bb7b 34be 8842 9fbe 7213 32be ba54 6ebe
000003b0: f7f5 8abe 3442 48be 282d 04be 7981 6ebc
000003c0: 85ef 5dbe 9997 4cbe 5dd4 22be 3b4c 87be
000003d0: 4aa7 82bd 0de1 16be 8b17 4fbe 8801 10bc
000003e0: 6a02 1fa6 cc9e 73be 524f 2da2 4209 2bbd
000003f0: f11b 88be dfe6 3ebe 633e 54be 7d3c 3f99
-0.19610211 -0.12033941 -1.0398095e-09 -0.25658873 -0.23504096 -0.23554394 0.027782291 -0.25278482
-0.24747746 -0.26078442 -0.25430942 -0.14669977 -0.25457895 -0.2331003 -0.2419161 -0.07708832
-0.22163971 -0.24329787 -0.22697854 -0.20237273 -0.2612399 -0.30519578 -0.078205146 -0.21585335
-0.282484 -0.2728912 -0.18718338 -0.15703772 -0.17719483 -0.27434227 -0.24467653 -0.20958716
-0.1906309 -0.21870077 -0.16624783 -0.2939914 -0.21845499 -0.23638846 -0.3177105 -0.23350056
-0.1549623 -0.27781504 -0.21139553 -0.27628538 -0.14898455 -0.15208408 -0.29265356 -0.32192472
-0.21422666 -0.010439111 -0.19934107 -0.2540011 1.3454069e-11 1.046274e-09 -0.165671 -0.09328369
-0.17102395 -0.24651495 -0.016933203 -0.21902747 -0.21249329 -0.12741874 -0.21079783 -0.31727695
-0.18031922 -0.20222248 -0.2887918 -0.20930889 -3.5627344e-14 -7.873938e-06 -0.015971987 -0.12097793
-0.25345388 -0.20361637 -0.2205086 -0.18168572 -0.27321136 -0.15064727 -0.2561848 -0.2107234
-0.30125627 -0.23926948 -0.30853894 -0.32212654 -0.32252175 -0.123514295 -0.08649452 -0.21060109
-0.27352476 -2.3949541e-15 -0.2536571 -0.15589455 -9.4935094e-05 -0.18000986 -0.20614083 -0.19197519
-0.1328878 -0.26222327 -0.20195897 -0.23906244 -0.29937717 -0.20333207 -0.10580974 -0.22266299
-0.30980533 -0.20784926 -0.17412643 -0.0014308242 -0.20672366 -0.19669923 -1.4865434e-10 -0.19394018
-0.19224869 -0.24320464 -0.20228018 -0.24674255 -0.20432144 -0.27309078 -0.04328122 -0.29801962
-5.2381207e-11 -0.2358622 -0.2513569 -0.2036649 -0.29696718 -0.19971433 -0.20649451 -0.25007018
-0.13073097 -0.20029691 -0.31214273 -0.24410354 -0.32816082 -0.20058548 -0.19533326 -0.22607774
-0.18865497 -0.28953347 -0.25433484 -0.20492828 -0.3139323 -0.2688281 -7.832721e-05 -0.2725064
-0.17160031 -0.20010757 -0.15420485 -0.27272803 -0.23041342 -0.42159948 -0.00076616125 -0.22288476
-0.17048737 -0.25038257 -0.0983206 -0.3118854 -0.17615695 -0.1746708 -0.30146074 -0.18206951
-0.23084398 -0.22676186 -0.33286715 -0.32805145 -2.6773837e-06 -0.20467924 -0.22585167 -0.28185713
-0.189017 -0.040617086 -0.20113777 -0.30868414 -0.28381416 -0.23752785 0.036775894 -2.1229132e-12
-0.17891555 -0.23116344 -0.21197186 -0.35592577 -0.14228958 -0.00070259423 -0.2262589 -1.5468664e-12
-0.16643009 -0.0005512925 0.08399234 -0.16712788 -0.2447913 -0.26601854 -0.20812248 -0.18401086
-0.2521312 -0.1847223 -0.25121212 0.028948417 -0.19761577 -0.18870345 -0.2549913 -0.3132575
-0.039688002 -0.20972784 -0.25960925 -0.30189157 -0.11373379 -0.17286591 -0.3322258 -0.2501835
-0.23037826 -0.24110797 -0.15839303 -0.24200006 -0.29000446 0.018680627 -0.27130815 -0.16612644
-0.25215736 -0.16601175 -0.24688546 -0.24374032 -0.13599041 -0.1991028 -0.15242812 -0.08616088
-0.24069722 -0.14944905 -0.13652696 -0.043019965 -0.05543594 -0.2767938 -0.306654 -0.18047681
-0.17625324 -0.31105447 -0.1739023 -0.23274508 -0.2714078 -0.19556504 -0.1290785 -0.014557236
-0.216734 -0.19979705 -0.15901323 -0.26425347 -0.06379564 -0.14734288 -0.20223825 -0.008789428
-5.516748e-16 -0.23791045 -2.3487864e-18 -0.041756876 -0.26583818 -0.18642758 -0.20726924 -9.886684e-24
