results_genes/intersections/models/MLP_ConvMLP4/MLP610.pt (torch, 924951 bytes, 22 tensors)

bn0.weight f4 [9]
0	0x3f7aa2a0	0.97904396
1	0x3f808725	1.0041243
2	0x3f83d0c2	1.0298083
3	0x3f8a6ebb	1.0815042
4	0x3f63320e	0.8874825
5	0x3f645cc0	0.89204025
6	0x3f877705	1.0583197
7	0x3f4a1dda	0.789518
8	0x3f69f401	0.91387945

bn0.bias f4 [9]
0	0x3972c402	0.00023151937
1	0x39545c3f	0.0002025226
2	0xb7993874	-1.826531e-05
3	0xba2d9789	-0.0006622007
4	0xb910164f	-0.00013741221
5	0xb90854fd	-0.00013001631
6	0x3982b20e	0.00024928193
7	0x37416b7d	1.1528723e-05
8	0xb9a03a23	-0.00030560893

bn0.running_mean f4 [9]
0	0x40e617ac	7.1903896
1	0x40e87bc5	7.2651086
2	0x415eb590	13.919327
3	0x40fd408c	7.9141293
4	0x40c66c1b	6.2006965
5	0x4115dc28	9.366249
6	0x4129ee7c	10.620724
7	0x40e73cec	7.2261868
8	0x410513a2	8.317293

bn0.running_var f4 [9]
0	0x3ecedff7	0.40405247
1	0x3f0fcf77	0.5617594
2	0x3d6f34a9	0.05839983
3	0x3f59b5ea	0.85043204
4	0x3e43495b	0.19070952
5	0x3ec6f00b	0.38855013
6	0x3fb968c0	1.4485092
7	0x3e22975a	0.15878049
8	0x3f6be869	0.92151505

fc1.weight f4 [2000, 9]
0	0xbdd5e915	-0.104448475
1	0x3dcdc9fb	0.1004829
2	0x3e3cc67c	0.18435091
3	0xbdec5ac1	-0.115407474
4	0x3da9775e	0.082747206
5	0x3d6511aa	0.05592505
6	0x3da947dc	0.08265659
7	0xbce9052e	-0.028444853
8	0xbda7a91e	-0.081865534
9	0x3d77cf92	0.06050069
10	0x3cc614e7	0.024179889
11	0xbe1b8a10	-0.15189385
12	0x3d98c35e	0.07459138
13	0xbe54e22e	-0.20789406
14	0xbdd5f29a	-0.10446663
15	0x3dadd82a	0.08488496
16	0x3d8cf3e3	0.06882455
17	0xbea26826	-0.31720084
18	0xbd265883	-0.040611755
19	0x3e1476c2	0.14498428
20	0xbd193043	-0.03739954
21	0xbd63baaa	-0.05559794
22	0xbcccb685	-0.024989376
23	0xbc9ec3c9	-0.019380467
24	0xbdd4f394	-0.10398021
25	0xbdd02802	-0.10163881
26	0xbd1d454c	-0.038396165
27	0x3d0955cb	0.033529084
28	0xbe4a9c33	-0.19786148
29	0x3e4d620c	0.20056933
30	0xbe271ce0	-0.16319609
31	0x3cec634e	0.028855946
32	0x3e112603	0.14174657
33	0xbe2b59e8	-0.16733515
34	0x3ded9ccd	0.11602173
35	0x3da89554	0.08231607
36	0xbdd86e42	-0.10567905
37	0x3e01cd00	0.12675858
38	0x3dcc6f16	0.099821255
39	0x3e4f57da	0.20248356
40	0xbc0b1a14	-0.008490104
41	0xbe675252	-0.22589996
42	0xbe6bafb1	-0.2301624
43	0x3d05563f	0.032552954
44	0x3e0b0f03	0.13579945
45	0xbe56775d	-0.20943971
46	0xbd40d872	-0.04708142
47	0xbde4c96a	-0.11171229
48	0x3c94ae57	0.018149538
49	0x3d6f8788	0.058478862
50	0xbe99fadf	-0.30074212
51	0x3cd94c68	0.026525691
52	0x3db2185d	0.08696053
53	0x3ded9325	0.11600331
54	0xbe1a2379	-0.15052594
55	0xbe3f24fc	-0.18666452
56	0xbe709b71	-0.23496796
57	0xbd9e3e1c	-0.0772669
58	0xbdd348ad	-0.10316596
59	0x3e4b5e6d	0.1986024
60	0x3e1c04ad	0.15236159
61	0x3e0916c0	0.13387585
62	0xbda7e300	-0.08197594
63	0xbe3c58a3	-0.18393187
64	0xbe1e507a	-0.15460387
65	0x3e89a0ca	0.26880485
66	0x3bc91b62	0.0061372975
67	0x3dc93400	0.09824371
68	0x3e3fba7d	0.18723483
69	0xbde9668e	-0.11396514
70	0x3df2dca2	0.118584886
71	0xbae6443b	-0.0017567942
72	0x3c98dd03	0.018660074
73	0xbda0898f	-0.07838737
74	0x3dfab1e4	0.12240961
75	0x3cb9ce00	0.022681236
76	0x3d762193	0.060090613
77	0x3c49e428	0.012322463
78	0x3ce0462f	0.027377216
79	0x3d99c0db	0.075074874
80	0xbe37de5b	-0.17955916
81	0x3e15ed49	0.14641298
82	0xbd0eb4cd	-0.034840394
83	0xbde3388e	-0.11094771
84	0x3d872bed	0.06600175
85	0xbdc7d4f9	-0.09757418
86	0x3eab1d47	0.33420774
87	0x3e0488c1	0.12942792
88	0xbd4f85e2	-0.05066479
89	0xbdaab07f	-0.08334445
90	0x3c28f5b4	0.010312486
91	0x3c3e41a0	0.011612326
92	0x3dbfa87e	0.09358309
93	0xbe511b5a	-0.2042059
94	0x3e7fc189	0.24976172
95	0xbd227571	-0.039662782
96	0xbc536152	-0.012901621
97	0x3bd35769	0.006449629
98	0xbe1a96cb	-0.15096585
99	0xbd86aeb7	-0.06576293
100	0xbe4d8b50	-0.20072675
101	0x3e02c667	0.12770997
102	0xbd3bfce1	-0.04589546
103	0x3e63cdde	0.22246501
104	0x3e483d18	0.19554555
105	0xbc39a73c	-0.011331376
106	0x3e19dee6	0.15026435
107	0xbe4a8250	-0.19776273
108	0xbcc57c9c	-0.02410727
109	0xbdaf7b1a	-0.08568402
110	0xbe030834	-0.12796098
111	0xbd413794	-0.047172144
112	0x3d96f7bf	0.073714726
113	0x3e02a55f	0.12758397
114	0x3c936569	0.017992692
115	0x3da9e984	0.08296493
116	0x3c98c356	0.018647831
117	0x3e81f946	0.25385493
118	0x3c397107	0.011318452
119	0x3e2bfbb8	0.16795242
120	0x3cb8e0fb	0.022568217
121	0xbd788115	-0.060669977
122	0xbe3a269f	-0.18178795
123	0x3e167b92	0.14695576
124	0xbcb12d0b	-0.021627923
125	0xbe2626b2	-0.16225699
126	0xbdb40e57	-0.087917976
127	0xbbacdef3	-0.005275601
128	0xbba6712d	-0.0050794096
129	0x3cbc423e	0.022980805
130	0xbcd0d72d	-0.025493229
131	0x3ec35467	0.3815033
132	0xbe04d347	-0.12971221
133	0xbe060365	-0.13087232
134	0xbdfc84f8	-0.12330049
135	0xbd85e6d9	-0.06538171
136	0x3e0c86b7	0.13723265
137	0x3ddf72fd	0.10910604
138	0xbcf5ee6f	-0.03002092
139	0xbd81b006	-0.06332402
140	0xbdec9e0d	-0.11553583
141	0x3d3df5a2	0.04637683
142	0x3d79bf27	0.060973313
143	0x3e0d8c9e	0.13823172
144	0xbe40a375	-0.18812354
145	0xbe202584	-0.15639311
146	0x3e5ef5fb	0.21773522
147	0x3e9df540	0.30851173
148	0xbd0aa3db	-0.03384767
149	0x3c3fbb26	0.0117023345
150	0xbdc28ec1	-0.094998844
151	0x3d3a17d2	0.045432873
152	0xbe4a99b3	-0.19785194
153	0x3dc6b312	0.09702124
154	0xbea27f2b	-0.31737646
155	0xbd69557e	-0.056966297
156	0x3ddc6e7b	0.1076326
157	0xbd75c868	-0.060005575
158	0xbe35fb9f	-0.17771767
159	0x3c90b317	0.017663522
160	0x3d84b674	0.06480113
161	0x3e31b85a	0.17355481
162	0x3d47c0c0	0.048767805
163	0xbd13cd0f	-0.03608423
164	0xbe4ddc9f	-0.20103692
165	0xbc618a75	-0.013765921
166	0xbdbaee64	-0.09127501
167	0x3e9a0b69	0.3008683
168	0x3cd17837	0.025570018
169	0xbd49c9c5	-0.049264688
170	0xbe72bf94	-0.23705894
171	0x3d1b85ee	0.037969522
172	0x3dd91970	0.10600555
173	0xbda5681c	-0.08076498
174	0xbe9ce681	-0.3064461
175	0xbe15ce6b	-0.14629523
176	0x3d40bb77	0.04705378
177	0x3d8fff62	0.07031132
178	0x3e49e14f	0.19714855
179	0x39b4a698	0.00034456397
180	0xbcf1f022	-0.02953345
181	0x3c867436	0.016412836
182	0xbda0e1d5	-0.07855574
183	0xbec54c8a	-0.38534957
184	0x3cc1e608	0.023669258
185	0x3d8acd38	0.067774236
186	0x3d2a503e	0.04158043
187	0x3df85142	0.12124874
188	0x3dc892f2	0.097936526
189	0x3cb1b6d2	0.02169362
190	0xbc9e61d0	-0.01933375
191	0xbde9c9d0	-0.11415446
192	0xbd4b671a	-0.049658872
193	0xbe8aa1e5	-0.2707664
194	0x3dcc7adf	0.09984373
195	0x3e162db1	0.14665867
196	0xbe00d594	-0.12581474
197	0xbdc3cf24	-0.09560993
198	0xbd204d7a	-0.039136387
199	0xbe8c12fd	-0.27358237
200	0x3e068533	0.13136749
201	0x3e3d5925	0.18491037
202	0x3ae99939	0.0017822153
203	0xbe1ec4b1	-0.1550472
204	0xbe2bc905	-0.16775902
205	0xbe38e59f	-0.18056343
206	0xbe0a5606	-0.13509378
207	0xbb2457a8	-0.0025076661
208	0x3e10feec	0.14159745
209	0x3e188417	0.14894138
210	0x3dc769ea	0.097369984
211	0x3e498766	0.19680557
212	0xbd3e3ed1	-0.046446625
213	0xbead6045	-0.3386251
214	0x3d24bae5	0.0402173
215	0xbc5d6f5c	-0.01351532
216	0xbd0c07ad	-0.034187008
217	0xbe9c5230	-0.30531454
218	0x3e3bc544	0.1833697
219	0x3e7bfb49	0.24607576
220	0xbe1873e7	-0.14887963
221	0xbdd7cd77	-0.10537236
222	0xbe75a64d	-0.2398922
223	0x3cc5896c	0.02411338
224	0xbc9a763d	-0.018855209
225	0xbcee7f32	-0.029113386
226	0xbe7035ac	-0.23457974
227	0xbe2e0c3a	-0.16996852
228	0xbb2a61ce	-0.0025998238
229	0xbde8b457	-0.11362522
230	0x3dcd13ec	0.100135654
231	0xbbd68601	-0.006546736
232	0xbcc30039	-0.023803817
233	0x3d898fc0	0.06716871
234	0x3dfca931	0.12336958
235	0x3c23e7ec	0.010004025
236	0x3d022b61	0.03177965
237	0xbe2fd241	-0.17170049
238	0xbecc947e	-0.3995704
239	0xbc26c5c0	-0.010178983
240	0xbdb40a9a	-0.087910846
241	0x3e0d6494	0.13807899
242	0x3e4b988f	0.19882415
243	0x3e5f7f18	0.21825826
244	0xbd27da90	-0.04097992
245	0x3d8ea542	0.06965114
246	0xbe38f3e0	-0.18061781
247	0xbd9fc2ac	-0.078008026
248	0xbe02cd9f	-0.1277375
249	0x3e6eb8fb	0.23312752
250	0xbe25ff44	-0.16210657
251	0xbdace88f	-0.084427945
252	0xbd010eaa	-0.031508125
253	0x3d072ade	0.032999866
254	0xbe0355bb	-0.12825672
255	0x3dd04188	0.10168749

fc1.bias f4 [2000]
0	0xb4ca3960	-3.7667178e-07
1	0xb3c95516	-9.375269e-08
2	0x3581b184	9.662913e-07
3	0xb6eca28f	-7.0522724e-06
4	0x354bee2b	7.5969973e-07
5	0x36eb250d	7.007859e-06
6	0xb701e025	-7.741187e-06
7	0xb6cf50c1	-6.1784817e-06
8	0xb5b65ed3	-1.3587654e-06
9	0xb5e82e2c	-1.7298785e-06
10	0x36153f39	2.223953e-06
11	0xb635ac63	-2.7071444e-06
12	0xb521df0b	-6.0301744e-07
13	0x36df3965	6.6525995e-06
14	0x36e5bc9c	6.846689e-06
15	0xb7473bf8	-1.1875287e-05
16	0xb78e3161	-1.6950713e-05
17	0x37396b4f	1.1051844e-05
18	0x3607c49c	2.023101e-06
19	0x3727485a	9.970821e-06
20	0x376f1c96	1.4252166e-05
21	0xb6bcf83a	-5.631734e-06
22	0xb5ba3660	-1.3873905e-06
23	0xb60ffd9e	-2.1456285e-06
24	0xb7a7b7a7	-1.9993471e-05
25	0x35f45da7	1.8206673e-06
26	0xb6f95024	-7.430108e-06
27	0xb6a4904d	-4.9043797e-06
28	0xb701385f	-7.702124e-06
29	0x35de246d	1.655089e-06
30	0x343bb015	1.747979e-07
31	0x35e06edb	1.6721564e-06
32	0xb7977956	-1.8057104e-05
33	0x8003b006	-3.38652e-40
34	0x37540882	1.2638166e-05
35	0x37ed98e3	2.8323795e-05
36	0x358959b5	1.0233404e-06
37	0xb6178424	-2.257767e-06
38	0x36370dc3	2.7277135e-06
39	0xb7d92a84	-2.5888214e-05
40	0xb75407fd	-1.2638045e-05
41	0x38055d96	3.179683e-05
42	0x35870fe8	1.0062913e-06
43	0x36f91bac	7.4239997e-06
44	0x36e8cf77	6.938291e-06
45	0xb8532c6d	-5.0347695e-05
46	0xb728fb75	-1.0072127e-05
47	0xb553cb92	-7.889986e-07
48	0x3502bb95	4.870174e-07
49	0xb4577d48	-2.0069012e-07
50	0x35d46f3c	1.5827604e-06
51	0x0005d970	5.3718e-40
52	0x36b19c30	5.2931937e-06
53	0x37da397e	2.6014397e-05
54	0xb73138f3	-1.0563282e-05
55	0x370d6b27	8.429203e-06
56	0x38111c76	3.45972e-05
57	0xb6bea718	-5.6818935e-06
58	0xb6aa5122	-5.07584e-06
59	0x34043b4f	1.2315034e-07
60	0x363fb0f5	2.856422e-06
61	0x8000ce87	-7.4088e-41
62	0x8d048987	-4.0841183e-31
63	0x35e6d4f9	1.7198319e-06
64	0x36f5c587	7.324564e-06
65	0x36d36a73	6.3006823e-06
66	0xb71a2488	-9.187621e-06
67	0x37323db0	1.06239895e-05
68	0xb73aa594	-1.1125016e-05
69	0xb639ba69	-2.7675653e-06
70	0x3644511c	2.9253488e-06
71	0x36e23e07	6.742546e-06
72	0x8006d060	-6.25764e-40
73	0x34f419b0	4.5467232e-07
74	0x08f5684e	1.4769923e-33
75	0xb70672db	-8.013764e-06
76	0xb7acec6e	-2.0614094e-05
77	0xb720c5ec	-9.582825e-06
78	0xb5959f9a	-1.1147815e-06
79	0x3785d247	1.5952754e-05
80	0xb612716a	-2.182171e-06
81	0xb7882110	-1.622786e-05
82	0xb765bcba	-1.3693405e-05
83	0x364bd11d	3.0371077e-06
84	0xb68761d9	-4.0347045e-06
85	0x378de018	1.6912862e-05
86	0xb6a42011	-4.891314e-06
87	0xb66b8826	-3.5096978e-06
88	0x1131b6de	1.4019188e-28
89	0x2d7ab411	1.42508375e-11
90	0x35cac7d8	1.5108335e-06
91	0xb72f5751	-1.0451143e-05
92	0x35a48f6b	1.2260692e-06
93	0x358c1b4b	1.0438756e-06
94	0x36ced592	6.1641413e-06
95	0x3530159f	6.559657e-07
96	0xb3425df3	-4.525459e-08
97	0xb72a782d	-1.016077e-05
98	0xb640bf94	-2.8721743e-06
99	0xb7126aab	-8.727114e-06
100	0xb6465804	-2.955553e-06
101	0xb700c8df	-7.6761635e-06
102	0x371fd0b7	9.525734e-06
103	0xb7a7ecc6	-2.0018208e-05
104	0x830ebc04	-4.194588e-37
105	0x365d0545	3.2934634e-06
106	0xb4f02728	-4.4731974e-07
107	0x3617ecef	2.2638667e-06
108	0x35e47707	1.7021965e-06
109	0xb64336d5	-2.908918e-06
110	0x3766ef58	1.3764795e-05
111	0x37404b46	1.1461618e-05
112	0xb5ef1883	-1.7814021e-06
113	0xb7a8e7b9	-2.0135065e-05
114	0x36204096	2.3879452e-06
115	0x36a93294	5.0424806e-06
116	0x37c83b3c	2.3869441e-05
117	0xb6c6a468	-5.9199992e-06
118	0x37a4c1ee	1.9640629e-05
119	0x375fa07f	1.3329204e-05
120	0x921a6d6d	-4.872871e-28
121	0x37231ac5	9.72179e-06
122	0x3785e0e1	1.5959553e-05
123	0xb723e856	-9.769652e-06
124	0xb7ad75e3	-2.0678102e-05
125	0x37ab7fe2	2.0444339e-05
126	0xb5cac404	-1.5107221e-06
127	0x35b0dca0	1.3177232e-06
128	0xb543c973	-7.293631e-07
129	0x382152d2	3.8462524e-05
130	0x37087805	8.134176e-06
131	0x358dc065	1.0561313e-06
132	0xb5cbf7e4	-1.5196824e-06
133	0xb82c5c9a	-4.1094238e-05
134	0xb702fcb5	-7.807442e-06
135	0x36fd2e27	7.5453604e-06
136	0x37f3c38a	2.9058912e-05
137	0x36a1ee5a	4.8259217e-06
138	0x371cc0aa	9.343183e-06
139	0xb6a207c1	-4.828879e-06
140	0x3679e027	3.7234365e-06
141	0x3709cf22	8.214063e-06
142	0xb7490d33	-1.1983607e-05
143	0x374f7dec	1.236748e-05
144	0xb7cf021f	-2.467731e-05
145	0xb780d5db	-1.5358373e-05
146	0x0006bdc5	6.1909e-40
147	0xb6e7f8ba	-6.913292e-06
148	0x372d1e3a	1.0318641e-05
149	0xb7212599	-9.605102e-06
150	0xb6e1d786	-6.7306128e-06
151	0x38162b0e	3.5802885e-05
152	0x36bcdf7f	5.628855e-06
153	0x3796c1ef	1.79717e-05
154	0xb69cc563	-4.672141e-06
155	0x342d0f9e	1.6117562e-07
156	0xb706b1c1	-8.028409e-06
157	0xb7594365	-1.2949899e-05
158	0xb7c51467	-2.349373e-05
159	0x348b83a1	2.598654e-07
160	0xb710ca02	-8.6301025e-06
161	0x3710f490	8.6400105e-06
162	0xb7021ecb	-7.755773e-06
163	0xb765a54d	-1.3687951e-05
164	0xb54b3080	-7.569397e-07
165	0x3714ccba	8.869154e-06
166	0x3588ccfd	1.0192449e-06
167	0x368607e6	3.9944307e-06
168	0xb729643b	-1.0096522e-05
169	0x35e953b2	1.7384211e-06
170	0x37b3c7d3	2.1431513e-05
171	0x3702bdf3	7.79283e-06
172	0xb6e2adb3	-6.755546e-06
173	0xb6a786e7	-4.9926925e-06
174	0x34fd4031	4.7171628e-07
175	0xb724562c	-9.795225e-06
176	0x3771d888	1.44151345e-05
177	0x33fe712b	1.1848382e-07
178	0xb62a79cf	-2.5402876e-06
179	0xb78e9e33	-1.7001386e-05
180	0xb5f4fa76	-1.825231e-06
181	0x328151a7	1.5054708e-08
182	0x36842092	3.9376982e-06
183	0xb43ac65e	-1.7394765e-07
184	0x36426975	2.8969637e-06
185	0xb5a97dde	-1.2628113e-06
186	0x35eb4e43	1.7531642e-06
187	0xb72a9b4e	-1.0168949e-05
188	0x3704fa54	7.926097e-06
189	0xb695760f	-4.45429e-06
190	0x373c9364	1.123999e-05
191	0xb7f99b4a	-2.9755425e-05
192	0xb79a0816	-1.8361996e-05
193	0x381079e6	3.4445802e-05
194	0xb750f4de	-1.2454779e-05
195	0x37d4ea25	2.5381401e-05
196	0x372be2da	1.0245212e-05
197	0xb241e6f5	-1.1286592e-08
198	0xb79f912a	-1.9021874e-05
199	0xb743f245	-1.16793135e-05
200	0xb755a085	-1.2733163e-05
201	0x37d79af9	2.5702162e-05
202	0x347234cf	2.2557218e-07
203	0xb7a1bba7	-1.9280078e-05
204	0x367411cf	3.63692e-06
205	0xb721f36a	-9.653022e-06
206	0x37753ac0	1.4616817e-05
207	0xb61ed604	-2.3668408e-06
208	0xb627ad0d	-2.4985668e-06
209	0x8005ad18	-5.21272e-40
210	0x37a9c831	2.0239591e-05
211	0x33a36676	7.6089165e-08
212	0x36e20d24	6.7368546e-06
213	0xb7122c3b	-8.712576e-06
214	0xb3630f09	-5.286623e-08
215	0x378ede89	1.7031345e-05
216	0xb648e667	-2.9936434e-06
217	0x360f103c	2.131811e-06
218	0x37e914f3	2.778552e-05
219	0xb716193a	-8.94657e-06
220	0x000033fb	1.8647e-41
221	0x36213a7b	2.402491e-06
222	0xb6edb76a	-7.0845026e-06
223	0xb72a8a2a	-1.0164958e-05
224	0xb63e75ed	-2.8380848e-06
225	0x37d3df53	2.5257154e-05
226	0xb7b6a574	-2.1773136e-05
227	0xb7b92bb3	-2.2074068e-05
228	0xb6fb0059	-7.4804234e-06
229	0xb70614e6	-7.991888e-06
230	0x361bb4d9	2.3202067e-06
231	0xb6aa58da	-5.0767385e-06
232	0xb75688ee	-1.2787275e-05
233	0xb6a77740	-4.9908704e-06
234	0x375c08fa	1.3115112e-05
235	0x000079f6	4.3751e-41
236	0xb5951e8e	-1.1110258e-06
237	0x367dd91b	3.782631e-06
238	0xb68ce018	-4.198413e-06
239	0xb7310758	-1.0551732e-05
240	0x367890d3	3.7039179e-06
241	0x3422b40d	1.5152928e-07
242	0xb687e2a7	-4.0496993e-06
243	0x369865ae	4.54179e-06
244	0xb7041389	-7.8723615e-06
245	0x362bd526	2.5605054e-06
246	0x3619b41b	2.2903612e-06
247	0xb6fc08c7	-7.511207e-06
248	0xb6ac558e	-5.1359593e-06
249	0xb5b3eed7	-1.3406051e-06
250	0x35067326	5.0086453e-07
251	0xb599d5a1	-1.1461563e-06
252	0x35478b13	7.4335657e-07
253	0xb7763bf2	-1.46767e-05
254	0xb7b05789	-2.1021597e-05
255	0x3702ff45	7.808038e-06

bn1.weight f4 [2000]
0	0x3e7bd240	0.24591923
1	0x3e81260e	0.25224346
2	0x3e143e0e	0.14476797
3	0x3e7f6be1	0.24943496
4	0x3e98cda7	0.298444
5	0x3ec100b2	0.37695843
6	0x3ef2d31a	0.47426683
7	0x3e995717	0.29949257
8	0x3defc6ad	0.11707816
9	0x3e5b50bf	0.21417521
10	0x3e884a6f	0.26619288
11	0x3e8e9dcf	0.27854773
12	0x3df7c55b	0.120981894
13	0x3eae2d93	0.34019145
14	0x3e8d4763	0.27593526
15	0x3e84a218	0.25904918
16	0x3edfa6b5	0.43681875
17	0x3eb56740	0.35430336
18	0x3ea26ce5	0.31723705
19	0x3e98b45b	0.298251
20	0x3e779418	0.24177587
21	0x3ea7c494	0.32767165
22	0x3e9003d6	0.28127927
23	0x3eaca1a1	0.33717063
24	0x3eeda650	0.4641595
25	0x3e508329	0.20362534
26	0x3ec37804	0.38177502
27	0x3e917189	0.28406933
28	0x3e73d9c6	0.23813543
29	0x3edea7ef	0.43487498
30	0x3ea3e78f	0.32012603
31	0x3ea979b6	0.3310067
32	0x3f060d4b	0.52364033
33	0x80006de9	-3.9428e-41
34	0x3eb94c39	0.36190966
35	0x3eb50c65	0.3536102
36	0x3e7514e8	0.23933756
37	0x3e21766e	0.15767834
38	0x3e8826d6	0.2659213
39	0x3ea68d74	0.32529795
40	0x3eaa655a	0.3328045
41	0x3ec47297	0.38368675
42	0x3e66b8eb	0.22531478
43	0x3e9b23e3	0.30300817
44	0x3ecf9751	0.40545133
45	0x3ec4ee65	0.3846313
46	0x3edb2ca4	0.42807496
47	0x3e5dd923	0.21664862
48	0x3e87775a	0.26458246
49	0x3e0bddbf	0.13658808
50	0x3efc2b50	0.49251795
51	0x0000ab32	6.1413e-41
52	0x3e83490c	0.25641668
53	0x3e6decb9	0.23234834
54	0x3eee6834	0.46563876
55	0x3ede0cc7	0.43369123
56	0x3eca9a76	0.3957097
57	0x3e254a22	0.1614156
58	0x3ee77cf6	0.45212525
59	0x3e070652	0.13186005
60	0x3e1f49e9	0.15555538
61	0x3a792a23	0.0009504875
62	0x3ad90aa8	0.0016558962
63	0x3e1d0fbe	0.15338036
64	0x3f06679f	0.52501863
65	0x3e86b649	0.26310948
66	0x3eb8f04e	0.36120838
67	0x3ea103ae	0.3144812
68	0x3edbbf89	0.42919567
69	0x3e5664f6	0.20936951
70	0x3ed3611b	0.41285023
71	0x3eb8e8b3	0.36115035
72	0x0cb35bed	2.7634643e-31
73	0x3e1f3359	0.15546931
74	0xbc73cdaf	-0.014880582
75	0x3e924b23	0.2857295
76	0x3eb5e241	0.3552418
77	0x3ec63961	0.38715652
78	0x3e659b2d	0.22422476
79	0x3eb85357	0.36001083
80	0x3e85231a	0.26003343
81	0x3ee70eea	0.45128566
82	0x3e8ee66e	0.2791018
83	0x3ea2a109	0.31763485
84	0x3e301737	0.17196356
85	0x3e8e1333	0.27749023
86	0x3e82da8d	0.25557366
87	0x3ead3bd7	0.33834717
88	0x3b5f92d6	0.003411462
89	0x3c359b76	0.011084428
90	0x3ec429e9	0.38313225
91	0x3ed2196c	0.4103502
92	0x3eb0ed55	0.3455607
93	0x3e5d32d6	0.21601424
94	0x3ecbb0df	0.3978338
95	0x3ecf8a35	0.4053513
96	0x3e9636cb	0.2933868
97	0x3e6b1e4f	0.2296078
98	0x3f014c3d	0.50506955
99	0x3ec590ca	0.38587028
100	0x3ea1347f	0.31485364
101	0x3e2c19f1	0.16806771
102	0x3eb78414	0.35842955
103	0x3ea5bb14	0.32369292
104	0x3c94845f	0.018129526
105	0x3eb1d67a	0.34733945
106	0x3e748dac	0.23882169
107	0x3eb0ae4e	0.34507984
108	0x3e63fe7d	0.22265048
109	0x3e9b7a84	0.3036691
110	0x3ebb77f3	0.36614951
111	0x3ed7b5a4	0.42130768
112	0x3e1f8f10	0.15581918
113	0x3eb0187a	0.34393674
114	0x3e107b57	0.1410955
115	0x3e8fc622	0.2808085
116	0x3ee8913f	0.45423314
117	0x3e86b73c	0.26311672
118	0x3ea8118b	0.32825884
119	0x3e8923b4	0.26785052
120	0x3bb98c9c	0.005662514
121	0x3f05034c	0.51958156
122	0x3eb1e92f	0.34748217
123	0x3ea71e46	0.32640284
124	0x3ecc260b	0.39872774
125	0x3e88a4ec	0.26688325
126	0x3e9d5236	0.30726784
127	0x3bfdb271	0.007742219
128	0x3dc74d2b	0.097315155
129	0x3ee6665c	0.4499997
130	0x3e896155	0.2683207
131	0x3e720d47	0.23637877
132	0x3e96b437	0.29434368
133	0x3ee06618	0.4382789
134	0x3eba12c9	0.36342457
135	0x3edc6152	0.43043
136	0x3eb4d1c4	0.35316288
137	0x3e9258e1	0.28583434
138	0x3f003a4c	0.50088954
139	0x3ea85d0c	0.3288349
140	0x3e6b1aed	0.2295949
141	0x3eb9223a	0.36158925
142	0x3edba4a4	0.42899048
143	0x3ee3d2a5	0.44496647
144	0x3ebd9be7	0.37033007
145	0x3e96e3ed	0.2947077
146	0x00000b32	4.016e-42
147	0x3e189a3f	0.1490259
148	0x3ee88199	0.45411375
149	0x3e99aa5f	0.30012795
150	0x3eb27194	0.34852278
151	0x3eaa6ab2	0.33284527
152	0x3edb0373	0.4277607
153	0x3ece7a79	0.40327814
154	0x3e445a83	0.19175152
155	0x3ea17f08	0.3154223
156	0x3e62e033	0.22155838
157	0x3ead5bbf	0.3385906
158	0x3ee35275	0.44398847
159	0x3e67bbce	0.22630236
160	0x3e932e90	0.28746462
161	0x3e9abf99	0.30224302
162	0x3e848ac0	0.25887108
163	0x3e9084d6	0.28226346
164	0x3e765b57	0.24058281
165	0x3e68a29d	0.22718282
166	0x3e16cb7e	0.14726064
167	0x3e8f7518	0.28019023
168	0x3ec34782	0.38140494
169	0x3eb65ddb	0.3561848
170	0x3ebb56bf	0.3658962
171	0x3e490186	0.19629487
172	0x3e94968b	0.29021105
173	0x3ed501b1	0.41602853
174	0x3ebee1e7	0.37281725
175	0x3ed027a7	0.40655252
176	0x3e8a8def	0.27061412
177	0x3ea09195	0.3136107
178	0x3eb932fd	0.36171713
179	0x3e843a9b	0.25825962
180	0x3e035dde	0.12828776
181	0x3e0aa2de	0.13538691
182	0x3e708d1e	0.23491332
183	0x3d0dfbde	0.034664027
184	0x3e797a56	0.24363074
185	0x3e4908db	0.19632284
186	0x3e245b9f	0.16050576
187	0x3ee4c3c2	0.446806
188	0x3ea4faf7	0.3222272
189	0x3ec0994b	0.37616953
190	0x3e8b7904	0.27240765
191	0x3ee75bef	0.45187327
192	0x3eb3094e	0.34968036
193	0x3e8146a3	0.25249204
194	0x3e9c43d9	0.30520514
195	0x3ee15a4a	0.44014198
196	0x3e8127b3	0.252256
197	0x3dcbc49c	0.0994961
198	0x3ea3ac1f	0.31967255
199	0x3ea170d1	0.31531385
200	0x3ebbcfbb	0.36681923
201	0x3ecee289	0.40407208
202	0x3e3924bb	0.18080418
203	0x3e98fd70	0.29880857
204	0x3e9cd7e8	0.30633473
205	0x3ef2f6cf	0.47453925
206	0x3e933429	0.28750733
207	0x3e8f237f	0.2795677
208	0x3e65c2cd	0.22437592
209	0xaf1ce04b	-1.4267802e-10
210	0x3ef8d4fb	0.4859999
211	0x3ebdef2d	0.3709654
212	0x3e883a03	0.2660676
213	0x3eeef74e	0.46673054
214	0x3e3d33e3	0.18476824
215	0x3e6bbd4c	0.2302143
216	0x3e9c5327	0.3053219
217	0x3ed4aaa3	0.41536435
218	0x3eb92417	0.36160347
219	0x3e883046	0.2659933
220	0x0002adf4	2.46074e-40
221	0x3e9abfe5	0.3022453
222	0x3ea69bc3	0.32540712
223	0x3e905885	0.28192535
224	0x3e78906b	0.24273841
225	0x3eae11a4	0.33997834
226	0x3ea811e5	0.32826152
227	0x3eb98142	0.36231428
228	0x3eaafdc4	0.33396733
229	0x3e5a045b	0.21290724
230	0x3e9a4750	0.30132532
231	0x3ebf14e1	0.37320617
232	0x3e8e6a60	0.27815533
233	0x3ec2dca6	0.38058966
234	0x3ea7da2c	0.3278364
235	0x8000301b	-1.7257e-41
236	0x3ea2c8ca	0.31793815
237	0x3eaecfa3	0.3414279
238	0x3eb7e1c0	0.3591442
239	0x3eb4a208	0.3527987
240	0x3e499e50	0.19689298
241	0x3e0ca204	0.13733679
242	0x3ed5af83	0.41735467
243	0x3e812b72	0.2522846
244	0x3ebd02c3	0.3691617
245	0x3ecb881b	0.39752278
246	0x3e9a60b6	0.3015191
247	0x3e6bd4fd	0.23030467
248	0x3ef45775	0.47722974
249	0x3ed766d7	0.42070648
250	0x3e27bec6	0.16381368
251	0x3e8b60be	0.27222246
252	0x3e8bd7cc	0.27313077
253	0x3e9c8ca5	0.30576053
254	0x3ee56c1c	0.44809043
255	0x3ec25891	0.37958196

bn1.bias f4 [2000]
0	0xbe5496f3	-0.20760708
1	0xbe80c48e	-0.2514996
2	0xbe22e45e	-0.15907428
3	0xbda7ac80	-0.08187199
4	0xbe51c868	-0.20486605
5	0xbe70091f	-0.2344098
6	0xbe9efa78	-0.31050467
7	0xbe5c7bb0	-0.21531558
8	0xbe1e474e	-0.15456888
9	0xbe2c3919	-0.16818656
10	0xbe540519	-0.2070507
11	0xbda7eff9	-0.08200068
12	0xbe12cbed	-0.14335604
13	0xbe353e97	-0.17699657
14	0xbdaa68bf	-0.0832076
15	0xbe28c528	-0.16481459
16	0xbea597e5	-0.3234245
17	0xbe670668	-0.22561038
18	0xbe26f0b4	-0.16302758
19	0xbe512cf7	-0.20427309
20	0xbc54b212	-0.012981908
21	0xbda7c157	-0.081911735
22	0xbe4f7d8a	-0.20262733
23	0xbe9671ec	-0.2938379
24	0xbeb6c546	-0.35697383
25	0xbdde04fc	-0.108407944
26	0xbe9e96b7	-0.3097436
27	0x3ce0d15f	0.027443586
28	0xbdee1818	-0.11625689
29	0xbe8aa3f4	-0.2707821
30	0xbdece35d	-0.115668036
31	0xbe9b0c04	-0.30282605
32	0xbe7746dd	-0.24148126
33	0xb6a1259f	-4.8025536e-06
34	0xbe2e1315	-0.16999467
35	0xbe4ccd85	-0.20000274
36	0xbe3557df	-0.17709301
37	0xbe38411c	-0.17993587
38	0xbe2531e9	-0.1613232
39	0xbe5d7757	-0.21627556
40	0xbe69694d	-0.22794075
41	0xbe722fa5	-0.23650987
42	0xbe56f270	-0.2099092
43	0xbe836b99	-0.25668028
44	0xbe694df9	-0.2278365
45	0xbdd2229a	-0.10260506
46	0xbe8d3ae0	-0.2758398
47	0xbe3940ab	-0.18091075
48	0xbe42e038	-0.19030845
49	0xbe2d301e	-0.16912887
50	0xbeaf97bb	-0.3429545
51	0x9abb5a97	-7.748774e-23
52	0xbe2e6e07	-0.1703416
53	0xbd67fcbc	-0.05663751
54	0xbe7acaa7	-0.24491368
55	0xbe6278be	-0.22116372
56	0xbd86167d	-0.06547258
57	0xbe5ddcb1	-0.21666218
58	0xbe80e879	-0.25177363
59	0xbe207dfb	-0.15673058
60	0xbd53adb2	-0.05167932
61	0xbb4918f6	-0.0030685044
62	0xbbd4583a	-0.006480244
63	0xbe4a5378	-0.19758403
64	0xbddcd4ec	-0.10782799
65	0xbdd07c57	-0.10179966
66	0xbe889aad	-0.26680508
67	0xbe8dd074	-0.276981
68	0xbea0a76e	-0.3137774
69	0xbdb05dda	-0.08611651
70	0xbe8755cb	-0.26432642
71	0xbe2d4b4f	-0.16923259
72	0xbcbff6da	-0.023433138
73	0xbe57ec65	-0.21086271
74	0xbd2ab33e	-0.041674845
75	0xbcf86078	-0.030319437
76	0xbe0ba803	-0.1363831
77	0xbe904ec4	-0.28185093
78	0xbe4dc848	-0.20095932
79	0xbe035107	-0.12823878
80	0xbe620f96	-0.22076258
81	0xbe0df9e2	-0.13864854
82	0xbd783e0a	-0.06060604
83	0xbe0b120e	-0.13581106
84	0xbe53de89	-0.20690359
85	0xbdf81027	-0.12112456
86	0xbe5f1605	-0.21785744
87	0xbe1c6b0f	-0.15275215
88	0xbd50ae3f	-0.050947424
89	0xbd070d12	-0.03297145
90	0xbe6e15a5	-0.23250444
91	0xbe8da7e0	-0.2766714
92	0xbe6c9552	-0.23103836
93	0xbe310841	-0.17288305
94	0xbe5ae1a4	-0.21375138
95	0xbe522527	-0.20521985
96	0xbe351f80	-0.17687798
97	0xbe435052	-0.19073609
98	0xbe9f7771	-0.31145814
99	0xbe0d0418	-0.13771093
100	0xbe7e171b	-0.24813502
101	0x3c9740ea	0.01846357
102	0xbe5a4395	-0.21314843
103	0xbeb3819a	-0.35059816
104	0xbd68692a	-0.056740917
105	0xbea372a9	-0.31923416
106	0xbdfa0f26	-0.122099206
107	0xbe528dcf	-0.20561908
108	0xbe584ebb	-0.21123783
109	0xbeb58f12	-0.35460716
110	0xbdd1c37d	-0.102423646
111	0xbe9bbe25	-0.30418506
112	0xbe33b2fe	-0.17548749
113	0xbe295eb4	-0.16540033
114	0xbe2d768a	-0.1693975
115	0xbe842285	-0.25807586
116	0xbe7a4f9d	-0.24444433
117	0xbe2af1de	-0.16693828
118	0xbda166db	-0.07880946
119	0xbddf2fed	-0.10897813
120	0xbb9a4bdb	-0.0047087497
121	0xbe2c88c1	-0.16849042
122	0xbe160657	-0.14650856
123	0xbe8281da	-0.25489694
124	0xbec0ce45	-0.3765737
125	0xbddb609f	-0.107117884
126	0xbdd5871b	-0.1042616
127	0x3d14b8e1	0.036309127
128	0xbe10b0d6	-0.14129958
129	0xbea4b3cd	-0.32168427
130	0xbdc66cd3	-0.09688725
131	0xbe1a042c	-0.15040654
132	0xbe887bd4	-0.26656973
133	0xbd9cbbec	-0.07653031
134	0xbe7761ef	-0.24158452
135	0xbe4c8c0d	-0.199753
136	0xbe2243c4	-0.15846163
137	0xbe9e384d	-0.3090233
138	0xbe868fa6	-0.2628147
139	0xbe7fa3ae	-0.24964783
140	0xbe1e4bbb	-0.15458576
141	0xbe7a90c2	-0.24469283
142	0xbeb74e9b	-0.3580216
143	0xbe5f9f79	-0.21838178
144	0xbdc9e07e	-0.098572716
145	0xbe124c69	-0.1428696
146	0xac232081	-2.3181736e-12
147	0xbd6736f0	-0.056448877
148	0xbebbc7f3	-0.36675987
149	0xbd7de51e	-0.06198608
150	0xbeb51a07	-0.3537142
151	0xbe715fc3	-0.23571686
152	0xbe61a75d	-0.220365
153	0xbe610736	-0.21975407
154	0xbe4fa944	-0.20279413
155	0xbe4709a7	-0.19437276
156	0xbe42fa89	-0.19040884
157	0xbd87122e	-0.065952644
158	0xbe7aa7b4	-0.24478036
159	0xbe68a583	-0.22719388
160	0xbe56b529	-0.20967545
161	0xbe119cb7	-0.14219938
162	0xbe7c331c	-0.24628872
163	0xbd884689	-0.066540785
164	0xbe33098c	-0.1748411
165	0xbd71ce3a	-0.059034564
166	0xbe2c895a	-0.1684927
167	0xbea9fd8f	-0.33201262
168	0xbe80d211	-0.25160268
169	0xbe799cfc	-0.24376291
170	0xbdf7ea62	-0.12105252
171	0xbdb07f77	-0.08618062
172	0xbdbe09d3	-0.092792176
173	0xbdfd7caa	-0.123772934
174	0xbe9e8b2e	-0.3096556
175	0xbe98002e	-0.29687637
176	0xbe4512e5	-0.19245489
177	0xbe1d5c0b	-0.15367143
178	0xbea11023	-0.31457624
179	0xbdbd8a18	-0.09254855
180	0xbe32c664	-0.17458493
181	0xbe0852e7	-0.13312875
182	0xbdbc0a3e	-0.09181641
183	0xbd1b2490	-0.037876666
184	0xbdb7aa8d	-0.08968077
185	0xbdf8da1d	-0.12150977
186	0xbe6d100e	-0.23150656
187	0xbe725d86	-0.23668489
188	0xbd8d1b63	-0.06889989
189	0xbeba62b8	-0.3640344
190	0xbd845ac4	-0.06462625
191	0xbe9653d2	-0.29360825
192	0xbe0aabb4	-0.13542062
193	0xbdd191bb	-0.10232874
194	0xbe6a5a8a	-0.228861
195	0xbe3f7e29	-0.1870047
196	0xbe895e7a	-0.26829892
197	0xbe581bab	-0.21104304
198	0xbe54a19a	-0.20764771
199	0xbe9f527d	-0.3111762
200	0xbe939f92	-0.2883268
201	0xbe52eca2	-0.20598081
202	0xbe1e9be0	-0.15489149
203	0xbe45c823	-0.19314627
204	0xbe3d10b4	-0.18463403
205	0xbe59f6e9	-0.21285595
206	0xbe3c2529	-0.1837355
207	0xbdd26c2a	-0.10274537
208	0xbe6976ee	-0.22799274
209	0xb1c20ca2	-5.6475793e-09
210	0xbeb1c3f2	-0.34719807
211	0xbe3b5841	-0.18295385
212	0xbe16ab40	-0.14713764
213	0xbe895164	-0.2681991
214	0xbe123cb8	-0.14280975
215	0xbd92b569	-0.071635075
216	0xbe412ab6	-0.18863949
217	0xbe3a07e2	-0.1816707
218	0xbdedc2d4	-0.11609426
219	0xbe841989	-0.25800732
220	0x9e9e7669	-1.6777874e-20
221	0xbdca291a	-0.09871121
222	0xbe07460a	-0.13210312
223	0xbb752d98	-0.003741121
224	0xbe26364f	-0.16231655
225	0xbd651c2d	-0.055935074
226	0xbe3f089b	-0.18655626
227	0xbe1e2793	-0.15444784
228	0xbe8ba64b	-0.2727531
229	0xbe333ef6	-0.17504486
230	0xbad63902	-0.0016343894
231	0xbe1eabc0	-0.15495205
232	0xbe479096	-0.19488749
233	0xbe3fc23d	-0.1872644
234	0xbe6b1281	-0.22956277
235	0xb3a4ea13	-7.679423e-08
236	0xbebb8a30	-0.36628866
237	0xbd62c749	-0.055365834
238	0xbeb60acd	-0.35555115
239	0xbe93ada5	-0.28843418
240	0xbe530dc0	-0.20610714
241	0xbe665fba	-0.22497454
242	0xbe76aa1d	-0.2408833
243	0xbe96febd	-0.29491225
244	0xbe4e27fb	-0.20132439
245	0xbed5b96f	-0.41743037
246	0xbe5369f1	-0.20645882
247	0xbe10af1c	-0.14129299
248	0xbe4e0a59	-0.20121135
249	0xbe81103a	-0.25207692
250	0xbde1c418	-0.1102373
251	0xbe0dde0a	-0.13854232
252	0xbd923adb	-0.07140132
253	0xbe3d710b	-0.18500154
254	0xbe99f692	-0.3007093
255	0xbe6eea49	-0.2333156

bn1.running_mean f4 [2000]
0	0x372e0261	1.0371762e-05
1	0x3775bc3c	1.4646965e-05
2	0x372fa828	1.0469965e-05
3	0xb7832793	-1.5634845e-05
4	0x370436b9	7.880554e-06
5	0x371e3b5b	9.431354e-06
6	0xb804dcba	-3.167682e-05
7	0xb7e3c182	-2.7150618e-05
8	0xb5228563	-6.0543806e-07
9	0xb7d55d29	-2.543496e-05
10	0x37255eb1	9.856813e-06
11	0xb801c049	-3.0935076e-05
12	0xb7d33fac	-2.518281e-05
13	0x38196da0	3.658014e-05
14	0xb7e59794	-2.7369511e-05
15	0x3747b3db	1.19032e-05
16	0xb73df6e2	-1.132276e-05
17	0x35a92d2c	1.2604628e-06
18	0xb7bc9767	-2.2481849e-05
19	0xb40644e7	-1.2504789e-07
20	0xb6c6c54e	-5.923829e-06
21	0x373b1680	1.1151307e-05
22	0x37972b90	1.8020888e-05
23	0xb6bb1660	-5.575639e-06
24	0x36898b72	4.0991517e-06
25	0xb78afd04	-1.6568702e-05
26	0x3729ead7	1.0127863e-05
27	0x383d4441	4.5124678e-05
28	0xb58f1f63	-1.0663465e-06
29	0xb6054547	-1.985887e-06
30	0x36be1ec6	5.6660238e-06
31	0xb740600e	-1.1466456e-05
32	0x380992b8	3.2799988e-05
33	0x8000556f	-3.0648e-41
34	0x36f57805	7.315541e-06
35	0x380e23a8	3.3888646e-05
36	0x379fd0d8	1.9051527e-05
37	0xb78c8f58	-1.675605e-05
38	0xb6618a66	-3.3608171e-06
39	0xb701d792	-7.739191e-06
40	0xb83ce850	-4.503905e-05
41	0xb64ad29c	-3.0222936e-06
42	0xb79513a1	-1.7771325e-05
43	0x36f5af07	7.321945e-06
44	0xb802db7d	-3.119883e-05
45	0x381da106	3.758168e-05
46	0x37db75ac	2.616163e-05
47	0x36ff98f3	7.617398e-06
48	0xb7a3eb20	-1.9540603e-05
49	0xb79a6cc0	-1.8408871e-05
50	0x37daa8bc	2.6066198e-05
51	0x80005ace	-3.2575e-41
52	0x3716c13f	8.98569e-06
53	0x3753b612	1.2618972e-05
54	0x36b36c95	5.3472563e-06
55	0x3813aa2e	3.5206023e-05
56	0xb8184e95	-3.631281e-05
57	0x366705d7	3.4425082e-06
58	0xb78b00d1	-1.6570471e-05
59	0xb60e0a56	-2.1165665e-06
60	0x374dc9d8	1.2265948e-05
61	0xb1cd3f29	-5.9734657e-09
62	0xb68d1ee1	-4.2057222e-06
63	0xb783195a	-1.5628222e-05
64	0x361874be	2.2717718e-06
65	0xb6129fee	-2.1848787e-06
66	0x37387f05	1.0996829e-05
67	0x37baeba2	2.2282653e-05
68	0xb6f6be9a	-7.3535602e-06
69	0x374b96b0	1.2134828e-05
70	0xb794dc56	-1.7745577e-05
71	0xb79c2aec	-1.8616636e-05
72	0x043c5c73	2.2141744e-36
73	0xb5b22dd9	-1.3275377e-06
74	0xb6aac417	-5.0892227e-06
75	0x3754e3f5	1.268926e-05
76	0xb6f67f2b	-7.3461756e-06
77	0x36d063e1	6.2105105e-06
78	0x37113c84	8.656763e-06
79	0x36cffa06	6.1981873e-06
80	0xb7540122	-1.2636448e-05
81	0x372d2329	1.031979e-05
82	0x3692049a	4.3516748e-06
83	0xb7b8c63a	-2.2026816e-05
84	0xb749120e	-1.1984737e-05
85	0x381aec5f	3.69366e-05
86	0x376ae8c3	1.4001681e-05
87	0x376af9b4	1.4005625e-05
88	0x35c7e137	1.4892202e-06
89	0xb656189d	-3.1902812e-06
90	0x374878eb	1.1949082e-05
91	0x3796a204	1.7956838e-05
92	0x380af7a3	3.3132394e-05
93	0xb73dc0f2	-1.1310201e-05
94	0x378b5e1f	1.661392e-05
95	0x370d1b51	8.410615e-06
96	0x36a3916a	4.874707e-06
97	0x36795f58	3.7159389e-06
98	0xb5759970	-9.1492893e-07
99	0xb7b3230c	-2.1354783e-05
100	0xb5bee5d0	-1.4222987e-06
101	0x3572a181	9.0387044e-07
102	0xb64aa78d	-3.0197873e-06
103	0xb7369972	-1.0883772e-05
104	0xb48861f8	-2.5403256e-07
105	0x375399d6	1.2612398e-05
106	0x37c57291	2.353758e-05
107	0x378e626b	1.6973549e-05
108	0xb6eb4bcb	-7.012369e-06
109	0xb580989c	-9.581158e-07
110	0x3708354b	8.11864e-06
111	0xb68aeaaf	-4.1400413e-06
112	0xb70e8b39	-8.496275e-06
113	0xb6fc2acf	-7.515169e-06
114	0x37a89d22	2.0100331e-05
115	0x36a99b45	5.0546682e-06
116	0x37faa31b	2.9878274e-05
117	0xb8229454	-3.876195e-05
118	0xb7bf2e36	-2.2790493e-05
119	0xb7c891ae	-2.3909695e-05
120	0xb23f90b1	-1.1150562e-08
121	0xb84cec50	-4.8857473e-05
122	0xb7d3a0fc	-2.5228124e-05
123	0x37acf3a7	2.0617457e-05
124	0xb7f5fe7e	-2.9324783e-05
125	0xb7616bbf	-1.3436132e-05
126	0x37387f07	1.09968305e-05
127	0x373a0d9b	1.1089632e-05
128	0x35e9ba2e	1.7414038e-06
129	0xb63a77fc	-2.7786e-06
130	0x37cb6d45	2.4250368e-05
131	0x37959a52	1.7834045e-05
132	0x354eac66	7.6991853e-07
133	0xb771555f	-1.4384596e-05
134	0xb827df68	-4.0023966e-05
135	0x380e1d65	3.3882814e-05
136	0x36c2e1bf	5.807931e-06
137	0x37ca7944	2.4136745e-05
138	0x37addaee	2.0725154e-05
139	0x375176f1	1.2485064e-05
140	0x36c7e185	5.956916e-06
141	0xb7a4bdb3	-1.9638659e-05
142	0x37e2c563	2.7033215e-05
143	0xb51e219b	-5.890849e-07
144	0x37d1d0c4	2.5011956e-05
145	0x3728c109	1.0058525e-05
146	0x000008b6	3.125e-42
147	0x36bbf7c1	5.6018766e-06
148	0x3694a623	4.4300846e-06
149	0xb7b98755	-2.2116737e-05
150	0x37354f0e	1.0806847e-05
151	0xb827a5ab	-3.9970193e-05
152	0xb6bdfca4	-5.66205e-06
153	0x374deb08	1.2273675e-05
154	0x3678fc5d	3.7101775e-06
155	0x3802b286	3.116068e-05
156	0x350504af	4.9553176e-07
157	0xb80994d1	-3.280194e-05
158	0x37849dee	1.5809168e-05
159	0xb7864eee	-1.60108e-05
160	0x375e510f	1.3251104e-05
161	0x37271be0	9.960466e-06
162	0xb5509d95	-7.771535e-07
163	0x36e9e132	6.9701573e-06
164	0xb72803b9	-1.0014447e-05
165	0xb7d0c4b7	-2.4887135e-05
166	0x35a4eb82	1.2287494e-06
167	0x379d0659	1.8718814e-05
168	0x37e82099	2.7671735e-05
169	0xb71b17b7	-9.2442415e-06
170	0xb71c346f	-9.310533e-06
171	0xb6ceb8c4	-6.160788e-06
172	0x3737f523	1.0964725e-05
173	0xb7698d8f	-1.3920841e-05
174	0x37ddbaf7	2.6432315e-05
175	0xb7d5ea76	-2.5500758e-05
176	0x363f93e4	2.8547302e-06
177	0x381d7899	3.7544032e-05
178	0x37836bb1	1.5666565e-05
179	0xb799ccee	-1.833445e-05
180	0xb6f897a0	-7.4086274e-06
181	0x3738844b	1.09980565e-05
182	0x37240859	9.777105e-06
183	0x363ea74f	2.8409593e-06
184	0xb7e70439	-2.7539312e-05
185	0xb8307783	-4.2072974e-05
186	0xb70036d1	-7.6421575e-06
187	0x372e753e	1.0398506e-05
188	0x37b92ec8	2.2075503e-05
189	0xb6fa8b3b	-7.466789e-06
190	0xb7bb0532	-2.2294556e-05
191	0x3704a8d3	7.907121e-06
192	0xb6b85168	-5.4931043e-06
193	0xb79a38af	-1.8384626e-05
194	0x372e6718	1.0395212e-05
195	0xb70bf346	-8.341687e-06
196	0x37c1a072	2.3082106e-05
197	0x3624495c	2.4480605e-06
198	0xb6078855	-2.0195923e-06
199	0x381236ae	3.4860037e-05
200	0x37c12e41	2.3028932e-05
201	0xb7141520	-8.826406e-06
202	0xb5cb5b7d	-1.5151305e-06
203	0x37ce253f	2.4574458e-05
204	0x38098829	3.2790154e-05
205	0x3756d939	1.280597e-05
206	0x36c4a53e	5.860492e-06
207	0x3732a857	1.0648821e-05
208	0xb63230b0	-2.6552407e-06
209	0x000107f8	9.4694e-41
210	0xb6b3903e	-5.3514077e-06
211	0xb514837e	-5.532564e-07
212	0x373c55b5	1.1225628e-05
213	0x37ab81a8	2.0445164e-05
214	0xb740cd30	-1.1491866e-05
215	0xb69697f9	-4.4880403e-06
216	0xb802fe0a	-3.1231008e-05
217	0x386c57bb	5.634849e-05
218	0x37b45cc6	2.1500873e-05
219	0x3592ec56	1.094663e-06
220	0x0000df7e	8.0174e-41
221	0x376cca04	1.4113732e-05
222	0xb81584c7	-3.5648027e-05
223	0xb7d5c633	-2.5483872e-05
224	0x37f05905	2.8651682e-05
225	0x36a88512	5.0222816e-06
226	0x378f7257	1.7100172e-05
227	0xb7867615	-1.6029031e-05
228	0x37c2296e	2.3145894e-05
229	0x373fda0f	1.1435258e-05
230	0x37708214	1.4335401e-05
231	0x37ddf38c	2.6458663e-05
232	0xb6da824a	-6.512074e-06
233	0x380450c2	3.1546464e-05
234	0xb77641e7	-1.4678087e-05
235	0x800031e4	-1.7897e-41
236	0xb81eddf6	-3.7876853e-05
237	0xb6480469	-2.980489e-06
238	0xb605fbf0	-1.9965191e-06
239	0x36356b56	2.703358e-06
240	0xb70ee342	-8.516772e-06
241	0xb7b173c1	-2.1153946e-05
242	0xb7d1a307	-2.4990657e-05
243	0x35ed038f	1.7658912e-06
244	0x376404f2	1.359101e-05
245	0xb7b5970f	-2.1647224e-05
246	0x37510c33	1.2460211e-05
247	0x3751616a	1.2480052e-05
248	0x37e967b1	2.782405e-05
249	0x371cf1ce	9.354624e-06
250	0x3764b39c	1.3631678e-05
251	0xb7c743f7	-2.3754297e-05
252	0x3754b2dc	1.2677829e-05
253	0xb7aedb5c	-2.0844564e-05
254	0xb80c29b0	-3.3417426e-05
255	0xb71fe46c	-9.530322e-06

bn1.running_var f4 [2000]
0	0x3e113ed5	0.14184125
1	0x3e50a28f	0.20374511
2	0x3d5600ab	0.05224673
3	0x3e09591f	0.13412903
4	0x3dc254a5	0.09488801
5	0x3e1d7f05	0.15380485
6	0x3e38e418	0.18055761
7	0x3dee1655	0.11625353
8	0x3d171b29	0.036891136
9	0x3e2af1cd	0.16693802
10	0x3dd5caed	0.10439096
11	0x3e09e7c1	0.13467313
12	0x3d21f2a7	0.039538052
13	0x3de95ae7	0.11394291
14	0x3e0b3c8f	0.1359732
15	0x3db35a6d	0.08757482
16	0x3dd84fad	0.10562072
17	0x3e6307f3	0.22171001
18	0x3e20a7fb	0.1568908
19	0x3e0ce496	0.13759074
20	0x3e262c06	0.16227731
21	0x3dfa6a8c	0.122273535
22	0x3e40b7d6	0.18820128
23	0x3dbce696	0.09223668
24	0x3e53fb26	0.20701274
25	0x3e077551	0.13228346
26	0x3e097674	0.13424093
27	0x3d88fc0c	0.06688699
28	0x3dd144d7	0.10218208
29	0x3e21e771	0.15810944
30	0x3e1635c5	0.14668949
31	0x3e71f707	0.2362939
32	0x3e25719e	0.16156623
33	0x00000004	6e-45
34	0x3dbca3e6	0.09210949
35	0x3e2bc4c8	0.16774285
36	0x3e202b2e	0.15641472
37	0x3e0854d5	0.13313611
38	0x3e2a3f03	0.166256
39	0x3e40d4b8	0.18831146
40	0x3df96fc3	0.1217952
41	0x3e1c34a4	0.15254456
42	0x3dd9a8b4	0.10627881
43	0x3df9a38d	0.12189398
44	0x3e53b8a6	0.20675907
45	0x3e192be8	0.14958155
46	0x3e362a27	0.17789517
47	0x3dcb9d4f	0.099421136
48	0x3e12eb27	0.14347516
49	0x3d7efe88	0.06225446
50	0x3e1cfbca	0.15330425
51	0x00000004	6e-45
52	0x3e8cdd7b	0.27512726
53	0x3e165a48	0.14682877
54	0x3e14e11f	0.14539002
55	0x3deec8d4	0.11659399
56	0x3de0b62b	0.10972246
57	0x3dd71b4a	0.10503252
58	0x3dbda007	0.092590384
59	0x3d763727	0.06011119
60	0x3de441b4	0.111453444
61	0x32593f0d	1.26453985e-08
62	0x3d271a81	0.04079676
63	0x3d1ff900	0.039055824
64	0x3e3215a2	0.17391065
65	0x3df71f2f	0.12066495
66	0x3e14c5c8	0.14528573
67	0x3dcbfcc5	0.09960321
68	0x3dfbf32c	0.12302241
69	0x3e10cf79	0.14141645
70	0x3e6c3f9f	0.23071145
71	0x3e35a10c	0.17737216
72	0x00000004	6e-45
73	0x3d5a7674	0.053335622
74	0x3d121b75	0.035670716
75	0x3e7fd16d	0.24982233
76	0x3df47109	0.11935622
77	0x3de62485	0.11237434
78	0x3d9b67a5	0.07588128
79	0x3e114e3d	0.14190002
80	0x3dff11e2	0.12454583
81	0x3e373d4d	0.17894478
82	0x3de8381d	0.11338828
83	0x3dec759b	0.11545869
84	0x3e058488	0.13038838
85	0x3e05f8e3	0.13083224
86	0x3e2e0934	0.16995698
87	0x3de6db6a	0.11272319
88	0x3a3f7ea1	0.0007304941
89	0x3aaf49ea	0.0013373469
90	0x3db5b516	0.0887243
91	0x3e177d05	0.14793785
92	0x3db28824	0.08717373
93	0x3da5f4d5	0.08103339
94	0x3e2a632e	0.16639397
95	0x3e67d3ed	0.22639437
96	0x3e36e86d	0.17862101
97	0x3de08abd	0.10963962
98	0x3e3bbb26	0.1833311
99	0x3e22e614	0.1590808
100	0x3e363f68	0.17797625
101	0x3d8994a9	0.06717808
102	0x3e0ce49a	0.1375908
103	0x3df223ee	0.11823259
104	0x39bb9bbf	0.0003578346
105	0x3e0f6a28	0.14005339
106	0x3dd72bc6	0.10506396
107	0x3e6aa73f	0.22915362
108	0x3d8f471d	0.06995986
109	0x3dbd6314	0.09247413
110	0x3df9c59e	0.121958956
111	0x3e1d97ff	0.15390013
112	0x3d75a17d	0.05996846
113	0x3de2e736	0.11079256
114	0x3d1aed4b	0.037823956
115	0x3e40f75c	0.1884436
116	0x3e1d733f	0.15375994
117	0x3d8db61d	0.06919501
118	0x3e28c9c7	0.16483222
119	0x3e11699d	0.14200445
120	0x3407f12c	1.2660593e-07
121	0x3e265491	0.16243197
122	0x3e0bb653	0.1364377
123	0x3dd0d1a9	0.101962395
124	0x3e0c2a2d	0.13687964
125	0x3de23329	0.11044914
126	0x3ea3766c	0.31926286
127	0x3c05b24b	0.008160184
128	0x3dd43822	0.10362269
129	0x3e435244	0.1907435
130	0x3e0d7572	0.13814333
131	0x3e07a7fb	0.13247673
132	0x3dfcc86f	0.12342917
133	0x3e23610c	0.15954989
134	0x3e54550b	0.20735566
135	0x3ddcc63d	0.107799985
136	0x3e28105b	0.16412489
137	0x3dd67275	0.1047105
138	0x3e1bef10	0.15227914
139	0x3dec7914	0.11546531
140	0x3e07ec1c	0.13273662
141	0x3e4c1a0e	0.19931814
142	0x3e27591d	0.16342588
143	0x3e832d11	0.2562032
144	0x3e082851	0.1329663
145	0x3db96f37	0.09054416
146	0x00000004	6e-45
147	0x3debb39d	0.11508868
148	0x3e0c174e	0.13680765
149	0x3e1c798e	0.15280744
150	0x3dd063f6	0.10175316
151	0x3dd74846	0.10511832
152	0x3e0482ab	0.12940471
153	0x3e4e915a	0.20172635
154	0x3def29a3	0.116778634
155	0x3dd3ec14	0.10347763
156	0x3d87b287	0.06625848
157	0x3e07f4c8	0.1327697
158	0x3de5b36b	0.11215862
159	0x3dcce74c	0.10005054
160	0x3e7065d0	0.23476338
161	0x3de3e85a	0.11128302
162	0x3e01fc71	0.12693955
163	0x3e214644	0.1574946
164	0x3e0b4c34	0.13603288
165	0x3da62e8f	0.08114349
166	0x3de115a9	0.109904595
167	0x3e006b10	0.12540841
168	0x3e68804b	0.2270519
169	0x3e7fecd9	0.24992694
170	0x3e1a33e2	0.15058854
171	0x3d7d7f15	0.061888773
172	0x3e298e21	0.16558124
173	0x3e222aa9	0.15836586
174	0x3e40dff0	0.18835425
175	0x3e423f6e	0.18969509
176	0x3ddfeb21	0.10933519
177	0x3d8a22c7	0.067449145
178	0x3e0eeccd	0.1395752
179	0x3dde1d1d	0.10845397
180	0x3dc43cf6	0.0958194
181	0x3d865ff4	0.0656127
182	0x3d863662	0.065533414
183	0x3b6f5883	0.0036521263
184	0x3dd4b77e	0.10386561
185	0x3dc98557	0.09839886
186	0x3d4e521a	0.050371267
187	0x3e19be42	0.15013984
188	0x3e1b2ca9	0.15153755
189	0x3e01bf89	0.12670721
190	0x3e072fab	0.13201778
191	0x3e069597	0.13143001
192	0x3e0dbb69	0.13841023
193	0x3de23031	0.11044348
194	0x3de5b553	0.112162255
195	0x3e5bcb1c	0.21464199
196	0x3ddf90a4	0.1091626
197	0x3cf261b6	0.029587608
198	0x3e3e50e9	0.18585552
199	0x3e04f096	0.12982401
200	0x3d7d1aed	0.061793257
201	0x3e0732f9	0.13203038
202	0x3d6b8933	0.05750389
203	0x3dddc14b	0.10827883
204	0x3e513763	0.20431285
205	0x3e01c70f	0.12673591
206	0x3e202ed9	0.15642871
207	0x3e747e13	0.23876218
208	0x3df38e2a	0.1189235
209	0x00000004	6e-45
210	0x3ddb0fcf	0.106963746
211	0x3e08a6c6	0.13344869
212	0x3dbbb34f	0.0916506
213	0x3e0b487e	0.13601872
214	0x3db83f89	0.08996493
215	0x3dfccb1c	0.123434275
216	0x3dc4e86a	0.09614642
217	0x3dd57f9b	0.104247294
218	0x3e4e27f4	0.20132428
219	0x3e1e1625	0.15438135
220	0x00000004	6e-45
221	0x3e986ce7	0.29770586
222	0x3e7ee214	0.2489093
223	0x3e21d42a	0.1580359
224	0x3de2d64e	0.110760316
225	0x3e26e393	0.1629775
226	0x3e36211c	0.17786068
227	0x3e374a7d	0.17899509
228	0x3dde6a64	0.10860136
229	0x3dbafbd7	0.09130066
230	0x3e133ee5	0.14379461
231	0x3e238bfe	0.15971372
232	0x3dfb756a	0.12278254
233	0x3dea2088	0.11431986
234	0x3e2611d7	0.16217743
235	0x00000004	6e-45
236	0x3e0239c3	0.12717347
237	0x3e0b6add	0.13614984
238	0x3df574d5	0.119851746
239	0x3e0908b7	0.1338223
240	0x3d79d312	0.060992308
241	0x3d8b87e0	0.068130255
242	0x3e2a184a	0.16610828
243	0x3dae477b	0.085097276
244	0x3e4833eb	0.19551055
245	0x3dce781b	0.10081502
246	0x3e44318b	0.19159524
247	0x3dfbc88c	0.12294111
248	0x3e356a81	0.1771641
249	0x3de063d4	0.10956541
250	0x3e03ebc9	0.12882914
251	0x3e17e28e	0.14832518
252	0x3e3c9204	0.18415076
253	0x3dc4af60	0.096037626
254	0x3de71c64	0.11284712
255	0x3df4925d	0.11941979

fc2.weight f4 [100, 2000]
0	0x3e016cb9	0.1263913
1	0xbd9b9a68	-0.0759781
2	0x3b3bd883	0.0028662987
3	0xbd89d18d	-0.06729422
4	0xbd1676bd	-0.03673433
5	0x3db6e50b	0.08930405
6	0x3c8642bc	0.016389243
7	0xbdb5dae1	-0.088796385
8	0xbd9b78be	-0.07591389
9	0xbd20a592	-0.0392204
10	0xbcbae42f	-0.022813885
11	0xbdf6cc02	-0.1205063
12	0x3d1679c8	0.036737233
13	0xbc87963e	-0.016551133
14	0xbd919202	-0.07107927
15	0xbe320edc	-0.17388481
16	0x3b82a435	0.00398686
17	0x3db384b8	0.087655485
18	0xbd326f52	-0.043563195
19	0x3dcf2cc7	0.101159625
20	0x3c9e4205	0.01931859
21	0xbcc28e38	-0.023749456
22	0x3cf14b86	0.029454958
23	0xbcbaae61	-0.022788228
24	0x3b728116	0.003700321
25	0xbd0bf52a	-0.034169354
26	0x3da7c7fd	0.081924416
27	0x3d3a9ae3	0.045557868
28	0xbcebe2d0	-0.028794676
29	0x3b6c313c	0.0036040088
30	0xbe17a080	-0.1480732
31	0x3c757d02	0.0149834175
32	0xbd1cb3c2	-0.038257368
33	0x34fd7881	4.72126e-07
34	0xbd8f265f	-0.069897406
35	0xbde50292	-0.11182131
36	0x3deacca6	0.11464815
37	0x3e0816da	0.13289967
38	0xbe1df30e	-0.1542475
39	0x3e129c4d	0.14317437
40	0x3bd8b272	0.006613069
41	0x3c65b140	0.0140193105
42	0xbd9ff95b	-0.07811233
43	0xbd535fa2	-0.051604874
44	0x3cbc8979	0.02301477
45	0xbcadc081	-0.021209957
46	0xbe018fd1	-0.12652518
47	0xbd256949	-0.04038361
48	0x3c074ad2	0.008257585
49	0x3ca6f44d	0.020380164
50	0x3d694505	0.056950588
51	0x979d7ab6	-1.0176864e-24
52	0x3d3c8d13	0.046032976
53	0x3e1010ed	0.14068957
54	0xbe44d6d9	-0.19222583
55	0x3d5f0d50	0.054456055
56	0x3ab0188c	0.001343505
57	0x3d2d9352	0.042376824
58	0xbdcf6aad	-0.10127769
59	0x3d0e01a6	0.03466954
60	0xbd6ec39f	-0.058292028
61	0x2d45aa35	1.1235947e-11
62	0x3a1da79c	0.00060140505
63	0x3c04ed5b	0.008113231
64	0xbec1b399	-0.37832335
65	0x3e1c2cb0	0.15251422
66	0x3d7cc167	0.06170788
67	0xbdebdc80	-0.115166664
68	0x3e00c5f6	0.12575516
69	0xbc4dda07	-0.012564189
70	0x3b8123a4	0.0039410163
71	0xbe0b979e	-0.13632056
72	0x38ee6b84	0.00011368751
73	0xbd4e81a3	-0.0504166
74	0x3c923e4b	0.01785197
75	0x3d86d1d6	0.06582992
76	0x3d0572f8	0.032580346
77	0xbd78fab7	-0.060785975
78	0xbd4f408b	-0.050598662
79	0x3da25800	0.07926941
80	0xbdae1b2c	-0.085012764
81	0xbd9b1862	-0.0757301
82	0x3d425912	0.047448225
83	0xbc99f2f0	-0.0187926
84	0x3ddec71e	0.10877822
85	0xbdcf230e	-0.10114108
86	0xbd056992	-0.032571383
87	0xbd21a77e	-0.039466374
88	0x39ccaafe	0.0003903731
89	0x3a99adb7	0.0011724745
90	0x3ddce9f6	0.10786812
91	0xbd802198	-0.062564075
92	0xbe2f8b6b	-0.17143027
93	0xbc73f164	-0.014889095
94	0x3d1dec6c	0.038555548
95	0x3cfaad15	0.03060011
96	0x3e0dfe19	0.13866462
97	0xbb16b506	-0.0022996082
98	0x3e560056	0.20898566
99	0xbd10f36b	-0.03538839
100	0xbd5b7d7f	-0.05358648
101	0x3d50838b	0.0509067
102	0xbd14f066	-0.036362074
103	0xbdcd918c	-0.100375265
104	0xba6d523e	-0.00090530876
105	0xbd0412fe	-0.032244675
106	0xbcaf5446	-0.02140249
107	0x3dbc8d86	0.09206681
108	0x3d0ba19f	0.03408968
109	0xbdd190c9	-0.10232694
110	0xbd7b3528	-0.06132999
111	0x3db015a7	0.0859788
112	0xbd247b13	-0.040156435
113	0x3dd9bda8	0.10631877
114	0xbdd6dee0	-0.10491729
115	0x3cbff03a	0.023429979
116	0xbb9788b2	-0.0046244496
117	0x3b931724	0.0044888426
118	0x3c4c1f9a	0.012458706
119	0xbd1bb661	-0.038015727
120	0xb2700c26	-1.3972601e-08
121	0xbde1f54e	-0.11033116
122	0xbda41036	-0.080109045
123	0xbd2ad69e	-0.04170858
124	0xbd93e1a1	-0.0722077
125	0x3d4266d5	0.04746135
126	0x3d645136	0.05574151
127	0xbcd5d011	-0.02610019
128	0x3ce3173d	0.027721042
129	0xbdae325f	-0.08505701
130	0x3e20532a	0.15656725
131	0xbd34c950	-0.0441373
132	0x3dee5468	0.11637193
133	0xbdc5c185	-0.096560515
134	0x3dab629b	0.08368417
135	0xbc96cffa	-0.018409718
136	0xbc7b169c	-0.015325215
137	0xbdbc0bce	-0.09181939
138	0xbdd90f52	-0.10598625
139	0x3d641353	0.05568249
140	0x3d5bbb19	0.053645227
141	0x3e01cfa7	0.1267687
142	0x3df57930	0.11986005
143	0x3d6f99b3	0.05849619
144	0xbdd1f601	-0.10252
145	0xbddd7648	-0.10813576
146	0x80012e23	-1.08386e-40
147	0x3d3a5fbc	0.045501456
148	0xbe57dc1a	-0.21080056
149	0xbd097b62	-0.033564933
150	0x3e3df2be	0.1854963
151	0xbd45d1d1	-0.0482958
152	0xbd9a3a26	-0.07530622
153	0xbdbebf94	-0.093138844
154	0x3de06d45	0.109583415
155	0x3d54fa8a	0.051996745
156	0x3c6375aa	0.013883034
157	0x3d0e9ded	0.03481858
158	0xbd1e4d60	-0.03864801
159	0x3dbac4fb	0.09119602
160	0xbdcffd55	-0.10155741
161	0xbdd2871c	-0.10279676
162	0x3dd1c7f9	0.1024322
163	0xbe114675	-0.14187033
164	0xbd5e0984	-0.054208294
165	0xbd8d5e91	-0.06902803
166	0xbd707f74	-0.0587153
167	0xbda5fe3a	-0.081051305
168	0x3c78864f	0.01516874
169	0x3d014d97	0.031568136
170	0x3de6bfe7	0.11267071
171	0xbda2056c	-0.079111904
172	0x3d078e00	0.033094406
173	0xbcc97a2f	-0.024594394
174	0x3c583e7f	0.013198494
175	0xbddc35d5	-0.10752455
176	0xbc7861e7	-0.0151600605
177	0x3aa4b048	0.0012564743
178	0xbe1af473	-0.15132312
179	0xbd97145d	-0.07376931
180	0x3d9a1174	0.0752286
181	0x3da8a84f	0.08235227
182	0xbd569466	-0.052387618
183	0xbcc99806	-0.024608623
184	0xbe0df368	-0.13862383
185	0x3e0fd5a7	0.14046346
186	0x3d5c18dd	0.05373465
187	0x3e0f6cc5	0.14006336
188	0x3d8e1961	0.069384344
189	0xbc9252da	-0.017861772
190	0xbe0b4e9c	-0.13604206
191	0xbd621e6f	-0.055204805
192	0xbdc3831f	-0.09546494
193	0xbd9b39c9	-0.07579381
194	0x3e126727	0.14297162
195	0xbe31c991	-0.17362048
196	0xbbb9b4a5	-0.0056672865
197	0xbbf2dfed	-0.007411948
198	0x3b8b47b8	0.004250493
199	0xbd1495f3	-0.036275815
200	0xbd6d0695	-0.057867605
201	0xbdbb93a2	-0.09159018
202	0xbda78006	-0.081787154
203	0xbc87fcd0	-0.016600043
204	0x3c8fb4ca	0.017542262
205	0xbc951f54	-0.018203415
206	0xbd414711	-0.047186915
207	0xbd82d3a4	-0.063880235
208	0xbc4dda34	-0.012564231
209	0x8000331f	-1.8339e-41
210	0xbce2e570	-0.027697295
211	0x3d8cbd80	0.06872082
212	0xbe0ee84a	-0.13955799
213	0xbc99b666	-0.018763732
214	0xbde4523e	-0.11148499
215	0x3d95d159	0.073153205
216	0x3d5d22ff	0.053988453
217	0xbd5cd4a3	-0.053913724
218	0xbe1ed91d	-0.1551251
219	0xbb054aa2	-0.0020338674
220	0x9e2f881f	-9.292572e-21
221	0xbc7351dc	-0.01485106
222	0x3d868578	0.06568426
223	0xbddadd31	-0.1068672
224	0x3dea38af	0.11436593
225	0xbdc86c1b	-0.097862445
226	0x3c8a58b1	0.016887994
227	0xbbf37b45	-0.0074304664
228	0x3cb9d0e8	0.022682622
229	0xbd88d317	-0.06680887
230	0x3e2344d6	0.15944228
231	0xbdddd5dc	-0.10831806
232	0xbd27474d	-0.040839482
233	0x3d84f3ee	0.064918384
234	0x3e4283f6	0.18995652
235	0x310d82de	2.059259e-09
236	0x3d1aa85e	0.037758224
237	0xbde56a8d	-0.112019636
238	0x3e49e17c	0.19714922
239	0x3c7b6798	0.015344523
240	0x3d9557dc	0.072921485
241	0x3da4c728	0.080457985
242	0x3b543b6e	0.0032384056
243	0xbc9ec1e1	-0.019379558
244	0xbd803b65	-0.062613286
245	0xbdc3a956	-0.09553783
246	0x3c016aa6	0.007898962
247	0xbdc1d995	-0.094653286
248	0xbdb2fda1	-0.08739782
249	0xbdccd70f	-0.10001957
250	0x3d203cc5	0.039120454
251	0xbd95890b	-0.073015295
252	0xbd744f0d	-0.0596457
253	0x3d5d0749	0.053962026
254	0xbc8a3306	-0.016870033
255	0x3d467a67	0.048456576
