models/NFM_layer_2_20/max/MLP610.pt (torch, 617800 bytes, 26 tensors)

bi_BN.weight f4 [10]
0	0x3e829300	0.25502777
1	0x3e663589	0.2248136
2	0x3e9f5598	0.3111999
3	0x3e8be942	0.273264
4	0x3e9e69da	0.30940133
5	0x3e436c5d	0.19084306
6	0x3e5f5430	0.21809459
7	0x3e6dfb38	0.23240364
8	0x3e5fb3c0	0.21845913
9	0x3e9f5224	0.31117356

bi_BN.bias f4 [10]
0	0x38b3fa5c	8.582018e-05
1	0xb7f15ab7	-2.8771681e-05
2	0xb706fabe	-8.045403e-06
3	0xb7a8787a	-2.0083262e-05
4	0x37eaf5cf	2.8009437e-05
5	0x3885fc75	6.388958e-05
6	0x3727db7f	1.0005081e-05
7	0x377db446	1.5121948e-05
8	0xb76dc47d	-1.4172049e-05
9	0xb8473bc8	-4.7500973e-05

bi_BN.running_mean f4 [10]
0	0x449233ff	1169.6249
1	0x4494dc71	1190.8888
2	0x44a2adfa	1301.4368
3	0x4492eafa	1175.343
4	0x4485e3b7	1071.1161
5	0x448d9daf	1132.9276
6	0x44b39c3d	1436.8824
7	0x44af5b86	1402.8601
8	0x449ade9a	1238.9563
9	0x448d0543	1128.1644

bi_BN.running_var f4 [10]
0	0x4adfcc35	7.3334025e+06
1	0x4afbc5fa	8.250109e+06
2	0x4b1125b9	9.512377e+06
3	0x4afd54e8	8.301172e+06
4	0x4ad91060	7.112752e+06
5	0x4ad7773a	7.060381e+06
6	0x4b31d83a	1.1655226e+07
7	0x4b193a34	1.0041908e+07
8	0x4af2da35	7.9577865e+06
9	0x4aca5e43	6.6312015e+06

BN_num.weight f4 [133]
0	0x3f9866b8	1.1906347
1	0x3f810b10	1.0081501
2	0x3f6e506f	0.9309148
3	0x3f80a43f	1.0050124
4	0x3e945ba1	0.28976157
5	0x3c7b5aa9	0.015341439
6	0x3b9c5c24	0.004771726
7	0x3fa36999	1.2766601
8	0x3f2970ac	0.6618755
9	0x3f95c32a	1.1700184
10	0x3c4a96ab	0.012365024
11	0x3f7d23b9	0.98882633
12	0x3f8a01d2	1.0781806
13	0x3f61078a	0.8790213
14	0x3f81deae	1.0146081
15	0x3eaebb52	0.3412729
16	0x3f81a4bb	1.0128397
17	0x3c37406a	0.011184791
18	0x3f8a134b	1.0787138
19	0x3f7bd677	0.9837412
20	0x3f3d4a6f	0.739417
21	0x3f0ee773	0.55821913
22	0x3e536561	0.20644142
23	0x3f87cf77	1.0610188
24	0x3f82f6c7	1.023156
25	0xbc9c1152	-0.019051228
26	0x3f8d1958	1.1023359
27	0x3f9e3b8a	1.236192
28	0xbc014f97	-0.007892511
29	0x3eb3f73d	0.35149565
30	0x3eca029f	0.39455125
31	0x3f8da866	1.1067016
32	0x3f007ad0	0.50187397
33	0x3f4b8fee	0.79516494
34	0x3f7be361	0.9839383
35	0x3f2bbde4	0.67086625
36	0x3f4b512c	0.79420733
37	0x3f785d0a	0.97016966
38	0x3f80f2eb	1.0074133
39	0x3f76647c	0.96247077
40	0x3f8e8bd3	1.1136421
41	0x3ed6563e	0.41862673
42	0x3f85ac09	1.0443126
43	0x3ea8587c	0.32880008
44	0x3ef57a05	0.47944656
45	0x3eb22835	0.347963
46	0x3dedc704	0.11610225
47	0x3e0f02f5	0.13965972
48	0x3e099cdc	0.13438743
49	0x3f772e89	0.9655538
50	0x3f172564	0.5904143
51	0x3f8f71b8	1.1206579
52	0x3f175a7b	0.5912244
53	0x3f73e26d	0.95267373
54	0x3f8093dd	1.0045124
55	0x3f791440	0.97296524
56	0x3f610638	0.87900114
57	0x3f6019e7	0.87539524
58	0x3f545bff	0.82952875
59	0xbb923a49	-0.0044625145
60	0x3f97cb22	1.1858866
61	0x3ee86208	0.45387292
62	0x3f69023c	0.91019034
63	0x3f2119fb	0.6293027
64	0x3c6865e4	0.014184449
65	0x3f40f552	0.7537433
66	0x3f6354af	0.8880109
67	0x3f0b7b75	0.54485255
68	0x3f701ced	0.9379414
69	0x3d8d542d	0.06900821
70	0x3f8e0968	1.109662
71	0x3f4a7fba	0.79101145
72	0xbc49e23d	-0.012322006
73	0x3ed4b45a	0.41543847
74	0x3f910856	1.1330669
75	0xbbc0d44d	-0.005884683
76	0x3f3cb0c6	0.73707235
77	0x3d0b811c	0.034058675
78	0xbb09d78f	-0.0021033024
79	0x3f7c1c71	0.984809
80	0x3f623c65	0.88373405
81	0xbaeec367	-0.0018216193
82	0x3f86d415	1.0533472
83	0x3f5796c2	0.84214413
84	0x3f10e012	0.56591904
85	0x3f0df40d	0.55450517
86	0x3f030743	0.51182956
87	0xbc8ebaac	-0.017422996
88	0x3f5bb5a9	0.85824066
89	0x3f537ecc	0.8261535
90	0x3f52674f	0.82188886
91	0x3f8ae3e2	1.0850794
92	0x3f5de5eb	0.8667895
93	0x3f328c58	0.697454
94	0x3f804510	1.0021076
95	0x3f160aba	0.5861012
96	0x3f544284	0.82913995
97	0x3f5d7ff0	0.8652334
98	0x3f6624bc	0.898998
99	0x3f7bebff	0.98406976
100	0x3eda897b	0.42683014
101	0x3c402aa9	0.011728921
102	0x3f9463db	1.1592973
103	0x3f5e1620	0.8675251
104	0x3f4f9194	0.8108151
105	0x3f847606	1.0348518
106	0x3f5e7db5	0.86910564
107	0x3f7f556d	0.99739724
108	0x3f620a3a	0.88296854
109	0x3fb6dcab	1.4286093
110	0x3f8342ac	1.0254722
111	0x3c35b459	0.0110903615
112	0x3f810638	1.0080023
113	0x3f81241d	1.0089146
114	0x3fab1125	1.3364607
115	0x3f8b82f8	1.0899343
116	0x3f7a1fa6	0.9770454
117	0xbc807759	-0.01568191
118	0x3f63f3b1	0.8904372
119	0x3e4c261d	0.19936414
120	0x3f30f07b	0.69116944
121	0x3f6102a3	0.8789465
122	0x3f81c461	1.0138055
123	0x3c55b9a3	0.0130447475
124	0x3f6234a8	0.883616
125	0x3f66c544	0.90144753
126	0x3f00dce7	0.5033707
127	0xbbb93202	-0.0056517133
128	0x3f8d1ac2	1.1023791
129	0x3f7f3ef9	0.99705464
130	0x3b493c50	0.0030706115
131	0x3f4add89	0.79244286
132	0x3f490985	0.7853015

BN_num.bias f4 [133]
0	0x3683d187	3.9284964e-06
1	0xb6a73ac7	-4.9838304e-06
2	0xb840fa1b	-4.6009296e-05
3	0xb710deff	-8.634989e-06
4	0x371b1b30	9.24505e-06
5	0x3705d349	7.976611e-06
6	0xb761b301	-1.3452723e-05
7	0xb8977c2c	-7.22337e-05
8	0x386fd54a	5.718068e-05
9	0x38706775	5.731681e-05
10	0xb6e710c6	-6.886289e-06
11	0x379ae60b	1.8465353e-05
12	0xb892b453	-6.9954105e-05
13	0xb8d2ac61	-0.000100456884
14	0x3851433a	4.9892093e-05
15	0xb84b8064	-4.8518545e-05
16	0x3883c688	6.283546e-05
17	0xb7afe5cd	-2.0968635e-05
18	0xb8a0b563	-7.6631804e-05
19	0xb7aff296	-2.0974589e-05
20	0x37905180	1.7204089e-05
21	0xb811be05	-3.4747663e-05
22	0x384e136b	4.913231e-05
23	0x3883a34f	6.2769854e-05
24	0x375c4d58	1.313103e-05
25	0xb693575e	-4.3911123e-06
26	0x38706787	5.7316876e-05
27	0x39053b5f	0.00012705986
28	0x36ef20ca	7.126572e-06
29	0x3535e288	6.77574e-07
30	0xb85720cc	-5.129054e-05
31	0x3801f71c	3.0986135e-05
32	0x37d2329a	2.5057514e-05
33	0x3801d2ae	3.0952207e-05
34	0xb8115a32	-3.4654695e-05
35	0xb8c3876f	-9.323551e-05
36	0xb8a7a8d4	-7.994627e-05
37	0x381ef7a2	3.790076e-05
38	0x388e9676	6.799113e-05
39	0x38277e3a	3.993346e-05
40	0xb7e2fb7e	-2.705841e-05
41	0xb84d8f6b	-4.9009377e-05
42	0x3829f760	4.0523126e-05
43	0xb7433f97	-1.1637711e-05
44	0xb8169a0c	-3.5906254e-05
45	0x38394a7d	4.417681e-05
46	0x3844d818	4.6931294e-05
47	0xb7e09c04	-2.6775531e-05
48	0xb84de5f4	-4.908997e-05
49	0xb8fbed46	-0.00012012808
50	0xb5c48fe6	-1.4645018e-06
51	0xb8cfd13e	-9.9095036e-05
52	0xb8941022	-7.060195e-05
53	0xb8923197	-6.971059e-05
54	0x3815f84c	3.5755613e-05
55	0xb7c3cefb	-2.3342194e-05
56	0xb8325cf1	-4.2525066e-05
57	0xb7cfe4f8	-2.4782945e-05
58	0xb88ae0d9	-6.622234e-05
59	0xb71869f9	-9.08458e-06
60	0xb844e063	-4.6939018e-05
61	0x370f060b	8.524871e-06
62	0x383cc275	4.5003795e-05
63	0xb88c04c9	-6.6766115e-05
64	0xb6eebaa6	-7.1146815e-06
65	0x3808dfa8	3.2633223e-05
66	0xb79faf00	-1.9035768e-05
67	0xb70e02be	-8.464498e-06
68	0x385b1493	5.223283e-05
69	0xb5ad9d53	-1.2935292e-06
70	0x391998b0	0.00014648098
71	0xb7b3a7de	-2.1416632e-05
72	0xb5566903	-7.9874025e-07
73	0xb7a84674	-2.0059968e-05
74	0x3781ebc0	1.5487778e-05
75	0xb6065412	-2.0016491e-06
76	0x38ec3711	0.00011263614
77	0xb62342e6	-2.4327833e-06
78	0x35356535	6.757503e-07
79	0x37e2e483	2.7047708e-05
80	0xb89d2c8f	-7.494643e-05
81	0x36da889b	6.5128093e-06
82	0x37a34136	1.946148e-05
83	0xb85792f7	-5.1396866e-05
84	0xb7e25d90	-2.6984868e-05
85	0x381bbc55	3.7130278e-05
86	0x389bdf2d	7.432546e-05
87	0x3746f1a9	1.1857986e-05
88	0x3595fedc	1.1175539e-06
89	0x3807d503	3.238489e-05
90	0xb78c85e4	-1.6751648e-05
91	0x36225889	2.4191415e-06
92	0x3597579b	1.1275873e-06
93	0x375e252e	1.3240888e-05
94	0xb90851fb	-0.00013000511
95	0x3688c79f	4.076355e-06
96	0xb89b0cf0	-7.393386e-05
97	0xb8c0e19d	-9.197297e-05
98	0x3894c9c6	7.094773e-05
99	0x37ad4bc7	2.0658494e-05
100	0x37e5c2fd	2.7389726e-05
101	0x35e03a30	1.6706235e-06
102	0xb7e08d77	-2.6768756e-05
103	0xb7a06914	-1.9122417e-05
104	0xb54bfbac	-7.5989624e-07
105	0xb7daa6f5	-2.606537e-05
106	0xb6cf4159	-6.176688e-06
107	0x3800ac9d	3.0678337e-05
108	0xb84a8166	-4.8281065e-05
109	0x3877d302	5.9085905e-05
110	0x38b103f3	8.440753e-05
111	0x37887be1	1.6270149e-05
112	0x3835804e	4.3273256e-05
113	0x37f981aa	2.9743493e-05
114	0x37a3527d	1.9469526e-05
115	0xb8040beb	-3.1482352e-05
116	0xb8586461	-5.15919e-05
117	0x36b1c5d8	5.298043e-06
118	0xb81e248a	-3.7704165e-05
119	0x37430d6e	1.1626033e-05
120	0x36238ffa	2.4372698e-06
121	0x373cfb04	1.1264117e-05
122	0x37b5cce6	2.1672295e-05
123	0xb7205bae	-9.558089e-06
124	0x3882e6df	6.241886e-05
125	0x379a58c6	1.8399569e-05
126	0xb7a14bfa	-1.9228075e-05
127	0x35e8ab42	1.733519e-06
128	0xb7aeae7f	-2.0823672e-05
129	0xb88374ba	-6.268309e-05
130	0x356a6462	8.731787e-07
131	0x3830808a	4.208138e-05
132	0xb9059694	-0.00012739963

BN_num.running_mean f4 [133]
0	0x414f102c	12.941448
1	0x40eea8e0	7.4581146
2	0x40cc4562	6.3834696
3	0x40e95269	7.29131
4	0x40c767fb	6.231443
5	0x40b94034	5.7890873
6	0x41165467	9.395606
7	0x40cad822	6.3388834
8	0x40dea425	6.957537
9	0x40cf9977	6.4874835
10	0x410a28d3	8.634967
11	0x4128e7f2	10.556627
12	0x40b7b8c8	5.7413063
13	0x410f511e	8.957304
14	0x40d57fd7	6.6718554
15	0x412925cd	10.571729
16	0x40b53702	5.662965
17	0x410fff4b	8.999827
18	0x410c0b2b	8.752727
19	0x40e5e0d6	7.183696
20	0x415019da	13.006311
21	0x40d03f9c	6.507765
22	0x4104a9c6	8.291449
23	0x40e7d64e	7.2449102
24	0x4101e88a	8.119272
25	0x412b4913	10.70534
26	0x40ffe120	7.996231
27	0x4124a2d1	10.28975
28	0x4134c030	11.296921
29	0x4128c72d	10.548627
30	0x414c796e	12.779646
31	0x40dd95ae	6.9245214
32	0x410379d4	8.217243
33	0x41013d5b	8.077479
34	0x40b487b9	5.6415677
35	0x40d4db82	6.6517954
36	0x40fda8b6	7.9268446
37	0x40ccec9e	6.403884
38	0x412852dc	10.520229
39	0x40d85255	6.7600503
40	0x410debb2	8.870043
41	0x40aefb20	5.468155
42	0x41144502	9.266848
43	0x4130e495	11.055806
44	0x41122f6a	9.136576
45	0x40eaadeb	7.33373
46	0x4108773f	8.529113
47	0x411d8060	9.843842
48	0x41011a72	8.068956
49	0x40cc93e0	6.393051
50	0x40fba067	7.8633304
51	0x410b0067	8.687598
52	0x40c576bc	6.170744
53	0x40e80ed8	7.251812
54	0x40c9422a	6.2893267
55	0x40ba6fed	5.826163
56	0x411d7fbe	9.843687
57	0x412b3c14	10.7021675
58	0x40c2aeaf	6.0838237
59	0x4107ab6a	8.479349
60	0x41027b42	8.155092
61	0x40bd4c38	5.915554
62	0x40dfd1b4	6.9943485
63	0x40ec7749	7.389561
64	0x410294f3	8.161365
65	0x41062340	8.383606
66	0x40acbc55	5.3979897
67	0x40dbac5c	6.86479
68	0x41071101	8.441651
69	0x40ba8048	5.8281593
70	0x411202e2	9.125704
71	0x41128961	9.15854
72	0x410e632e	8.899214
73	0x41136d2d	9.214154
74	0x409cb9ab	4.8976645
75	0x41219280	10.098267
76	0x40de1045	6.939486
77	0x40ee3422	7.443864
78	0x41019e84	8.1012
79	0x413511f3	11.316882
80	0x411234a5	9.137853
81	0x41137560	9.216156
82	0x40c28339	6.0785184
83	0x41252eeb	10.323955
84	0x40fba233	7.8635497
85	0x4104a53e	8.290342
86	0x412bd134	10.738575
87	0x41120135	9.125295
88	0x41352119	11.3205805
89	0x411786ab	9.470378
90	0x41064b14	8.39333
91	0x410d1e20	8.819855
92	0x40eb640f	7.355964
93	0x4127db35	10.491017
94	0x410461c6	8.27387
95	0x4101c795	8.111226
96	0x40d1847c	6.5474224
97	0x415793c7	13.473578
98	0x40aae622	5.3405924
99	0x40b69087	5.7051425
100	0x41366a65	11.400975
101	0x411698a8	9.41227
102	0x4111f4b8	9.122246
103	0x412c022e	10.750532
104	0x40efe1c2	7.4963083
105	0x40b89d7b	5.7692237
106	0x410f7974	8.967152
107	0x40ec95f1	7.3933034
108	0x4123bab8	10.233086
109	0x4109bb7a	8.608271
110	0x410723d9	8.446252
111	0x4101d402	8.11426
112	0x40c7654f	6.231117
113	0x411c6c2c	9.776409
114	0x40ba6533	5.8248534
115	0x41012e0d	8.073743
116	0x40c3b34e	6.115638
117	0x40f26a5d	7.575484
118	0x4118bd39	9.546197
119	0x4117e59e	9.493559
120	0x4147ef10	12.495865
121	0x410e6abd	8.901059
122	0x4106b3de	8.418913
123	0x40de0a8f	6.938789
124	0x411f1fcd	9.945264
125	0x4121057a	10.063837
126	0x412b87ae	10.720625
127	0x40dd8313	6.9222503
128	0x410189ee	8.096174
129	0x41066930	8.400681
130	0x40c0cae5	6.0247674
131	0x40bd8108	5.922001
132	0x41063d2f	8.389937

BN_num.running_var f4 [133]
0	0x3e348c32	0.17631605
1	0x3fe0de79	1.7567893
2	0x3f205ce9	0.6264177
3	0x3eb7d16e	0.3590197
4	0x3e837730	0.2567687
5	0x3e7b1025	0.24517877
6	0x3f4f6197	0.81008285
7	0x3e8b4a1d	0.2720498
8	0x3f054e5e	0.52072704
9	0x3e593f46	0.21215543
10	0x3fab6063	1.338879
11	0x4033a57f	2.806976
12	0x3e972f0e	0.29528087
13	0x3ee5acc2	0.44858366
14	0x3e0190a5	0.12652834
15	0x3f99071c	1.1955295
16	0x3e05fca5	0.13084657
17	0x3f3e176c	0.7425449
18	0x3e0ec1c9	0.1394111
19	0x3eda9640	0.42692757
20	0x3de48337	0.1115784
21	0x3fc812d2	1.5630744
22	0x3f275028	0.65356684
23	0x3e14fabd	0.14548774
24	0x3dc84373	0.0977849
25	0x3f5b0f8f	0.85570616
26	0x3e3a4d0e	0.18193457
27	0x3e9b24b7	0.3030145
28	0x3eecd7bb	0.4625834
29	0x3ea94565	0.33060756
30	0x3ebc6d47	0.36802122
31	0x3ecc2d1e	0.39878172
32	0x3f60f591	0.87874705
33	0x3e484769	0.19558491
34	0x3d0b0f87	0.033950355
35	0x3f0e0bf1	0.5548697
36	0x3f04b27f	0.51834863
37	0x3f60c884	0.8780596
38	0x3d9bbe84	0.07604697
39	0x3ed9efe8	0.42565846
40	0x3ed05395	0.40688768
41	0x3e7e26d0	0.24819493
42	0x3eb94afc	0.3619002
43	0x3f003eb5	0.50095683
44	0x3f1f0352	0.6211444
45	0x3ebb46f2	0.36577564
46	0x3ecaa5f3	0.39579734
47	0x3f0c6140	0.5483589
48	0x3f9df46a	1.2340214
49	0x3e42d4cf	0.19026493
50	0x3effc48f	0.4995465
51	0x3e55a38f	0.20863174
52	0x3e59cc02	0.21269229
53	0x3e9ee1cf	0.31031653
54	0x3e09ec8c	0.13469142
55	0x3e756698	0.23964918
56	0x3dbba081	0.09161473
57	0x3f2168ea	0.6305071
58	0x3e29f5e6	0.16597709
59	0x3f14a6dc	0.5806711
60	0x3ebcfafa	0.3691023
61	0x3e8dd86c	0.2770418
62	0x3ed9a8e9	0.4251168
63	0x3ee8c731	0.4546447
64	0x3efb18a7	0.49042246
65	0x3f0a5cdd	0.5404795
66	0x3f9f4503	1.2442936
67	0x4008264c	2.1273375
68	0x3f246244	0.6421244
69	0x3f23974c	0.63902736
70	0x40859895	4.1748757
71	0x3f4b25cb	0.7935454
72	0x3fd44a89	1.6585246
73	0x3f093b79	0.53606373
74	0x3e463028	0.19354308
75	0x3fb9d127	1.4516953
76	0x3f67357b	0.9031598
77	0x40166c88	2.3503742
78	0x3fb648fe	1.4241025
79	0x3e4f4d74	0.2024439
80	0x3e05dcc7	0.13072501
81	0x3fd9e043	1.7021564
82	0x3cd65f8d	0.026168609
83	0x3e628d23	0.22124152
84	0x3f070ea5	0.5275672
85	0x4005cb5f	2.0905378
86	0x3ed1824c	0.4091972
87	0x407dc910	3.965397
88	0x3ebeab27	0.37239954
89	0x3e823619	0.25431898
90	0x3e742806	0.23843393
91	0x3ea30077	0.31836292
92	0x3e442817	0.19155918
93	0x3f06b945	0.5262645
94	0x3fe61375	1.7974688
95	0x3f1ed709	0.6204687
96	0x3ef872fa	0.4852522
97	0x3e6317f5	0.22177108
98	0x3e46beac	0.19408673
99	0x3dc04d70	0.0938977
100	0x3fae5661	1.3620111
101	0x3f46aefc	0.77610755
102	0x3ea91bd5	0.33029047
103	0x3ea51551	0.32242826
104	0x3e718dbc	0.23589224
105	0x3e0c1ce2	0.13682893
106	0x3e9605cd	0.293013
107	0x3e78a872	0.24283007
108	0x3e812509	0.25223568
109	0x3edbdbfd	0.42941275
110	0x3f4d0cc8	0.8009763
111	0x3f3269b0	0.69692516
112	0x3e839934	0.25702822
113	0x3ef03e96	0.4692275
114	0x3e1f0c44	0.15532023
115	0x3e7a4584	0.2444058
116	0x3ed4ae4d	0.4153923
117	0x3f813bf8	1.0096426
118	0x3edd2c8a	0.43198043
119	0x3feedec2	1.866173
120	0x3e4aff58	0.19823968
121	0x3f8c5e2e	1.0966241
122	0x3e43d816	0.19125399
123	0x3f4a1caa	0.7894999
124	0x3ddae995	0.106890835
125	0x3e759833	0.2398384
126	0x3fb8c0fb	1.4433893
127	0x40186155	2.3809407
128	0x3e2c2b2d	0.16813345
129	0x3f0819aa	0.5316416
130	0x3eb29d04	0.34885418
131	0x3ea3cc60	0.31991863
132	0x3f3913f6	0.7229608

linear1.weight f4 [800, 133]
0	0xbdf091ca	-0.11746557
1	0x3d99efa6	0.075164124
2	0xbdd61690	-0.10453522
3	0xbe54404f	-0.20727657
4	0xbc03f213	-0.00805332
5	0x3ac8ffb0	0.001533499
6	0x3b0bb1c1	0.0021315666
7	0x3e02c3f3	0.12770061
8	0xbb8d10d6	-0.0043049855
9	0xbd34e62d	-0.044164825
10	0xbc94a19f	-0.018143473
11	0x3c03b600	0.008038998
12	0xbcdddbba	-0.027082313
13	0x3dab046e	0.08350454
14	0xbc4130b5	-0.011791398
15	0xbd0009d5	-0.031259377
16	0x3d593167	0.05302563
17	0xbb58779d	-0.003303028
18	0x3c4d7a04	0.012541298
19	0x3caf1513	0.021372354
20	0xbd18d7cf	-0.037315186
21	0xbb2b18e8	-0.0026107375
22	0x3c38fd05	0.011290793
23	0xbc033ce0	-0.008010119
24	0xbe0c4139	-0.13696755
25	0x3b0f1258	0.0021831002
26	0xbdb2e8ec	-0.087358326
27	0x3df5df1e	0.12005447
28	0x3b167b8d	0.0022961826
29	0x3c86bf34	0.016448595
30	0xbd1263a5	-0.03573956
31	0x3e15dcf0	0.14635062
32	0xbc331d7f	-0.010932325
33	0x3d9882e9	0.07446844
34	0x3c229fb9	0.009925776
35	0x3dff5709	0.124677725
36	0x3d3f2a8d	0.04667144
37	0x3cdaa324	0.02668912
38	0x3d68621b	0.056734186
39	0xbd64683f	-0.05576348
40	0x3c0488fa	0.008089298
41	0x3d38c7c5	0.04511239
42	0xbd15353d	-0.036427725
43	0x3d644450	0.05572921
44	0x3d6e8a82	0.05823756
45	0xbd29023e	-0.041261904
46	0x3cd739ac	0.026272617
47	0x3c944f05	0.018104086
48	0x3cd28e4b	0.025702616
49	0x3e1214e7	0.14265786
50	0x3d8fda7f	0.07024097
51	0x3dd05d7f	0.10174083
52	0x3d0fb37a	0.03508327
53	0xbdd0b49c	-0.101906985
54	0x3d4fd944	0.05074431
55	0xbe3b42a1	-0.18287136
56	0xbd85a261	-0.06525112
57	0xbd58bcbd	-0.05291437
58	0xbc4e9bff	-0.012610435
59	0x3c29c881	0.010362745
60	0xbd117122	-0.035508282
61	0x3d108d4e	0.03529101
62	0xbe10fcd9	-0.14158954
63	0x3e1c119c	0.15241092
64	0xba754427	-0.0009356164
65	0x3d177997	0.03698119
66	0xbd9badee	-0.07601534
67	0xbccc48f7	-0.024937136
68	0x3d4df3b7	0.050281253
69	0x3c9d151f	0.01917511
70	0xbdaeb318	-0.08530253
71	0x3e2c9bba	0.1685628
72	0x3c064c04	0.0081968345
73	0x3d35aa8f	0.04435211
74	0xbda88720	-0.08228898
75	0x3c02edc6	0.00799126
76	0x3cb21752	0.021739636
77	0x3cb504a8	0.022096947
78	0xb9f9bbef	-0.00047633002
79	0x3dccd0b3	0.10000744
80	0x3ccb5428	0.024820402
81	0xbc21570b	-0.009847413
82	0xbbff8873	-0.0077982484
83	0xbd3402a6	-0.04394784
84	0x3d9026a9	0.07038624
85	0x3d17ca77	0.03705832
86	0x3d4fdaaf	0.050745662
87	0x3af99498	0.0019041477
88	0xbdeb3023	-0.11483791
89	0x3dabccea	0.08388694
90	0x3dd216d3	0.102582596
91	0xbc6ecef9	-0.014575713
92	0xbdc3fcd7	-0.0956971
93	0xbd8a01d8	-0.06738633
94	0x3e07fa83	0.13279156
95	0xbdc33111	-0.09530843
96	0x3d32455d	0.04352318
97	0xbcf3092f	-0.029667465
98	0x3dd52e86	0.10409264
99	0x3dff4155	0.12463633
100	0x3d5710e7	0.052506354
101	0x3b2e9abf	0.0026642529
102	0xbda40ecd	-0.080106355
103	0x3cf1df0d	0.029525304
104	0x3d906008	0.070495665
105	0x3dbd70b7	0.09250014
106	0xbe3866d3	-0.18007974
107	0x3b173241	0.0023070725
108	0x3d8d2372	0.06891526
109	0x3e23737a	0.1596202
110	0x3ca54b33	0.02017746
111	0x3c038317	0.00802686
112	0x3d6ee50f	0.058323916
113	0x3de7c0b9	0.11316056
114	0x3c38491d	0.0112479
115	0xbdd92078	-0.10601896
116	0x3d954a4a	0.0728956
117	0x3c6b9fd0	0.014381364
118	0x3e01a0c2	0.1265898
119	0x3d73e4af	0.05954426
120	0xbd156b78	-0.036479443
121	0xbc6820d4	-0.014167983
122	0x3ca8e6a1	0.020617785
123	0xbc3e7920	-0.011625558
124	0x3cf14551	0.029451998
125	0x3d968187	0.07348924
126	0x3cb0baaf	0.021573393
127	0x3ba09f52	0.004901805
128	0xbdb36e39	-0.08761258
129	0xbe4d30d7	-0.20038162
130	0xbbc2a6e8	-0.005940307
131	0x3bfdfc61	0.007751033
132	0x3df1eed0	0.11813128
133	0x3e02f63c	0.12789243
134	0x3c084da3	0.008319291
135	0xbcd5dbea	-0.02610584
136	0x3d1b5cce	0.037930302
137	0xbc12c948	-0.008959122
138	0x39ad931b	0.00033106733
139	0xbbac9671	-0.0052669575
140	0xbdf22913	-0.118242405
141	0xbb62e9dd	-0.0034624257
142	0x3c405afa	0.0117404405
143	0xbab99546	-0.0014158867
144	0xbe5b76e6	-0.21432075
145	0xbd05512c	-0.032548115
146	0xbbcc482a	-0.0062341886
147	0x3b63ee3f	0.0034779457
148	0xbd3fe07a	-0.046844937
149	0xbc4efab8	-0.012633018
150	0x3a4e839b	0.0007877887
151	0xbd9474fe	-0.07248877
152	0xbd7fe06e	-0.062469892
153	0x3cd44a19	0.025914239
154	0xbd62498c	-0.05524592
155	0xbcf05434	-0.029337026
156	0xbe37fa66	-0.17966613
157	0xbcac3e97	-0.021025939
158	0xbb898375	-0.004196579
159	0xbd2aeddc	-0.041730747
160	0x3d9116bb	0.070844136
161	0xba90f4d3	-0.0011059291
162	0x3c82c9b1	0.015965315
163	0xbdafd638	-0.08585781
164	0x3c721816	0.01477625
165	0xbdb1f29a	-0.08688851
166	0x3da2f0b3	0.07956066
167	0xbd909621	-0.07059885
168	0xbc217b09	-0.009855994
169	0xbc991a4f	-0.018689303
170	0xbd059a0f	-0.032617625
171	0x3d8215c4	0.06351808
172	0xbdc45874	-0.095871836
173	0xbdc477ef	-0.09593188
174	0xbc36021e	-0.011108903
175	0x3d25d3f1	0.040485326
176	0xbd4c4bbb	-0.04987691
177	0xbdce779f	-0.1008141
178	0x3cf6fdc8	0.03015031
179	0xbd20ab0c	-0.039225623
180	0xbc268360	-0.010163158
181	0xbd17999e	-0.037011735
182	0x3b6e0097	0.003631627
183	0x3a5310de	0.00080515246
184	0xbdc9065c	-0.09815666
185	0xbe352446	-0.17689618
186	0x3d8af431	0.06784857
187	0x3c69c7f6	0.014268866
188	0x3e19dd91	0.15025927
189	0xbe299000	-0.16558838
190	0xbcd33c63	-0.02578563
191	0xbd4ecc5f	-0.050487872
192	0xba4c4b40	-0.00077931955
193	0xbd8063ac	-0.06269011
194	0xbd3e552d	-0.04646795
195	0x3d6a27bb	0.057166796
196	0xbc4049f1	-0.011736379
197	0x3b64cdaa	0.0034912624
198	0x3d202883	0.039101135
199	0x3d911940	0.07084894
200	0x3cb9ddb9	0.022688733
201	0x3dc0aa96	0.09407537
202	0xbc7794fa	-0.015111202
203	0x3d9b603e	0.07586716
204	0x3d5e9fbd	0.054351557
205	0xb99a27ff	-0.00029402968
206	0x3d5f62cb	0.054537576
207	0xbc7e9687	-0.015538818
208	0xba081578	-0.00051911874
209	0xbde20b30	-0.1103729
210	0xbd043c29	-0.032283936
211	0xb9c94281	-0.00038387257
212	0x3d9536f9	0.07285876
213	0x3cd4fd62	0.025999729
214	0xba79f1a7	-0.0009534605
215	0xbdaece16	-0.085354015
216	0x3d2eae34	0.0426466
217	0xbaaa6f4f	-0.0013003143
218	0x3d55f296	0.0522333
219	0x3d04e2f6	0.03244301
220	0x3a8b5c01	0.0010632278
221	0xbc9fbc18	-0.01949887
222	0xbd53167d	-0.05153512
223	0x3d055ea7	0.03256097
224	0xbd5c0992	-0.053720064
225	0x3ddee116	0.108827755
226	0x3d781bf4	0.060573533
227	0xbc1e42d9	-0.009659492
228	0xbde2536d	-0.110510685
229	0xbd3ce2bb	-0.046114665
230	0x3d98653b	0.07441183
231	0xbdc1fdf1	-0.094722636
232	0x3d988897	0.074479274
233	0xbc3933c8	-0.0113038495
234	0x3ad233e4	0.0016037193
235	0x3cdc267a	0.026873816
236	0xbd4f642d	-0.050632644
237	0x3e01d4f1	0.12678887
238	0x3ce4fdaf	0.027952997
239	0xbe0910d2	-0.13385323
240	0xbde03f71	-0.109496005
241	0x3d3058b5	0.043053348
242	0xbd785126	-0.060624264
243	0x3d0353e8	0.03206244
244	0xbc2fc8db	-0.01072904
245	0xbd2fcf3d	-0.042922247
246	0xbc79a4e1	-0.015237064
247	0xbb4c5fd2	-0.0031185043
248	0xbdc33a4e	-0.09532605
249	0xbc84edbc	-0.016226642
250	0xb93d3723	-0.00018044985
251	0x3d0fd8dc	0.035118923
252	0x3d3abd61	0.045590762
253	0xbd0da427	-0.034580376
254	0x3d3b2a56	0.04569467
255	0x3dc15921	0.09440828

linear1.bias f4 [800]
0	0x365467ec	3.1650952e-06
1	0xb64a0231	-3.0101621e-06
2	0xb73118fc	-1.0555839e-05
3	0xb4e85111	-4.327235e-07
4	0xb40f9b15	-1.3374331e-07
5	0x34b66eba	3.3980706e-07
6	0x36c5c5e6	5.894096e-06
7	0xb51dc4ce	-5.8773446e-07
8	0x38613761	5.3695756e-05
9	0xb6aeada0	-5.2058167e-06
10	0x36c61569	5.9033523e-06
11	0x37800e2a	1.5265385e-05
12	0xb6b8c814	-5.5069195e-06
13	0x3358fddd	5.0522306e-08
14	0x342a4dc7	1.5860779e-07
15	0xb6e8b2e8	-6.934966e-06
16	0xb4f5d699	-4.5790947e-07
17	0x00023d7e	2.0573e-40
18	0x373f9534	1.1419226e-05
19	0x37d44b8e	2.5307552e-05
20	0x3717c1f4	9.04546e-06
21	0x37aec995	2.0836285e-05
22	0xb71cb655	-9.340777e-06
23	0xb4dd49d7	-4.1218183e-07
24	0x379eda26	1.8936651e-05
25	0xb4d64da4	-3.9917097e-07
26	0x36815224	3.854062e-06
27	0x35f7df34	1.8467895e-06
28	0x36af9d6a	5.233732e-06
29	0x3709d211	8.214746e-06
30	0x360381ed	1.9596148e-06
31	0x3783a3e9	1.5692744e-05
32	0x8005828e	-5.06012e-40
33	0xb41b1554	-1.4443259e-07
34	0xb6c7d002	-5.9548775e-06
35	0x3682a49a	3.893464e-06
36	0x3313016b	3.4227394e-08
37	0x3629208f	2.5201914e-06
38	0x35d2e172	1.5711832e-06
39	0x373e0091	1.1325014e-05
40	0xb5b0925e	-1.315562e-06
41	0x36ca3310	6.0260136e-06
42	0xb4416c6e	-1.8013972e-07
43	0x94bbe08b	-1.8970741e-26
44	0x358cf455	1.0501923e-06
45	0xb71e7459	-9.444623e-06
46	0x3633fe7c	2.6821208e-06
47	0x36aeb505	5.2066775e-06
48	0x37054dc0	7.94552e-06
49	0x37533ffc	1.2591478e-05
50	0xb7545456	-1.2655821e-05
51	0xb610322a	-2.1486871e-06
52	0x36a66682	4.959119e-06
53	0x35f1a716	1.8004528e-06
54	0x362f23a7	2.6097784e-06
55	0x36b777be	5.467765e-06
56	0xb5ebe5f7	-1.7575793e-06
57	0xb6de455e	-6.624191e-06
58	0xb613755f	-2.1973026e-06
59	0x3574251d	9.095109e-07
60	0xb6461de6	-2.9521702e-06
61	0xb3aa400f	-7.927894e-08
62	0x375827da	1.2883882e-05
63	0x36a1d768	4.8232505e-06
64	0x376890a6	1.3861956e-05
65	0xb6193551	-2.282981e-06
66	0x37ba3b17	2.2200444e-05
67	0x37214840	9.61317e-06
68	0xb8149aa1	-3.542996e-05
69	0x8005f375	-5.46513e-40
70	0x80066f03	-5.90836e-40
71	0xb7a982c0	-2.0207255e-05
72	0x3487525f	2.5205642e-07
73	0xb71196dc	-8.677798e-06
74	0xb5cf7fde	-1.5459916e-06
75	0xb612b41b	-2.186053e-06
76	0x800635d7	-5.70327e-40
77	0xb4c38bd2	-3.6423313e-07
78	0x37bf306c	2.2791522e-05
79	0x8002c11c	-2.52946e-40
80	0x366eda0c	3.5591684e-06
81	0xb4e3cd0f	-4.2431245e-07
82	0x3759d541	1.298386e-05
83	0xb7332fdf	-1.0680377e-05
84	0x0001f615	1.80113e-40
85	0xb71a311f	-9.190552e-06
86	0x36a7e44a	5.003564e-06
87	0xb4be08ce	-3.5396664e-07
88	0xb72f09e0	-1.0433112e-05
89	0xb535d7f7	-6.7742025e-07
90	0x37bb20e4	2.2307453e-05
91	0x3701df05	7.740925e-06
92	0x358b7b94	1.0392273e-06
93	0x372eaadc	1.04109895e-05
94	0x3795958a	1.7831819e-05
95	0x9c34be1f	-5.980273e-22
96	0x36b1a679	5.294391e-06
97	0xb79ba76e	-1.8555405e-05
98	0xb887eee4	-6.4817985e-05
99	0xb606ebb2	-2.0104749e-06
100	0x37257bb7	9.863571e-06
101	0x02f381b2	3.5780082e-37
102	0x36561b6c	3.1904447e-06
103	0x364ff0d5	3.0985586e-06
104	0xb4b1cfa1	-3.311989e-07
105	0xae03ed29	-2.9996592e-11
106	0x35ac93b6	1.2857988e-06
107	0x3667ce1e	3.4541658e-06
108	0xb5a1dc7c	-1.2059604e-06
109	0xb7420dd7	-1.1566523e-05
110	0xb68ca129	-4.1910866e-06
111	0xb61214d2	-2.1767814e-06
112	0xb74efa6b	-1.2336862e-05
113	0x37b4bdaa	2.1545991e-05
114	0x8003fa88	-3.6538e-40
115	0x365aebc5	3.2621767e-06
116	0x35dc5096	1.6414731e-06
117	0x365854f2	3.2235953e-06
118	0xb3edf486	-1.1080651e-07
119	0x0005afd9	5.2226e-40
120	0x8004fc60	-4.57877e-40
121	0x369bc5cb	4.642386e-06
122	0xb4839646	-2.450999e-07
123	0xb623af37	-2.4390881e-06
124	0xb5f6a668	-1.8376859e-06
125	0x35acd28e	1.2876278e-06
126	0x358fe3bd	1.0720611e-06
127	0x34eeff7e	4.451685e-07
128	0xb536e3d9	-6.8131845e-07
129	0x36c17b08	5.766171e-06
130	0x3255da37	1.2447848e-08
131	0x35c2c6b6	1.4511959e-06
132	0xb6a86cb1	-5.0194435e-06
133	0xb4ebee0f	-4.3945371e-07
134	0x284ae8b9	1.1263716e-14
135	0x36ab03eb	5.0966532e-06
136	0xb70985ed	-8.197018e-06
137	0x8000571a	-3.1246e-41
138	0xb58b9aba	-1.0401338e-06
139	0x3440de9f	1.7962383e-07
140	0xb7b66183	-2.1741498e-05
141	0x0005b136	5.22749e-40
142	0x8005c5bf	-5.30115e-40
143	0x33264f8f	3.8722245e-08
144	0x8000b1b8	-6.3753e-41
145	0x3647893e	2.9733196e-06
146	0xb6a3be7f	-4.879955e-06
147	0x80060c67	-5.55462e-40
148	0xb7bb1217	-2.230056e-05
149	0xb6794e72	-3.7149553e-06
150	0xb69431e4	-4.4165517e-06
151	0xb5b2f2bf	-1.3332682e-06
152	0x3727826f	9.984345e-06
153	0x36e5ac05	6.8447575e-06
154	0xb72f8142	-1.0460908e-05
155	0x34b8beb5	3.4411428e-07
156	0xb5b770bf	-1.3667376e-06
157	0x3574398c	9.0980825e-07
158	0xb49ddb01	-2.9402875e-07
159	0xb5a342b0	-1.2163855e-06
160	0x36898c66	4.0992627e-06
161	0xb5ba7c3c	-1.3894237e-06
162	0x36cb106a	6.0517823e-06
163	0x3523a2b6	6.095901e-07
164	0x377d17a8	1.5085483e-05
165	0xb7521ec4	-1.2524139e-05
166	0xb79b53e7	-1.851651e-05
167	0x37ba053e	2.2175369e-05
168	0xb57dad3d	-9.450194e-07
169	0xb48c96bc	-2.6186706e-07
170	0xb7bf8941	-2.2832888e-05
171	0x37ea45ae	2.792742e-05
172	0x3624f493	2.4580265e-06
173	0xb733f755	-1.0726818e-05
174	0xa979686f	-5.537969e-14
175	0xb6a70496	-4.9775217e-06
176	0x33108b9b	3.3654583e-08
177	0xb58869bd	-1.0163564e-06
178	0x37d50f58	2.5398724e-05
179	0x36afa4f4	5.2346095e-06
180	0xb711a8d1	-8.681979e-06
181	0xb55880ff	-8.0653984e-07
182	0x3783c557	1.570831e-05
183	0x36835fdc	3.9152637e-06
184	0x36b992b2	5.530507e-06
185	0xb6fdec23	-7.5674775e-06
186	0x3627abd0	2.4984947e-06
187	0x3612f132	2.189609e-06
188	0x37238df1	9.748605e-06
189	0x34145852	1.3815705e-07
190	0xb8534e64	-5.0379327e-05
191	0x35d05691	1.5522402e-06
192	0xb523934b	-6.093657e-07
193	0x0005f33f	5.46438e-40
194	0xb78845de	-1.6244998e-05
195	0x37691bab	1.3894324e-05
196	0xb7be4251	-2.2680646e-05
197	0xb3603c17	-5.2208716e-08
198	0xb650b77f	-3.1101224e-06
199	0xb0ce47d5	-1.5008889e-09
200	0x35b0b6e9	1.3166256e-06
201	0x8005e4ec	-5.41299e-40
202	0xb7d56ebb	-2.5443142e-05
203	0xb4b94b1c	-3.4513585e-07
204	0x3697eecc	4.5279503e-06
205	0xb72a0d2a	-1.0135855e-05
206	0x367dc8da	3.7816849e-06
207	0xb7465ea3	-1.1823754e-05
208	0xb5d924f0	-1.617851e-06
209	0x35330922	6.6695986e-07
210	0x37771357	1.472685e-05
211	0x36812e7c	3.849911e-06
212	0x35b69558	1.3603521e-06
213	0xb748596a	-1.1941747e-05
214	0x35ce78c6	1.5383346e-06
215	0x38035547	3.1312255e-05
216	0xb512521e	-5.4508735e-07
217	0xb5a7ae77	-1.2493246e-06
218	0xb7348fb6	-1.0762296e-05
219	0x36e69fc3	6.873133e-06
220	0x36ff9da7	7.6179454e-06
221	0x36fb244d	7.484609e-06
222	0xb356ffc9	-5.0058393e-08
223	0xb42db0ff	-1.6176271e-07
224	0xafc6325c	-3.6051773e-10
225	0x358a13cf	1.0287566e-06
226	0xb74c7dae	-1.218861e-05
227	0x374f016c	1.23384925e-05
228	0x2f8ac791	2.5243854e-10
229	0xb684b320	-3.9547594e-06
230	0x367a23af	3.7273674e-06
231	0xb3db440b	-1.0210359e-07
232	0x36308dc6	2.6308567e-06
233	0xb6fc442f	-7.518123e-06
234	0xb4da2975	-4.0635828e-07
235	0x3828a377	4.020656e-05
236	0xb705b8cd	-7.970445e-06
237	0xb6519850	-3.1232084e-06
238	0xb65a6861	-3.2545288e-06
239	0x00001247	6.557e-42
240	0x338222d9	6.0599355e-08
241	0xb5562c35	-7.978554e-07
242	0xb7385f1f	-1.0989402e-05
243	0xb6fac0af	-7.473012e-06
244	0xb6cabf37	-6.0423295e-06
245	0xb41c43fd	-1.4553366e-07
246	0x3754fc51	1.2694932e-05
247	0xb5d7daa8	-1.6082386e-06
248	0xb647ef37	-2.9792552e-06
249	0xb6523b15	-3.1326829e-06
250	0xb5a7e387	-1.2508689e-06
251	0xb7033cae	-7.822337e-06
252	0xb635ed62	-2.7109277e-06
253	0x36c3f1fd	5.839624e-06
254	0x373f647b	1.1407882e-05
255	0x368034e9	3.820857e-06

bn1.weight f4 [800]
0	0x3ebe759b	0.371991
1	0x3e875cc8	0.26437974
2	0x3ef36b37	0.47542736
3	0x3e6aebf3	0.2294157
4	0x3efe02da	0.4961155
5	0x3e84657d	0.2585868
6	0x3ebc1305	0.3673326
7	0x3e9d9231	0.30775598
8	0x3f091120	0.53541756
9	0x3f04a7dc	0.51818633
10	0x3ee403a2	0.44534022
11	0x3eb11dfc	0.3459319
12	0x3f1cae81	0.6120377
13	0x3e96229b	0.29323277
14	0x3e721601	0.23641206
15	0x3efe61f4	0.49684107
16	0xbcbf4bdd	-0.023351604
17	0xb9996d9d	-0.00029264102
18	0x3ea8e60f	0.3298802
19	0x3edc6398	0.43044734
20	0x3eb903a6	0.36135596
21	0x3ef5ac85	0.47983184
22	0x3f01252a	0.5044733
23	0x3e55e026	0.20886287
24	0x3f25e218	0.64798117
25	0x3f0638fb	0.52430695
26	0x3efb4057	0.49072525
27	0x3ed24074	0.410648
28	0x3ed38026	0.41308707
29	0x3f0833c0	0.53203964
30	0x3eb403dd	0.35159197
31	0x3f09b5cd	0.5379303
32	0xba62a512	-0.0008645813
33	0x3e40439f	0.18775795
34	0x3f230a01	0.6368714
35	0x3ed83197	0.42225334
36	0x3e28d833	0.16488723
37	0x3ec678ff	0.38764188
38	0x3edfecf3	0.43735465
39	0x3efa9f62	0.48949724
40	0x3e7a0439	0.24415673
41	0x3f1555a4	0.583338
42	0x3f0b8877	0.54505104
43	0xbb8d72c3	-0.004316659
44	0x3e21b31f	0.15790986
45	0x3efb5266	0.49086303
46	0x3e896d8a	0.26841384
47	0x3f1f413c	0.62208915
48	0x3f240dee	0.64083755
49	0x3ee2d9fe	0.4430694
50	0x3f053d3d	0.5204657
51	0x3e8e24ef	0.27762553
52	0x3eed1400	0.4630432
53	0x3ea08e26	0.3135845
54	0x3ec054ca	0.3756469
55	0x3f2c0683	0.67197436
56	0x3eb41196	0.35169667
57	0x3ed76d79	0.42075709
58	0x3ed89612	0.42301995
59	0x3e991a23	0.29902753
60	0x3efd4e25	0.49473682
61	0x3ecc8b42	0.39949995
62	0x3f09ac2b	0.5377833
63	0x3ee59309	0.4483874
64	0x3efc0886	0.49225253
65	0x3f007ce3	0.5019056
66	0x3efff2ad	0.49989834
67	0x3f01df89	0.5073171
68	0x3f178b5a	0.5919701
69	0xb9115bee	-0.00013862524
70	0x140b467f	7.0316095e-27
71	0x3f21f23b	0.6326024
72	0x3e6ddaa2	0.23227933
73	0x3f1e2d69	0.6178804
74	0x3e82c2c9	0.25539234
75	0x3e9f05d7	0.31059143
76	0x80059b1e	-5.14823e-40
77	0x3e95f057	0.29284927
78	0x3f175738	0.5911746
79	0x39edc2d4	0.0004534932
80	0x3f282622	0.65683186
81	0x3e76bf33	0.24096374
82	0x3f153da4	0.5829718
83	0x3eeb5547	0.459635
84	0x801b1cbe	-2.489869e-39
85	0x3f0e057b	0.5547711
86	0x3eb29b8f	0.34884307
87	0xbcc25454	-0.023721851
88	0x3ec0b27a	0.37636167
89	0x3e8079b0	0.2509284
90	0x3f209bd3	0.6273777
91	0x3f1163bf	0.56792825
92	0x3eba6daf	0.36411807
93	0x3ed8817f	0.42286298
94	0x3f156a12	0.58364975
95	0x3cee9033	0.029121494
96	0x3ececb6c	0.40389574
97	0x3ef71b88	0.48263192
98	0x3f05538b	0.520806
99	0x3e986470	0.29764128
100	0x3f1d0f71	0.61351687
101	0x3bb10a44	0.005402835
102	0x3f188c32	0.5958892
103	0x3f08a4e4	0.53376603
104	0x3e92288e	0.28546566
105	0x3c513c2c	0.012770694
106	0x3f0f339e	0.55938137
107	0x3f0878f2	0.5330955
108	0x3ecb2f50	0.39684534
109	0x3eed4eba	0.46349126
110	0x3ebd4c1b	0.36972126
111	0x3ec5a69a	0.3860367
112	0x3ecb748e	0.39737362
113	0x3f20ef97	0.62865585
114	0xa7c9cebf	-5.601286e-15
115	0x3e95db92	0.2926908
116	0x3f11c1f0	0.5693655
117	0x3f0ef115	0.5583661
118	0x3f0d2d83	0.5514757
119	0x3985b0e2	0.00025499525
120	0x3656f1e3	3.2029282e-06
121	0x3e8bf1fe	0.27333063
122	0x3e1dea45	0.15421398
123	0x3edb256e	0.42801994
124	0x3e547b1b	0.20750086
125	0x3e967ec6	0.29393595
126	0x3e30293a	0.17203227
127	0x3e8217ad	0.25408688
128	0x3e870f0f	0.26378676
129	0x3f100db0	0.56270885
130	0x3e276999	0.16348876
131	0x3ed7ce72	0.42149693
132	0x3ee92154	0.4553324
133	0x3e664a1b	0.22489206
134	0xbc3dd91b	-0.0115874065
135	0x3eb850ed	0.3599924
136	0x3ec71531	0.38883355
137	0xba0bf867	-0.0005339444
138	0x3e6c59d2	0.23081139
139	0x3e070719	0.13186301
140	0x3f0f81e2	0.5605756
141	0xb736695b	-1.0872575e-05
142	0x000573a5	5.00663e-40
143	0x3e31e5a7	0.17372762
144	0x3c04006e	0.008056743
145	0x3f1af450	0.6052904
146	0x3f174f9e	0.5910586
147	0xb53a3a7d	-6.937551e-07
148	0x3ec8b093	0.39197215
149	0x3f109c69	0.5648866
150	0x3ed4bf5f	0.41552255
151	0x3ea30b8c	0.31844747
152	0x3f139144	0.5764353
153	0x3f0dfd6a	0.55464804
154	0x3f13a4c8	0.5767331
155	0x3e5138d5	0.20431836
156	0x3e7ea88d	0.24868985
157	0x3e90e0af	0.2829642
158	0x3e23c3a0	0.15992594
159	0x3e88b4da	0.2670048
160	0x3f12828d	0.57230455
161	0x3e510dbe	0.20415398
162	0x3ee4be0d	0.44676247
163	0x3e9f187b	0.31073365
164	0x3ef791b6	0.48353356
165	0x3f28df9f	0.6596622
166	0x3f20b03f	0.6276893
167	0x3edd174b	0.43181834
168	0x3e23418a	0.1594297
169	0x3e9939eb	0.29927
170	0x3f022152	0.5083209
171	0x3ee8238b	0.45339617
172	0x3e8059da	0.2506855
173	0x3eeff6a3	0.46867856
174	0xbb602c6f	-0.0034206172
175	0x3f1fe2f6	0.6245569
176	0x3e9d49e3	0.30720434
177	0x3e3c2943	0.18375115
178	0x3f3016db	0.68784875
179	0x3f346490	0.70465946
180	0x3ef91cc4	0.4865476
181	0x3e972e3c	0.29527462
182	0x3eef51de	0.46742147
183	0x3e8ca60a	0.27470428
184	0x3ec674f0	0.3876109
185	0x3f2a0ee3	0.66428965
186	0x3efdde84	0.49583828
187	0x3e6d6387	0.23182498
188	0x3f195bdd	0.599058
189	0x3e975222	0.2955485
190	0x3f23bbc4	0.6395838
191	0x3eab527e	0.33461374
192	0x3d38ba05	0.045099277
193	0x34ec7bb2	4.4048426e-07
194	0x3f27b103	0.65504473
195	0x3f3882ed	0.72074777
196	0x3f156def	0.5837087
197	0x3ee5b24d	0.44862595
198	0x3e3bef6c	0.18353051
199	0x3e04b012	0.1295779
200	0x3e4f24cb	0.20228879
201	0x393bb90c	0.00017902645
202	0x3f0f022a	0.5586268
203	0x3e9a6410	0.30154467
204	0x3e6f2ab0	0.23356128
205	0x3f01ac17	0.50653213
206	0x3e83a87d	0.25714484
207	0x3f0d3e43	0.5517313
208	0x3e7fa343	0.24964623
209	0x3eec69f0	0.46174574
210	0x3efa4c6a	0.48886424
211	0x3eb1084b	0.3457664
212	0x3ee09b79	0.43868616
213	0x3ee1e118	0.44117045
214	0x3e8c7353	0.27431735
215	0x3ef4eb85	0.47835937
216	0x3e7d4978	0.24735057
217	0x3e9c2303	0.30495462
218	0x3e878ace	0.26473087
219	0x3f0419b5	0.51601726
220	0x3ed1ab82	0.40951163
221	0x3ef13de5	0.47117534
222	0x3eb73c8a	0.35788375
223	0x3d81e792	0.06342997
224	0x3dc71271	0.09720314
225	0x3ea52e8c	0.32262075
226	0x3edfc17b	0.437023
227	0x3eaa4223	0.33253583
228	0x3e486d3b	0.19572918
229	0x3f053527	0.5203423
230	0x3e98dea6	0.29857367
231	0x3e4fe2f7	0.20301424
232	0x3efba7a4	0.49151337
233	0x3eb2f234	0.3495041
234	0x3ec9916d	0.39368764
235	0x3f28cfce	0.65942085
236	0x3ede6566	0.43436736
237	0x3edcf90a	0.43158752
238	0x3eb1567f	0.34636304
239	0xba9fedc5	-0.0012201598
240	0x3e1a5e5e	0.1507506
241	0x3ef7f1c8	0.48426652
242	0x3f00cec2	0.5031549
243	0x3f050ba0	0.51970863
244	0x3eed1c90	0.46310854
245	0x3ea871ca	0.32899314
246	0x3f177bed	0.5917347
247	0x3e8db43e	0.27676576
248	0x3ef4d3e9	0.47817925
249	0x3eaa7b92	0.33297402
250	0x3f11327b	0.5671765
251	0x3e95a2f8	0.29225898
252	0x3e7bb912	0.24582317
253	0x3efb1136	0.49036568
254	0x3e7a3943	0.24435906
255	0x3f1a3f65	0.6025298

bn1.bias f4 [800]
0	0xbeb39114	-0.35071623
1	0xbe8a9087	-0.2706339
2	0xbeb39a2b	-0.35078558
3	0xbe6f64a2	-0.23378232
4	0xbec4d73a	-0.38445455
5	0xbe5719a6	-0.21005878
6	0xbec05b8b	-0.37569842
7	0xbeabac8a	-0.33530074
8	0xbec93841	-0.3930073
9	0xbf02ba33	-0.5106537
10	0xbeff0c09	-0.4981387
11	0xbe8937c2	-0.26800352
12	0xbf14dbfe	-0.5814818
13	0xbec8ad31	-0.39194635
14	0xbeb63892	-0.35590035
15	0xbedea39c	-0.434842
16	0xbbb90a8d	-0.0056470097
17	0xbbe3b828	-0.0069494434
18	0xbec1922d	-0.37806836
19	0xbed27814	-0.41107237
20	0xbea74f3c	-0.3267764
21	0xbecd9417	-0.40152046
22	0xbeaf67ee	-0.3425898
23	0xbe95b244	-0.29237568
24	0xbf0d3e58	-0.55173254
25	0xbeabd536	-0.33561105
26	0xbed11e5e	-0.4084348
27	0xbf02ed10	-0.5114298
28	0xbec1a688	-0.37822366
29	0xbf0ceade	-0.5504588
30	0xbe9c87f2	-0.30572468
31	0xbed18e8d	-0.4092907
32	0xbb05a503	-0.0020392544
33	0xbe99c37c	-0.30031955
34	0xbf15fc62	-0.5858823
35	0xbed9edbd	-0.42564192
36	0xbe908791	-0.2822843
37	0xbea9aacf	-0.3313813
38	0xbec63b7c	-0.38717258
39	0xbecfb6b8	-0.4056909
40	0xbe88266e	-0.2659182
41	0xbee9a771	-0.4563556
42	0xbed60252	-0.41798645
43	0xbc3b17eb	-0.011419277
44	0xbe8540c4	-0.26025975
45	0xbf045add	-0.51701146
46	0xbe83c35b	-0.25734982
47	0xbeffba7f	-0.49946973
48	0xbec5c54b	-0.38627085
49	0xbea64b7d	-0.32479468
50	0xbf18a13a	-0.5962101
51	0xbeba5adc	-0.36397445
52	0xbea38637	-0.31938335
53	0xbea2ff17	-0.31835243
54	0xbe8eeae6	-0.27913588
55	0xbec13972	-0.3773914
56	0xbebf1957	-0.3732402
57	0xbe829496	-0.25503987
58	0xbea0061d	-0.31254664
59	0xbeacf587	-0.33781072
60	0xbec9799a	-0.39350587
61	0xbf05f824	-0.5233176
62	0xbee45021	-0.44592384
63	0xbedc4ca5	-0.43027225
64	0xbef0b535	-0.4701325
65	0xbec034e8	-0.37540364
66	0xbe996ea1	-0.29967216
67	0xbf073799	-0.5281921
68	0xbed2fdb1	-0.41209176
69	0xbab785ff	-0.0014001726
70	0xaf37b8bc	-1.6709384e-10
71	0xbef006bf	-0.46880147
72	0xbebfe1df	-0.37477013
73	0xbf0b944b	-0.5452315
74	0xbe7c8e77	-0.24663721
75	0xbea8368c	-0.32854116
76	0xa1bc3914	-1.2754484e-18
77	0xbea8a284	-0.3293649
78	0xbebd9a54	-0.37031806
79	0xba18b982	-0.00058259827
80	0xbf18926a	-0.5959841
81	0xbe7904fe	-0.2431831
82	0xbec31179	-0.38099268
83	0xbebff798	-0.37493587
84	0xbbaf6d97	-0.0053536403
85	0xbec855d3	-0.3912798
86	0xbec7d69c	-0.3903092
87	0x3da47a9e	0.080312
88	0xbea0123b	-0.3126391
89	0xbeaeaa88	-0.3411448
90	0xbf0dad21	-0.553423
91	0xbf07efbf	-0.531002
92	0xbec4c861	-0.38434127
93	0xbedbcce6	-0.42929763
94	0xbefee8e6	-0.49787062
95	0xbd818cd4	-0.06325689
96	0xbeaf12b5	-0.3419396
97	0xbefa98df	-0.48944756
98	0xbeed452a	-0.4634183
99	0xbeb61246	-0.35560817
100	0xbeb66932	-0.35627133
101	0xbc793b88	-0.015211947
102	0xbf0826d7	-0.53184265
103	0xbedc0358	-0.429713
104	0xbe444d96	-0.19170222
105	0xbcd21f57	-0.02564971
106	0xbedc6e87	-0.43053076
107	0xbee2fcae	-0.44333404
108	0xbeabfd71	-0.33591798
109	0xbe98a568	-0.29813695
110	0xbec5c53f	-0.3862705
111	0xbed412b5	-0.41420522
112	0xbe967857	-0.29388687
113	0xbeddff82	-0.43359
114	0xb5d179c7	-1.5607155e-06
115	0xbe866b8b	-0.26253924
116	0xbee3a3fa	-0.44461042
117	0xbf110478	-0.56647444
118	0xbea20147	-0.316416
119	0xbaa8455d	-0.0012838055
120	0xb77e0c4c	-1.5142443e-05
121	0xbeb12c71	-0.3460422
122	0xbe702b99	-0.23454131
123	0xbec1220c	-0.37721288
124	0xbe3eea58	-0.18644083
125	0xbe91c694	-0.28471816
126	0xbe569eb8	-0.20958984
127	0xbe9a86d7	-0.30181
128	0xbebb7ab2	-0.36617047
129	0xbe9c6fdf	-0.305541
130	0xbe8502c7	-0.2597868
131	0xbebebd7c	-0.3725394
132	0xbf0c50d9	-0.54810864
133	0xbe99eddd	-0.30064288
134	0xbcbe7e4c	-0.023253582
135	0xbe9eff81	-0.3105431
136	0xbe9c03b1	-0.30471566
137	0xbb67faf4	-0.0035397382
138	0xbe7fa5a2	-0.24965528
139	0xbe3312b4	-0.17487603
140	0xbf1f71db	-0.62283105
141	0xb70a4537	-8.241556e-06
142	0xacfbb4c5	-7.1539185e-12
143	0xbe7f6b6f	-0.24943326
144	0xbc843acc	-0.016141318
145	0xbef5023d	-0.4785327
146	0xbf0fe335	-0.56206065
147	0xb64d46d9	-3.058862e-06
148	0xbeaf83d1	-0.34280255
149	0xbee207e3	-0.44146642
150	0xbebff77b	-0.374935
151	0xbef76411	-0.48318532
152	0xbede0d45	-0.433695
153	0xbed1e9e5	-0.4099876
154	0xbecdc0d9	-0.40186194
155	0xbe992497	-0.29910728
156	0xbe96526e	-0.29359764
157	0xbe9bf766	-0.30462188
158	0xbe7f7787	-0.2494794
159	0xbe898b10	-0.2686391
160	0xbee23afe	-0.44185632
161	0xbe8e315e	-0.2777204
162	0xbeb70309	-0.35744503
163	0xbea1b50b	-0.31583437
164	0xbebc4288	-0.3676951
165	0xbeefb1dc	-0.46815383
166	0xbf0dec4e	-0.554387
167	0xbeea56cf	-0.45769355
168	0xbe384d90	-0.17998338
169	0xbea6585e	-0.32489294
170	0xbebba2db	-0.36647686
171	0xbeb6e656	-0.35722607
172	0xbe999dc9	-0.30003193
173	0xbee9065a	-0.45512658
174	0xbbed9d3f	-0.007251411
175	0xbece4b66	-0.402919
176	0xbe903a49	-0.28169468
177	0xbe42d04d	-0.19024773
178	0xbeb94195	-0.36182848
179	0xbecea96f	-0.40363643
180	0xbec99dc1	-0.3937817
181	0xbeb718ec	-0.357612
182	0xbf02f601	-0.5115662
183	0xbe5b3412	-0.21406582
184	0xbeaeb774	-0.3412434
185	0xbeef772b	-0.46770605
186	0xbee0c3fb	-0.4389952
187	0xbe4079b7	-0.1879643
188	0xbee5fc32	-0.44918972
189	0xbe8febae	-0.28109497
190	0xbef07e93	-0.46971568
191	0xbea3a0a4	-0.31958497
192	0xbc2cef19	-0.010555052
193	0xb4e903a7	-4.340229e-07
194	0xbedfe4be	-0.43729204
195	0xbf047b9a	-0.517511
196	0xbee045ae	-0.4380316
197	0xbefae503	-0.49002847
198	0xbe4828f3	-0.19546871
199	0xbe7fa642	-0.24965766
200	0xbe6723af	-0.22572206
201	0xb715c05f	-8.925882e-06
202	0xbea8481b	-0.32867512
203	0xbeac7066	-0.33679503
204	0xbe8cc694	-0.27495253
205	0xbee2a336	-0.44265145
206	0xbeb8b8c5	-0.36078468
207	0xbef19b38	-0.47188735
208	0xbe60f158	-0.21967065
209	0xbf084520	-0.53230476
210	0xbecc8806	-0.39947528
211	0xbea25a3e	-0.31709474
212	0xbef3ffac	-0.47656
213	0xbeb31f58	-0.3498485
214	0xbe8401b8	-0.2578256
215	0xbed18150	-0.4091897
216	0xbe91d5ff	-0.2848358
217	0xbe7f3a7f	-0.24924658
218	0xbe0196f9	-0.12655248
219	0xbf04f2dd	-0.5193308
220	0xbec5f67f	-0.38664624
221	0xbecab9cc	-0.39594877
222	0xbea84e98	-0.32872462
223	0xbd8537ab	-0.065047584
224	0xbe18582e	-0.14877388
225	0xbeb81086	-0.35950106
226	0xbed387fb	-0.41314682
227	0xbe6f714a	-0.2338306
228	0xbeaa5a61	-0.3327208
229	0xbf05c59b	-0.52254647
230	0xbe929478	-0.28628898
231	0xbe8d59c3	-0.27607545
232	0xbe972fc7	-0.2952864
233	0xbe8541c1	-0.2602673
234	0xbebb4b24	-0.36580765
235	0xbee7ef36	-0.4529969
236	0xbec482f7	-0.38381168
237	0xbe93d0da	-0.2887028
238	0xbea45c70	-0.32101774
239	0xbb9567fe	-0.004559516
240	0xbe77a68a	-0.24184623
241	0xbea67a6b	-0.32515272
242	0xbeedf8e7	-0.4647896
243	0xbed96e1a	-0.42466813
244	0xbee7fb60	-0.4530897
245	0xbec20d26	-0.37900656
246	0xbee73768	-0.4515946
247	0xbe989464	-0.29800713
248	0xbf0d40b3	-0.5517685
249	0xbea7d667	-0.32780764
250	0xbf17b381	-0.59258276
251	0xbe81a757	-0.25322983
252	0xbe661c61	-0.22471763
253	0xbedb4642	-0.4282704
254	0xbe6aa4c8	-0.22914422
255	0xbf08fa4f	-0.5350694

bn1.running_mean f4 [800]
0	0x368c618f	4.1836824e-06
1	0x367ca95f	3.7649513e-06
2	0x376e6147	1.4208555e-05
3	0x36579d17	3.2128935e-06
4	0xb755b96b	-1.273896e-05
5	0x3564a741	8.5180005e-07
6	0x3471ff6e	2.2537799e-07
7	0xb65e72ec	-3.3147471e-06
8	0xb7ab3253	-2.0408223e-05
9	0xb7423e2f	-1.1577779e-05
10	0x3783bb45	1.5703621e-05
11	0xb7b8afb5	-2.201633e-05
12	0x3672826a	3.613672e-06
13	0x362e4738	2.5969475e-06
14	0xb6b48aad	-5.380562e-06
15	0x375d5e78	1.3194622e-05
16	0xb480dc30	-2.4002065e-07
17	0x9e3f2670	-1.01194045e-20
18	0xb6bbb20f	-5.593763e-06
19	0x36248301	2.4514159e-06
20	0x36eda8be	7.0827946e-06
21	0xb790e8de	-1.7274575e-05
22	0xb6ed2243	-7.067139e-06
23	0x365a33e9	3.2514747e-06
24	0x38061b34	3.1973424e-05
25	0xb771e998	-1.4419107e-05
26	0xb75d6363	-1.3195767e-05
27	0x376e3c9d	1.4200018e-05
28	0xb60aaf2c	-2.0665566e-06
29	0x373eac31	1.1364974e-05
30	0x35a54e25	1.2316201e-06
31	0xb65c7d9a	-3.2855664e-06
32	0x941855dd	-7.6909724e-27
33	0x35c98b6a	1.5016242e-06
34	0xb6b10215	-5.2752534e-06
35	0xb7363218	-1.0859709e-05
36	0xb5eff29a	-1.7877494e-06
37	0xb5f49616	-1.8223097e-06
38	0x36be30f5	5.6681406e-06
39	0xb6829165	-3.891228e-06
40	0x369f47e0	4.7469366e-06
41	0x36505376	3.1042996e-06
42	0xb7d8236e	-2.5765705e-05
43	0x345fd179	2.0844699e-07
44	0xb585c69c	-9.967075e-07
45	0x37d1278e	2.493316e-05
46	0x359c738b	1.1656533e-06
47	0xb647889e	-2.9732832e-06
48	0xb719adb9	-9.159959e-06
49	0xb75849d3	-1.2891792e-05
50	0x3703452c	7.824314e-06
51	0xb674c489	-3.6473232e-06
52	0xb71b8141	-9.268814e-06
53	0x35c559cc	1.4703778e-06
54	0xb6f47c33	-7.2862254e-06
55	0xb699711f	-4.5729244e-06
56	0xb60d47e3	-2.105248e-06
57	0xb7157875	-8.909138e-06
58	0x374ed35a	1.2327766e-05
59	0x37043f51	7.882555e-06
60	0x36bd9cf2	5.6509098e-06
61	0x3629da35	2.5309976e-06
62	0x37d42079	2.528749e-05
63	0xb79ab645	-1.8443106e-05
64	0x375f0350	1.3292607e-05
65	0x376b7a7d	1.4035611e-05
66	0xb7d15f5f	-2.4959152e-05
67	0x374a28d3	1.2049643e-05
68	0x3791eb8f	1.7395038e-05
69	0x8ecce287	-5.050802e-30
70	0x800065c9	-3.6514e-41
71	0x37bb41af	2.2322723e-05
72	0xb72cb376	-1.0293783e-05
73	0x3580f3b3	9.607669e-07
74	0x36045a00	1.972192e-06
75	0xb72492c8	-9.809337e-06
76	0x00007f16	4.559e-41
77	0x37740d47	1.4546625e-05
78	0xb6924bbd	-4.359956e-06
79	0x2468bf97	5.0469264e-17
80	0xb79707a9	-1.800417e-05
81	0x370a414c	8.240644e-06
82	0xb6d59bda	-6.366038e-06
83	0xb7450ddf	-1.1745345e-05
84	0x0000f908	8.9336e-41
85	0x38105904	3.4415178e-05
86	0xb5f69359	-1.8371312e-06
87	0xb4c79ceb	-3.718081e-07
88	0x3724a684	9.813932e-06
89	0xb710b9a9	-8.626296e-06
90	0xb438209e	-1.7148201e-07
91	0x37df6f75	2.6635573e-05
92	0xb7a112b5	-1.9201407e-05
93	0xb7b6184f	-2.170741e-05
94	0x37bfad6a	2.2849727e-05
95	0x33816d77	6.026942e-08
96	0x364e69eb	3.0758044e-06
97	0x36830d9c	3.9056886e-06
98	0x371560bd	8.903616e-06
99	0x34eecde0	4.4480748e-07
100	0xb4f90731	-4.6385097e-07
101	0x2ea03d0f	7.286804e-11
102	0xb7e2405b	-2.6971267e-05
103	0xb51dc47f	-5.8772997e-07
104	0xb76f2bdb	-1.4255721e-05
105	0x332e171b	4.0533546e-08
106	0x3754f923	1.2694191e-05
107	0x376017df	1.3356998e-05
108	0xb73041a0	-1.0505697e-05
109	0xb7a5bc14	-1.9757113e-05
110	0xb702fc5c	-7.807361e-06
111	0xb789406a	-1.6361668e-05
112	0xb5a53204	-1.2308014e-06
113	0xb7d32d8f	-2.5174375e-05
114	0x00006176	3.4962e-41
115	0x333dfaed	4.4233207e-08
116	0x37e34406	2.7092185e-05
117	0x351814bd	5.665459e-07
118	0x37288e99	1.0046781e-05
119	0x194bc531	1.05346765e-23
120	0x9990b0b3	-1.496062e-23
121	0xb6fd0bcd	-7.5413614e-06
122	0x36bf6ba8	5.7047764e-06
123	0xb71a0e93	-9.182509e-06
124	0xb66becfc	-3.5155672e-06
125	0x354fd512	7.742357e-07
126	0xb6662912	-3.4296577e-06
127	0x368f5c03	4.2724437e-06
128	0x352eff6c	6.519174e-07
129	0x37aee68d	2.0849775e-05
130	0xb5851bb1	-9.917331e-07
131	0x377ea55a	1.5178079e-05
132	0x36d28f74	6.275188e-06
133	0xb687ad84	-4.0435134e-06
134	0x353f4a99	7.12616e-07
135	0x37604205	1.3366812e-05
136	0xb6ccbeb1	-6.101873e-06
137	0x225182b4	2.8393975e-18
138	0x343b2b23	1.7431425e-07
139	0x363ef018	2.845196e-06
140	0x37f1a59f	2.8806562e-05
141	0x8001059d	-9.3849e-41
142	0x0000ef26	8.579e-41
143	0xb47238b1	-2.255863e-07
144	0x2d425a7e	1.10477166e-11
145	0x36baa564	5.562486e-06
146	0x375a980f	1.30292165e-05
147	0x80000316	-1.107e-42
148	0x378bbb0d	1.6657194e-05
149	0xb77164de	-1.4388204e-05
150	0xb690c5ca	-4.31456e-06
151	0xb710396d	-8.596439e-06
152	0x38097398	3.2771e-05
153	0x37935b0d	1.7566164e-05
154	0xb7e36ec8	-2.7112095e-05
155	0x36ebb9a1	7.025156e-06
156	0x36726365	3.6118665e-06
157	0x36e9d244	6.9684193e-06
158	0xb4a9b738	-3.1612012e-07
159	0xb45ff413	-2.0857287e-07
160	0x37a04eed	1.9110239e-05
161	0x3595cb95	1.1160615e-06
162	0xb607fe03	-2.0264422e-06
163	0xb6a7de31	-5.0028543e-06
164	0x365331dc	3.1470472e-06
165	0x37d332a5	2.5176743e-05
166	0xb74937c2	-1.1993516e-05
167	0xb79a8b8e	-1.8423216e-05
168	0xb60dc056	-2.1122592e-06
169	0x34e89bee	4.332682e-07
170	0xb7638f9a	-1.3563689e-05
171	0xb7a99245	-2.0214482e-05
172	0xb7161027	-8.9444575e-06
173	0xb70bff90	-8.344548e-06
174	0xb3ea456e	-1.0909103e-07
175	0xb73f94ae	-1.1419104e-05
176	0x36452a93	2.938007e-06
177	0xb54625f6	-7.381599e-07
178	0xb7314fad	-1.0568573e-05
179	0x36b6617b	5.435371e-06
180	0xb63b8a75	-2.7945764e-06
181	0x358a509a	1.0305259e-06
182	0xb6c068c8	-5.734244e-06
183	0xb6138c54	-2.1986389e-06
184	0xb744a498	-1.1720833e-05
185	0x36aec031	5.207978e-06
186	0x37ca7e44	2.4139074e-05
187	0xb72de987	-1.0365976e-05
188	0xb4e5c6d4	-4.279924e-07
189	0x3749957a	1.2015336e-05
190	0xb777a969	-1.4761791e-05
191	0x3693532d	4.3906243e-06
192	0xb57d589c	-9.437879e-07
193	0x800040fc	-2.3312e-41
194	0x375b1f6a	1.3060731e-05
195	0x37558b1f	1.2728181e-05
196	0x350af4ef	5.176543e-07
197	0x3525d3ee	6.177569e-07
198	0xb62a029b	-2.533349e-06
199	0xb3dc2a8a	-1.0252286e-07
200	0x361c3e34	2.3282018e-06
201	0x9f43ab98	-4.1434795e-20
202	0xb61cb006	-2.334827e-06
203	0xb5bea7b2	-1.4204909e-06
204	0xb6dea2fb	-6.635089e-06
205	0x373ce4f2	1.1258979e-05
206	0x37a52fdc	1.9691819e-05
207	0xb6a9847f	-5.052017e-06
208	0xb5fc5b6b	-1.8802069e-06
209	0x37235cdf	9.73718e-06
210	0x3782f03e	1.560908e-05
211	0x372fd0d0	1.0479431e-05
212	0x37c8ac9b	2.3922234e-05
213	0xb63165e0	-2.6434354e-06
214	0x369e614a	4.720093e-06
215	0x3727b2eb	9.995633e-06
216	0x3766be13	1.3753323e-05
217	0x3699b16b	4.5804095e-06
218	0xb6292a0b	-2.5207435e-06
219	0xb79ed534	-1.8934348e-05
220	0xb7a1fffc	-1.9311898e-05
221	0xb6287eed	-2.5107831e-06
222	0x35959e4a	1.1147433e-06
223	0x340f6fb7	1.3358554e-07
224	0x357500e5	9.1270914e-07
225	0xb597457b	-1.1270598e-06
226	0xb742484b	-1.1580133e-05
227	0x364670de	2.9569997e-06
228	0x34afbf98	3.2735693e-07
229	0xb60901ce	-2.0415641e-06
230	0xb7094e90	-8.184128e-06
231	0xb64e5b70	-3.0749616e-06
232	0xb7bfeff4	-2.2880711e-05
233	0x37051cd1	7.934127e-06
234	0x36f986d1	7.436473e-06
235	0xb816c21a	-3.5943558e-05
236	0x36bfc006	5.714598e-06
237	0xb78387ff	-1.5679745e-05
238	0xb70bbbf6	-8.328809e-06
239	0x8340fc07	-5.671304e-37
240	0xb5c0d910	-1.4368288e-06
241	0x37bb271b	2.2310347e-05
242	0x36d63b74	6.3846182e-06
243	0x378c8654	1.6751852e-05
244	0xb7c91a57	-2.3973333e-05
245	0x362842ab	2.5072757e-06
246	0xb68bfa6d	-4.171676e-06
247	0xb7250bd4	-9.83752e-06
248	0xb781461e	-1.541065e-05
249	0xb59da433	-1.17452e-06
250	0xb8209318	-3.8283964e-05
251	0x3667280b	3.444499e-06
252	0xb50e2c6d	-5.296377e-07
253	0xb6bc9df1	-5.6212234e-06
254	0xb584e3ef	-9.901104e-07
255	0x37af1527	2.0871475e-05
