models/NFM_layer_2_20/from_train_mean/MLP110.pt (torch, 624200 bytes, 26 tensors)

bi_BN.weight f4 [10]
000000 bd 10 c1 3d 6f 75 e1 3d 38 70 4f 3e 57 c2 5a 3e
       0.09427021 0.11008727 0.20257652 0.21363197
000010 98 03 d2 3d 77 87 85 3d 5a f3 49 3e 9c 47 39 3e
       0.10254592 0.065199785 0.19721738 0.18093723
000020 56 2f 84 3d c8 a6 21 3e
       0.06454341 0.15786278

bi_BN.bias f4 [10]
000000 c7 86 9e b6 cc 69 ae 36 f3 72 3d 38 c4 cf 58 b7
       -4.724457e-06 5.1979205e-06 4.5168166e-05 -1.29229775e-05
000010 3b d4 4e b8 c4 00 88 b7 0c 1d 87 b7 28 93 f3 b6
       -4.9311882e-05 -1.621282e-05 -1.610678e-05 -7.2590956e-06
000020 87 5d 22 b8 4d 5e ec b7
       -3.8710914e-05 -2.8177305e-05

bi_BN.running_mean f4 [10]
000000 c9 40 a5 44 50 0f 9b 44 f4 fa 8d 44 16 ca 9e 44
       1322.0245 1240.4785 1135.8423 1270.3152
000010 78 64 9c 44 50 ef 92 44 f5 93 a2 44 c3 9c 9f 44
       1251.1396 1175.4785 1300.6237 1276.8988
000020 ef f7 a8 44 3b 5e 9e 44
       1351.7479 1266.9447

bi_BN.running_var f4 [10]
000000 a2 96 f1 4a bc 16 d7 4a ec d9 da 4a 67 87 db 4a
       7.916369e+06 7.04803e+06 7.171318e+06 7.1935235e+06
000010 e9 90 09 4b 74 ee e6 4a f4 f4 20 4b e2 62 04 4b
       9.015529e+06 7.567162e+06 1.0548468e+07 8.676066e+06
000020 6e 02 0d 4b 26 60 08 4b
       9.241198e+06 8.93751e+06

BN_num.weight f4 [135]
000000 f7 86 2a 3f 79 f5 48 3f f4 30 5e 3f 80 eb 3a 3f
       0.6661219 0.7849956 0.86793447 0.73015594
000010 ae 2e 66 3f b5 2c 58 3f 4f 39 7a 3f 3d de 43 3e
       0.8991498 0.8444322 0.97743696 0.19127746
000020 ea 9e 47 3f c3 a3 2a 3f b6 69 75 3f e3 ed 3a 3f
       0.7797686 0.6665613 0.9586443 0.73019236
000030 20 05 58 3f ce d4 4f 3f 77 79 02 3f bc 41 53 3f
       0.8438282 0.8118409 0.5096659 0.8252218
000040 2f a8 42 3f c8 f1 08 3f 14 9c 72 3f 9e 95 0b 3f
       0.7603788 0.5349393 0.94769406 0.5452517
000050 18 06 42 3f bd bf 65 3f bd 85 3a 3f 03 ae 65 3f
       0.7579055 0.89745694 0.7286032 0.89718646
000060 92 58 35 3f 2c 3e 72 3f 38 03 2f 3f 13 ad 02 3f
       0.7083827 0.94626117 0.68364286 0.5104534
000070 af ce 37 3f ea b8 76 3f 54 41 1d 3f d5 d4 8a 3e
       0.7179975 0.96375906 0.6142781 0.27115503
000080 e3 f2 28 3f 2b 9d 2b 3f f6 50 24 3f 65 92 67 3f
       0.65995616 0.67036694 0.64186037 0.90457755
000090 a1 c9 3e 3f 87 4a 44 3f 7d 04 b3 3e 9d 8f 6b 3f
       0.7452641 0.7667622 0.34964362 0.9201601
0000a0 7e 7c 59 3f 56 48 1b 3f 40 06 39 3f da e2 54 3f
       0.84955585 0.6065725 0.7227516 0.8315865
0000b0 18 60 26 3f 08 0a 4a 3f 0d 8e 34 3f d9 b9 2c 3f
       0.6499038 0.78921556 0.7052925 0.6747108
0000c0 44 6f 4e 3f 9e d0 5f 3f 37 20 56 3f 33 aa 57 3f
       0.8063853 0.874277 0.83642906 0.8424408
0000d0 a8 c5 49 3f 07 39 4b 3f f8 58 3a 3f 83 c8 43 3f
       0.78817225 0.7938389 0.72792006 0.7647783
0000e0 56 9b 11 3f 0c 63 38 3f 24 64 31 3f 83 b2 63 3f
       0.5687765 0.72026134 0.6929343 0.8894426
0000f0 4d ba 6b 3f 10 a7 45 3f 02 59 3f 3f b4 ae 17 3f
       0.9208115 0.7720804 0.7474519 0.5925095
000100 d3 8d 07 3f b1 0c 76 3f aa f3 3a 3f 43 5c 01 3f
       0.5295078 0.96113116 0.7302805 0.50531405
000110 ea 2c 3f 3f dc 04 5e 3f e2 39 48 bb f2 14 77 3f
       0.7467791 0.86726165 -0.003055208 0.96516335
000120 a8 96 57 3f 57 3b 1f 3f 53 21 2c 3f 1d 21 1b 3f
       0.8421426 0.6219992 0.6723835 0.605974
000130 65 7e 18 3f 13 b7 5c 3f 3e 2b 3f 3f c6 fc 81 3f
       0.5956786 0.8621685 0.7467536 1.0155265
000140 11 7f 30 3f 63 05 01 3f 3c 56 7b 3f 49 57 17 3f
       0.6894389 0.50398844 0.9817846 0.5911756
000150 46 2d 45 3f 31 e6 44 3f 7d 83 5b 3f 96 df 4f 3f
       0.77022207 0.76913744 0.8574751 0.8120054
000160 1d a5 36 3f 98 44 63 3f 9c 5e 3c 3f 00 d2 f7 3e
       0.7134569 0.8877654 0.7358186 0.48402405
000170 ef a9 20 3f b8 ca 2d 3f 0c e2 22 3f d0 d0 3c 3f
       0.627593 0.6788745 0.6362617 0.7375612
000180 bd da f1 3e 6e 0f 37 3f b6 b8 48 3f 68 9d 33 3f
       0.47237197 0.7150792 0.78406847 0.7016206
000190 16 d6 5d 3f 5f 35 5d 3f 40 54 5f 3f e1 7f 23 3f
       0.86654794 0.8640956 0.8723793 0.63867
0001a0 7d 01 1e 3f 22 38 64 3f 4d 35 36 3f 31 a1 5c 3f
       0.6172102 0.8914815 0.7117508 0.8618346
0001b0 f9 52 61 3f 64 1c 3a 3f 3f 13 52 3f 60 f3 6d 3f
       0.8801723 0.7269957 0.8206062 0.92949486
0001c0 d9 7a 68 3f 13 fe 12 3f 32 0b 31 3f 9c e2 34 3f
       0.9081245 0.57418936 0.6915771 0.7065828
0001d0 01 24 3c 3f 21 7a 1d 3f 8f 77 47 3f 5c 64 48 3f
       0.7349244 0.6151448 0.77916807 0.78278136
0001e0 93 81 6a 3f 80 64 5d 3f 54 02 5d 3f 67 78 46 3f
       0.91603965 0.86481476 0.8633168 0.7752747
0001f0 e3 02 13 3f c7 eb 1c 3f 71 14 3a 3f d0 2e 3a 3f
       0.5742628 0.6129727 0.7268744 0.7272768
000200 ca 16 81 3f bc 59 25 3f f3 53 53 3f 45 e9 fd 3e
       1.008508 0.6459005 0.8254997 0.49592033
000210 1b 1a d3 3e aa 23 55 3f 0a 32 13 3f
       0.41230854 0.83257544 0.5749823

BN_num.bias f4 [135]
000000 b1 3d ce 37 0f 90 94 b6 a9 48 12 35 49 ea 2b b8
       2.4585841e-05 -4.4275143e-06 5.449497e-07 -4.0987772e-05
000010 0c 70 71 37 b1 55 9d 38 4b 60 27 b8 e3 b9 68 38
       1.4390807e-05 7.502305e-05 -3.9905583e-05 5.548623e-05
000020 dd be a2 37 eb a9 2a 37 c0 95 cf 35 fd 6d 8a 37
       1.9400783e-05 1.0172352e-05 1.5466285e-06 1.65021e-05
000030 02 d4 2e b7 ec c8 bf b7 ca 1c 06 38 ae 40 9e b7
       -1.042057e-05 -2.2862536e-05 3.19749e-05 -1.8865187e-05
000040 87 70 40 b7 66 ec 2d 38 84 f0 65 b8 dd f3 83 b8
       -1.1470292e-05 4.1466577e-05 -5.4821852e-05 -6.29199e-05
000050 58 b9 e2 b7 89 0f 6b 37 c0 01 32 b8 ed 40 0a b8
       -2.7027607e-05 1.4010709e-05 -4.2440137e-05 -3.296223e-05
000060 79 7f 56 38 9c 89 1d b8 46 62 74 37 10 93 09 b8
       5.1140294e-05 -3.7559876e-05 1.4566414e-05 -3.2800308e-05
000070 b0 e3 b5 b8 07 f2 d9 37 d4 6e b3 b8 f9 95 f5 37
       -8.673163e-05 2.5981119e-05 -8.5560285e-05 2.9276112e-05
000080 92 cd 8d b7 a1 9f b5 37 9a 8e 8a b7 0d 6b 21 b7
       -1.6904236e-05 2.1651214e-05 -1.6517286e-05 -9.6212725e-06
000090 63 41 51 b8 e4 70 af b8 4b cb c0 b8 3e f1 8b 38
       -4.989038e-05 -8.365678e-05 -9.19314e-05 6.672971e-05
0000a0 70 22 48 38 9a c8 7b 38 2c 30 a1 38 12 69 49 38
       4.771579e-05 6.0029888e-05 7.686051e-05 4.801999e-05
0000b0 4b 59 0a 39 70 c9 cf 37 82 99 aa 36 6d ea 43 b8
       0.0001319397 2.4770125e-05 5.0842655e-06 -4.670995e-05
0000c0 93 ea a3 b8 3d 39 a2 b8 3b 07 a1 b8 85 ad 7a 38
       -7.8161385e-05 -7.7354234e-05 -7.678425e-05 5.9766247e-05
0000d0 cc 6f 5d 38 d4 bb 91 b8 a5 2d 9b 38 92 0d 8f b8
       5.2794625e-05 -6.9491245e-05 7.399478e-05 -6.821299e-05
0000e0 7a b5 96 b8 3c 7e 7c b8 1b 2a 9f b7 fd 44 25 b8
       -7.18636e-05 -6.0199047e-05 -1.8973884e-05 -3.9403316e-05
0000f0 22 ba a2 37 e8 1e 75 b8 f1 47 ce 36 8c 20 b9 b7
       1.939858e-05 -5.8441336e-05 6.1476535e-06 -2.2068874e-05
000100 42 47 a2 37 9c 49 13 b7 df e5 f1 b7 31 3f bc b8
       1.9345087e-05 -8.779021e-06 -2.883648e-05 -8.976309e-05
000110 15 1e 5c b8 2e 08 7d 38 88 33 c1 b6 9a e7 c2 38
       -5.2480103e-05 6.032752e-05 -5.7578472e-06 9.29378e-05
000120 36 94 8e 38 21 ee 6e 37 aa dd 96 36 8b 98 af 38
       6.798694e-05 1.4241349e-05 4.4961535e-06 8.3730636e-05
000130 b8 15 20 b8 0c 0f 61 b7 1d 79 35 38 7a 5d 80 38
       -3.81672e-05 -1.3414548e-05 4.326656e-05 6.120927e-05
000140 66 7b 04 b9 e2 55 0d b6 ba 2f ca b7 98 8e 48 b8
       -0.0001263447 -2.1060628e-06 -2.41025e-05 -4.7816517e-05
000150 2b 3e 49 b8 5d 5e 67 b8 a5 28 47 38 8a d6 52 b7
       -4.7980033e-05 -5.5162574e-05 4.748315e-05 -1.2566927e-05
000160 d7 08 57 b8 b9 98 c9 b8 97 7d b3 38 56 93 bd b7
       -5.1268227e-05 -9.612874e-05 8.558778e-05 -2.2599164e-05
000170 a0 cf 54 b8 b3 8a 4a 38 1a 54 ea 36 3b 17 9d 35
       -5.0738105e-05 4.8289727e-05 6.983534e-06 1.1704172e-06
000180 24 08 1c 38 94 3e cd b7 7f b4 26 b7 96 1e 92 b7
       3.720088e-05 -2.4467045e-05 -9.936396e-06 -1.7418799e-05
000190 42 81 3d b8 41 88 14 b8 5a db 28 b7 bf a7 fb 36
       -4.5181492e-05 -3.5412846e-05 -1.0064652e-05 7.499911e-06
0001a0 99 ad 16 b8 a9 80 7a 38 38 1c 95 37 e8 3e 85 b8
       -3.5924462e-05 5.972447e-05 1.7775325e-05 -6.3536514e-05
0001b0 65 03 fd b7 52 d1 a0 38 51 5c 03 b7 9f 50 1f 37
       -3.0161531e-05 7.6683835e-05 -7.829703e-06 9.49591e-06
0001c0 88 2d aa 36 06 36 a7 b8 78 af 78 38 78 7d 3e 38
       5.0716953e-06 -7.973243e-05 5.9291226e-05 4.5416382e-05
0001d0 e6 ac fa 37 e5 82 6f 37 fe cb 75 38 91 2b 1f 38
       2.9882834e-05 1.4275986e-05 5.8602534e-05 3.794913e-05
0001e0 19 c2 b0 38 ff 57 95 38 21 ab 81 b8 8e 4f 2f 37
       8.4284875e-05 7.121264e-05 -6.1830746e-05 1.0449336e-05
0001f0 77 cd 94 38 b5 0b df 36 92 c1 9f b7 b5 7f c2 b7
       7.095461e-05 6.6472808e-06 -1.9044415e-05 -2.318607e-05
000200 52 71 b9 b8 81 92 e1 b7 f8 e4 59 b8 5e c5 2c b8
       -8.842595e-05 -2.6890311e-05 -5.1950075e-05 -4.1191808e-05
000210 c7 05 e0 b7 e4 6b b7 b8 1a 5e d3 37
       -2.6705571e-05 -8.746216e-05 2.519698e-05

BN_num.running_mean f4 [135]
000000 94 78 04 41 8c 61 aa 40 61 a1 a5 40 6a 75 e7 40
       8.279438 5.3244076 5.1759496 7.233083
000010 db af e1 40 78 f8 0e 41 ff e3 00 41 0d 05 14 41
       7.0527167 8.935661 8.055663 9.251233
000020 9f 49 12 41 2e fa 05 41 6d 02 06 41 fc 06 f4 40
       9.142974 8.373579 8.375592 7.6258526
000030 97 95 28 41 82 95 ff 40 ac 3d 36 41 6d a5 fb 40
       10.536521 7.9870005 11.390057 7.8639436
000040 a1 22 1f 41 05 95 ce 40 1e f4 d7 40 a8 2e fd 40
       9.945954 6.455691 6.7485495 7.9119453
000050 b1 4d a0 40 4f e5 f6 40 1b 76 3a 41 bb 31 b1 40
       5.009484 7.715492 11.653834 5.5373206
000060 98 11 02 41 46 09 ca 40 36 a6 df 40 75 86 d9 40
       8.129295 6.313632 6.9890394 6.797663
000070 20 6b 1b 41 60 7d c2 40 a2 9b fd 40 6e a4 2a 41
       9.713654 6.0778046 7.925248 10.665144
000080 d2 c2 f8 40 3e 4e 37 41 9f fe 1b 41 35 82 e7 40
       7.773782 11.456602 9.749663 7.2346444
000090 63 9d c9 40 f3 d4 e9 40 f6 32 c3 40 59 d7 15 41
       6.3004622 7.307245 6.099971 9.365075
0000a0 f2 c3 cf 40 25 33 31 41 dc 85 c8 40 51 02 20 41
       6.492669 11.074986 6.2663403 10.000566
0000b0 8b ef 10 41 12 0c 02 41 d9 73 13 41 cb bb 18 41
       9.058482 8.127947 9.215783 9.545848
0000c0 69 78 a9 40 74 3b 19 41 b1 71 cb 40 24 17 ab 40
       5.2959485 9.577015 6.3576283 5.346575
0000d0 16 ee ae 40 96 56 d8 40 a2 d9 c7 40 7d 2a 0d 41
       5.466563 6.7605696 6.2453165 8.822873
0000e0 a3 04 f0 40 58 ae 26 41 56 fe f4 40 f7 b4 a4 40
       7.500566 10.417564 7.656047 5.1470904
0000f0 71 25 08 41 12 57 ea 40 4e 81 a2 40 09 72 0e 41
       8.509141 7.3231287 5.0782843 8.902841
000100 55 6c f3 40 62 d8 e6 40 6c 4b d9 40 dc b7 f5 40
       7.606974 7.213914 6.790457 7.678694
000110 03 30 c8 40 37 6e 0b 41 b2 6b 18 41 dd 60 a3 40
       6.255861 8.714408 9.526293 5.105574
000120 49 da b2 40 56 d5 b9 40 3f cc c7 40 86 18 ff 40
       5.589146 5.807292 6.2436824 7.9717436
000130 40 45 ec 40 8e 67 f0 40 e6 ac 3b 41 27 1a 16 41
       7.3834534 7.512641 11.729712 9.381385
000140 e4 95 e5 40 19 04 1c 41 6d 75 ba 40 90 64 10 41
       7.174547 9.751 5.826834 9.024551
000150 55 ce aa 40 c7 57 e3 40 c2 7b 3f 41 fc 87 b7 40
       5.337687 7.104465 11.967714 5.7353497
000160 4c b2 13 41 c6 fb 21 41 b6 2b 01 41 20 4f d9 40
       9.2310295 10.123968 8.073172 6.790909
000170 b4 45 c1 40 59 dd ee 40 0c f6 17 41 ef 60 96 40
       6.0397587 7.46452 9.49757 4.6993327
000180 72 1a 39 41 da 08 f0 40 20 58 b8 40 10 14 29 41
       11.568956 7.5010805 5.7607574 10.567398
000190 d1 e3 ae 40 6b f4 9b 40 cc 49 e4 40 ba f9 2f 41
       5.4653096 4.873586 7.1340084 10.998468
0001a0 42 06 1f 41 ac e9 0d 41 89 51 d1 40 92 22 07 41
       9.939028 8.869549 6.541203 8.44594
0001b0 97 b7 b8 40 4a ee 12 41 dc 4a d6 40 f9 1b c6 40
       5.772411 9.183176 6.696638 6.1909146
0001c0 9f 2d f6 40 cd ab 2d 41 a5 42 ce 40 98 0d fd 40
       7.693069 10.854444 6.4456353 7.9079094
0001d0 53 7c f3 40 b9 99 47 41 58 b5 e3 40 78 9e 18 41
       7.6089263 12.47503 7.1158867 9.538689
0001e0 8e 6e fa 40 d1 aa 0d 41 65 b2 11 41 a6 d2 18 41
       7.8259954 8.854203 9.106053 9.551428
0001f0 13 bf 57 41 0c de d9 40 21 9f 04 41 9e dd 54 41
       13.484149 6.8083553 8.28885 13.304106
000200 aa 32 dd 40 2c ed a6 40 0f 2d de 40 8a d6 ea 40
       6.9124346 5.2164516 6.9430003 7.338689
000210 3a 18 05 41 a6 d4 e7 40 0e de 01 41
       8.318415 7.244708 8.116713

BN_num.running_var f4 [135]
000000 cf c0 91 3d 55 55 27 3e e2 df 2f 3e c4 49 16 3f
       0.071168534 0.16341145 0.17175248 0.5870631
000010 42 b1 6a 3e 7f 4a 0f 3e 71 35 d8 3e e2 be a9 3f
       0.22919181 0.13993262 0.42228273 1.3261378
000020 55 e1 2b 3e df d9 f6 3e 3d 79 74 3f b8 58 91 3e
       0.16785176 0.48213097 0.95497495 0.28388
000030 26 36 9b 3d 7b 60 f3 3d 69 98 5d 3d cf 48 0f 40
       0.07578687 0.118836366 0.054100428 2.238819
000040 c7 d1 c9 3e 33 9d 0b 3e 64 12 32 3e 32 8c c5 3d
       0.3941786 0.13634185 0.17389828 0.09645881
000050 0a 64 eb 3e 2a b7 18 3e e0 24 5b 3d b7 5c 85 3d
       0.4597476 0.14913622 0.053501964 0.065118246
000060 cd 2e 9a 3d ec f4 8c 3e 82 db d6 3e dd 68 62 3d
       0.07528458 0.2753061 0.41964346 0.055275787
000070 c8 c5 c5 3e bd 44 13 3d d2 4a 60 3f 98 82 bd 3d
       0.38627458 0.035954226 0.87614167 0.092534244
000080 bc 3f 1c 3e 61 dc 80 3e 86 80 4e 3e 83 cf d3 3e
       0.15258688 0.25168136 0.20166215 0.41369256
000090 86 96 c4 3d a5 cc 68 3f a0 2e b8 3e 21 1d b6 3e
       0.095990226 0.9093726 0.35973072 0.355691
0000a0 8b 73 4c 3d 28 d8 d6 3f 98 5f e0 3c 53 32 28 3e
       0.049914878 1.6784716 0.027389333 0.16425447
0000b0 38 83 bd 3e f8 bf c9 3d 7d cd ab 3d bc 15 5f 3d
       0.37014174 0.09851068 0.08388803 0.054464087
0000c0 fd fc a9 3e 68 d8 0b 3e da 71 4c 3e 88 ba 76 3d
       0.33200827 0.13656771 0.19965306 0.060236484
0000d0 c9 cb a1 3f e7 80 a3 3d c7 5a 34 3e 01 1a 9f 3d
       1.2640315 0.079835705 0.17612754 0.07768632
0000e0 63 72 69 3e d4 82 42 3d c0 1a 3c 3e 55 47 8f 3d
       0.22797541 0.04748805 0.1836958 0.069960274
0000f0 54 3e 1b 3e a8 ab f3 3e f0 a0 70 3d 5e 77 32 3e
       0.15160495 0.475919 0.058747232 0.17428347
000100 71 a8 52 3d 19 2a 0a 3e 59 9b e7 3d 69 10 95 3d
       0.05143017 0.13492621 0.11308927 0.072785206
000110 83 32 49 3d 05 59 70 3e bf 1d 23 40 0f 49 e8 3d
       0.049120437 0.23471458 2.5486906 0.1134206
000120 95 be be 3c 78 f2 ae 3d f0 2d 31 3f 69 c6 77 40
       0.023284236 0.08542341 0.6921072 3.871485
000130 b8 f5 48 3f e9 67 20 3e 45 f0 38 3d 43 d4 21 40
       0.7849994 0.15664639 0.045151014 2.5285804
000140 2e 61 b6 3d 9c db de 3f a8 ab e1 3c 5a 6e 21 40
       0.08905254 1.741077 0.027547672 2.5223603
000150 3a 89 76 3d 2e a1 3a 3d 9a d5 9e 3d 85 3b 43 3e
       0.060189463 0.04556387 0.07755585 0.19065674
000160 f8 61 b7 3e ec 4a 00 40 79 63 fb 3d b9 be 3d 3e
       0.35816932 2.0045729 0.12274832 0.18529786
000170 0a d9 cb 3d 43 5e 45 3e 20 28 e9 3f c3 12 f1 3d
       0.09953506 0.19274239 1.821537 0.11771157
000180 78 52 cf 3d 03 20 e2 3d e2 75 cd 3f 08 61 88 3d
       0.101231515 0.11041262 1.60516 0.06659132
000190 83 31 d7 3d 7d 70 9a 3d c5 2a 47 3f 93 ba 5b 3e
       0.105074905 0.07540987 0.77799636 0.21457891
0001a0 c0 d1 bb 3d 96 32 dd 3e 47 99 85 3d 96 50 05 3f
       0.09170866 0.43202657 0.06523376 0.5207609
0001b0 fd ae 60 3e af b2 d3 3d 1b ba ff 3d eb 0b 3b 3e
       0.21941753 0.103368156 0.12486669 0.18266265
0001c0 0c 2d 60 3d 4e a6 b2 3d 36 01 8c 3e ee 33 33 3e
       0.05473046 0.08723126 0.27344674 0.17500278
0001d0 ee e4 bc 3d 6f d8 a8 3d 29 35 0f 3f e4 30 e9 3d
       0.092233524 0.082444064 0.5594049 0.11386278
0001e0 c3 a7 94 3f 9b f3 ec 3c 6f 0f 07 3e 9d fb a1 3f
       1.1613697 0.028924754 0.13189481 1.2654911
0001f0 33 2f 5f 3e 72 f4 00 40 c6 45 00 3f 0d 30 31 3e
       0.21795349 2.0149198 0.50106466 0.17303486
000200 6b 97 3a 3e 2b f5 9c 3d 81 f1 85 3d c2 ba 50 40
       0.18221824 0.076639496 0.06540204 3.2613988
000210 c0 8a 04 3e af d0 85 3f ba 35 0b 3e
       0.12943554 1.045431 0.13594714

linear1.weight f4 [800, 135]
000000 05 36 88 3c 6f 9e 98 3d b1 53 0c 3e 22 66 39 3e
       0.016627321 0.07452094 0.137038 0.18105367
000010 ac d7 ea bd 4d 82 93 bb 3f 3a e1 bd 4d 65 07 3d
       -0.114669174 -0.004501617 -0.10997438 0.033055592
000020 3e 90 0d 3d c1 64 f5 3b 58 30 34 bc 61 f0 c1 3c
       0.03456139 0.0074888174 -0.010997854 0.023674192
000030 d2 41 52 bd 0e 1a a1 bb 09 e8 99 3d c9 fd fc bd
       -0.051332302 -0.004916436 0.0751496 -0.12353093
000040 ba c9 91 bd 3d 40 bd 3d 60 2c 87 bd a3 e9 dd bd
       -0.071185544 0.09240768 -0.06600261 -0.10835578
000050 7d 0f eb bd 1f 29 bb 3d 7b 8b 68 3d f0 e6 36 be
       -0.114775635 0.091387026 0.056773644 -0.17861533
000060 94 11 9e bd e7 8e 65 3c 2a b1 05 be bd f6 c6 bd
       -0.077181965 0.014011121 -0.13055864 -0.0971503
000070 5a 0c 82 3d c6 fe 66 bd 48 c2 f8 bc 8a 34 c3 3c
       0.06350012 -0.056395315 -0.030366078 0.023828764
000080 e2 a8 fd 3d 90 90 12 3d 40 fc 30 3d 65 d2 2d 3e
       0.123857275 0.035782397 0.043209314 0.1697479
000090 2b 1b 8a 3c 8a 50 0f 3e 03 40 26 3b 30 e0 5d 3d
       0.016858658 0.13995567 0.0025367744 0.05416888
0000a0 62 11 a6 bb 60 d3 e3 3a 86 10 3a bd fe f5 e3 3d
       -0.00506799 0.001738172 -0.045425914 0.11130904
0000b0 16 5d 08 be de 2c 19 3d 19 7b fb 3c 3b 7b 91 bd
       -0.1331676 0.037396304 0.030698346 -0.071035825
0000c0 61 25 ba bd e5 11 01 bd 1a 46 0e bd 78 c6 e2 bd
       -0.09089161 -0.031511206 -0.034734823 -0.11073011
0000d0 07 2c 44 bd e6 07 40 bd 6f 53 41 bd 95 ae cf 3d
       -0.04789355 -0.046882533 -0.04719871 0.10140721
0000e0 aa 16 16 bd ea 69 03 be 07 4d a4 3d 9f d7 fe bd
       -0.036642708 -0.12833372 0.08022504 -0.1244347
0000f0 c9 a6 36 bd 17 7e 7d bd 06 c6 65 bc 17 d1 a7 3d
       -0.044592652 -0.061887827 -0.014024263 0.081941776
000100 8d 80 08 be ae bf a0 bd 97 85 87 bd fd b2 58 3d
       -0.13330288 -0.0784906 -0.06617277 0.05290507
000110 a4 9a de bd 62 f3 67 3c f6 21 f5 3b 3f 61 bd bd
       -0.10869339 0.014157148 0.007480855 -0.09247064
000120 a9 17 04 bb d7 c7 83 bc 9f 81 9f 3d 30 eb 15 bd
       -0.0020155704 -0.016086502 0.07788395 -0.036601245
000130 10 f8 58 bd 9e a2 90 3d 96 35 b1 3d c8 dc 62 be
       -0.052970946 0.07062267 0.08652799 -0.22154534
000140 eb dc 2f be 72 97 b8 ba 9d 8a 62 3d 87 1b a8 bd
       -0.17174117 -0.001408322 0.055307973 -0.082083754
000150 d8 30 0f bd 5a f3 07 be 6d 34 85 3e fb aa df bd
       -0.03495869 -0.13276425 0.2601656 -0.10921284
000160 db a6 8f bd d0 e1 f6 3c 82 25 3a 3d 63 4a a8 bd
       -0.07014247 0.030136973 0.045445926 -0.08217313
000170 67 0f 0c bd d7 92 e2 bc b1 ea b1 bd f1 56 09 3e
       -0.034194376 -0.02765791 -0.08687342 0.13412072
000180 03 da 96 3c 17 79 63 3c b0 95 90 3d 7c 28 60 3c
       0.018414503 0.013883851 0.070598006 0.013681527
000190 29 ac a9 bd d7 58 be bd 7f c1 fd 3d 16 a9 8e 3d
       -0.0828479 -0.092942886 0.12390422 0.06965844
0001a0 e9 bc 92 bd 22 e3 23 3e 01 67 ee 3d 4a 67 21 bd
       -0.07164938 0.16004613 0.1164074 -0.039405145
0001b0 fc 19 fe 3d 0e b2 c3 3c 58 08 8a 3c 59 4f e8 b9
       0.124073 0.023888614 0.016849682 -0.00044309607
0001c0 50 dd 93 bd 0e 09 2c bd 2b d0 fc bd 28 1d f3 bd
       -0.072199464 -0.042000823 -0.123443924 -0.118707955
0001d0 e9 54 71 3c 5d 55 7c bd 95 74 17 bd 76 83 e9 3d
       0.014729717 -0.061604846 -0.036976416 0.11402027
0001e0 fd 52 a2 bd 63 7f 3e 3b 99 af 74 bd 77 c5 02 3e
       -0.07925985 0.0029067628 -0.059737775 0.1277064
0001f0 90 70 6c bd 9b 7b 88 bc 2e e9 67 bd 28 52 bf 3c
       -0.057724535 -0.016660502 -0.05661886 0.023354605
000200 4e d0 f7 3d 48 18 ba bd dd dc 58 3d cf eb 19 be
       0.12100278 -0.090866625 0.052945007 -0.1503136
000210 d5 c8 29 bc 6e e9 59 3d 24 33 22 3d c5 10 5b 3d
       -0.0103628235 0.05320113 0.039599553 0.05348279
000220 ce b1 ec bc ca 12 d6 bc ef fc e9 bc 81 6a 21 3c
       -0.028893378 -0.026132006 -0.028562991 0.009852053
000230 c7 f2 b0 bc bd 64 bb bc ec ff 01 ba 33 a5 89 bd
       -0.02160014 -0.022875184 -0.0004959095 -0.067209624
000240 39 2d 9c 3c a9 47 85 bd 30 49 db bc 17 03 53 bd
       0.019064533 -0.06507809 -0.026768297 -0.05151662
000250 9e cf aa bc dd 98 87 3d 8f fc 8b 3d 53 05 c1 3b
       -0.020850953 0.06620953 0.06835281 0.0058905273
000260 55 93 71 3c e8 b7 6b bb 22 36 8c 3c 7d 72 8b bc
       0.014744599 -0.003596777 0.017115656 -0.017022366
000270 2d 1b 41 bd 69 77 75 bb a8 53 51 3c 6f 3e 4d bc
       -0.047145057 -0.0037455207 0.012776293 -0.012527092
000280 b1 49 1c 3d d6 09 6d 3c 2b 41 bf 3b 1d 94 3e 3d
       0.038156215 0.014467677 0.005836626 0.04652797
000290 d5 26 29 bd c8 b0 17 3a d8 24 40 3c 45 ef 00 3d
       -0.0412968 0.00057865353 0.011727534 0.031478185
0002a0 92 fc 08 bc 27 f6 61 3c 17 9a 05 bb 42 81 51 bc
       -0.008360999 0.013791597 -0.0020386034 -0.012787165
0002b0 84 83 18 3d 4f 01 5d bc 42 50 f9 bc 6e bd 45 3c
       0.037234798 -0.0134890815 -0.030433778 0.012069089
0002c0 15 36 4a bd 6a f3 7d bd 29 d9 92 3b 4d d1 ee bb
       -0.049367983 -0.061999716 0.004481454 -0.007288134
0002d0 79 e0 d2 3c e9 b1 6d 3d 4f 38 1d bd 0e 56 e1 3c
       0.025741803 0.058030996 -0.03838378 0.027506854
0002e0 99 30 9d 3c 00 54 e2 3c 18 41 fc bc 21 a8 16 3d
       0.019188212 0.027627945 -0.030792758 0.036781434
0002f0 57 79 03 3d b6 61 82 bc af ec c9 3c 0c 01 33 3d
       0.03209814 -0.015915733 0.024648992 0.04370217
000300 f8 35 61 bd ed 73 07 ba 61 0f 75 3d c0 fa df bc
       -0.05498311 -0.00051671156 0.05982912 -0.027341247
000310 1a 71 3a 3d 75 9c 04 bd 69 2d ff 3c 72 8a fc bc
       0.04551802 -0.03237577 0.031149583 -0.030827735
000320 cf 1b 0a 3d e8 9d 0c 3c 9e 88 b8 bc 15 23 a8 bc
       0.033717927 0.00858257 -0.022526082 -0.02052454
000330 a5 a9 81 3c 44 61 16 3a 72 3b cc 3d ee c0 18 bd
       0.015827963 0.00057365396 0.09972276 -0.037293367
000340 a8 df 92 3b 30 82 fb 3c e0 55 15 bd 6e 7e 9b 3c
       0.0044822283 0.030701727 -0.03645885 0.018981185
000350 8c 01 17 3d 65 b8 3b 3d 98 e2 08 bb 0d af 09 bd
       0.03686671 0.04583015 -0.0020887014 -0.033614207
000360 67 56 50 bb 1a 9d 15 3d f4 57 6d bc 60 21 55 bc
       -0.003178978 0.036526777 -0.014486302 -0.0130084455
000370 7c 29 10 bc 78 66 45 bd 62 5b 9c 3d 18 3f 3e 3d
       -0.008798953 -0.048193425 0.076346174 0.04644689
000380 97 b0 70 3c 08 a6 8d bd b4 d0 d9 3b c8 c7 10 3c
       0.01469054 -0.069164336 0.006647194 0.008836694
000390 49 32 d3 39 42 1b c3 bc ec 12 fc 3c 25 13 b7 3b
       0.00040282522 -0.023816708 0.030770741 0.005586999
0003a0 7e 1e 83 ba c9 61 9a bc 5a 0e 2d bd 9a 1e a0 bd
       -0.0010003594 -0.018845456 -0.042250015 -0.07818337
0003b0 fc fb 82 3d 6a 4f 1b bb 6f 63 fe 3c 46 e0 a4 3b
       0.063957185 -0.0023698458 0.031053273 0.0050316183
0003c0 32 2c d6 bc 14 8d 3e 3a 01 f1 3f 3d aa fa 60 bc
       -0.02614412 0.0007268947 0.0468607 -0.013731638
0003d0 ff 52 e1 bc 5f e2 b3 bc e0 37 ce 3b b4 3c c6 3c
       -0.027505396 -0.021958528 0.006293282 0.024198867
0003e0 22 70 86 bc a2 bd 0d bd bd 40 32 bb 68 d6 52 3c
       -0.016410891 -0.034604676 -0.0027199232 0.012868501
0003f0 ce 53 42 bd d4 67 10 3c 05 12 82 bd e8 67 68 bd
       -0.047443204 0.008813817 -0.06351093 -0.056739718

linear1.bias f4 [800]
000000 ed a8 1a b8 57 46 de 35 ab 08 9c 35 48 6a be b7
       -3.6873786e-05 1.656076e-06 1.1625428e-06 -2.2699256e-05
000010 85 40 2e b8 80 4e a4 37 49 98 13 38 0c d9 b7 37
       -4.154492e-05 1.9586878e-05 3.5189358e-05 2.191637e-05
000020 27 02 99 b7 1b 69 af 36 9d be 54 b2 0d 13 49 b8
       -1.8240024e-05 5.2276423e-06 -1.2383365e-08 -4.7939877e-05
000030 78 29 e5 b6 f7 a0 df b7 92 d0 23 b6 7c 17 2a 38
       -6.8295594e-06 -2.6658627e-05 -2.4410297e-06 4.055303e-05
000040 f3 f9 6e b7 1e 6b bd b6 cc 09 ea 35 a7 f7 1d 8d
       -1.4244101e-05 -5.645109e-06 1.743721e-06 -4.867746e-31
000050 f2 31 06 37 e0 ef 11 b7 4e 34 13 37 f4 d8 a7 37
       7.998651e-06 -8.698524e-06 8.774061e-06 2.0008978e-05
000060 25 e3 5e 37 6b 18 06 b7 96 2f ae b6 8f 03 d6 33
       1.3285117e-05 -7.992708e-06 -5.191144e-06 9.965799e-08
000070 45 ec bd b7 9b 8a df b5 72 f1 a1 b7 3f 10 de b4
       -2.2640577e-05 -1.6655134e-06 -1.9305127e-05 -4.1362543e-07
000080 4c 65 23 b7 db 65 0a 37 7e 1e d2 37 90 09 14 37
       -9.739142e-06 8.249156e-06 2.504815e-05 8.823714e-06
000090 e4 a7 c2 34 4b bb 46 34 a3 82 cd 37 ff 02 99 b6
       3.6257472e-07 1.8508324e-07 2.4498737e-05 -4.560104e-06
0000a0 85 9f a0 36 1f d6 eb 37 75 ba 3c 38 85 d3 98 b7
       4.786942e-06 2.8113891e-05 4.4996345e-05 -1.8218308e-05
0000b0 da c7 e6 35 da 06 29 b2 d1 e1 42 37 f4 db b5 37
       1.71945e-06 -9.838653e-09 1.1615878e-05 2.1679305e-05
0000c0 ef 37 af 37 6e 81 ad 35 1f 26 03 37 a2 42 cc 36
       2.0887672e-05 1.2927173e-06 7.817084e-06 6.087431e-06
0000d0 b4 d3 2c b6 fc ea 77 37 63 a4 71 36 c1 07 7d b7
       -2.5753225e-06 1.4777059e-05 3.6007484e-06 -1.50817805e-05
0000e0 19 06 b9 37 6a 85 7e 37 03 c7 be b7 8c ff d1 36
       2.2056558e-05 1.5170643e-05 -2.2742437e-05 6.258435e-06
0000f0 62 61 02 37 2b 55 ae 37 42 96 a2 37 77 87 1b b8
       7.7712775e-06 2.0782076e-05 1.9381874e-05 -3.708104e-05
000100 6f bc ab 37 c0 69 02 37 ec 76 9c b6 df 19 ff 36
       2.0472535e-05 7.773226e-06 -4.6630066e-06 7.602604e-06
000110 a5 31 1c 38 38 df a2 34 f8 e1 83 37 97 03 4d 37
       3.7239533e-05 3.0337264e-07 1.5721642e-05 1.2219788e-05
000120 53 82 83 b6 6b 28 99 36 d8 60 e9 36 ae 37 b7 b6
       -3.919276e-06 4.5644606e-06 6.955215e-06 -5.460307e-06
000130 c6 c9 b4 b6 c1 4b 75 b6 7c e6 f5 b5 25 73 bf b7
       -5.3879075e-06 -3.655194e-06 -1.8321002e-06 -2.2822593e-05
000140 dd 34 a9 b6 a3 d8 fd b6 4b 80 42 b7 b4 5d e3 b6
       -5.0427466e-06 -7.5652074e-06 -1.1593172e-05 -6.7760357e-06
000150 2b 92 99 b7 4d 1f 83 37 39 1a 9b 37 41 66 74 b5
       -1.8307086e-05 1.5630992e-05 1.848965e-05 -9.104588e-07
000160 1b 7c 32 37 d8 94 8c b7 ab 3e 89 36 22 e2 5c 37
       1.0638522e-05 -1.6758611e-05 4.0902137e-06 1.31656725e-05
000170 23 ab db 37 31 3c 6c 37 46 66 02 36 6e 8e a3 b6
       2.6186526e-05 1.4080711e-05 1.943104e-06 -4.8743595e-06
000180 53 ae 33 b8 e2 17 ec 36 c7 9c aa b6 00 8f bc b7
       -4.2839278e-05 7.0361284e-06 -5.084646e-06 -2.2477936e-05
000190 45 84 25 b7 3a f9 85 b6 4c 43 f1 36 f7 64 c7 b6
       -9.865563e-06 -3.9927227e-06 7.190194e-06 -5.942416e-06
0001a0 40 69 94 b5 54 be 18 b5 b0 26 57 b6 e5 1e aa b7
       -1.1057491e-06 -5.6901376e-07 -3.2060016e-06 -2.0279966e-05
0001b0 d7 8a b5 b5 2c dd cc 37 b3 d5 0f b7 e8 40 6d b7
       -1.3525959e-06 2.4421686e-05 -8.57322e-06 -1.4141413e-05
0001c0 99 13 94 b7 19 d3 b7 b6 42 19 11 36 da 3d 05 b8
       -1.76521e-05 -5.4784e-06 2.1621386e-06 -3.1767275e-05
0001d0 6b 5c 71 37 2f d1 79 38 ca 8d a9 b7 09 5f f8 b6
       1.4386237e-05 5.9561044e-05 -2.0212396e-05 -7.4020395e-06
0001e0 a5 49 8f 37 3b 73 2a 36 a8 a0 b1 37 cb ac 9e b6
       1.7081222e-05 2.5399047e-06 2.1174856e-05 -4.7288827e-06
0001f0 a6 8b c4 b6 0b 6d 35 b5 67 45 dd b6 17 a9 68 b7
       -5.8575124e-06 -6.758643e-07 -6.5943927e-06 -1.3867647e-05
000200 a6 eb 5c b4 e3 6a 04 36 d8 86 51 2c 1a bd de b6
       -2.0574825e-07 1.973175e-06 2.977554e-12 -6.63813e-06
000210 88 9d cf 34 c2 c0 6b b7 ca 5d ca b6 20 0f 05 38
       3.8671374e-07 -1.4051971e-05 -6.0309876e-06 3.1723757e-05
000220 6c 6a 53 b7 cc 72 81 36 af 77 59 37 83 ad a4 b6
       -1.2601358e-05 3.8578637e-06 1.2962074e-05 -4.9077803e-06
000230 89 29 1e 37 12 44 a1 37 c7 cd 24 b7 c4 8d f6 b6
       9.4272045e-06 1.9224393e-05 -9.823073e-06 -7.347875e-06
000240 13 98 02 38 77 56 a5 b7 19 b2 57 35 db cc 88 36
       3.1136045e-05 -1.9709796e-05 8.035291e-07 4.076964e-06
000250 80 b2 9c b6 8e ca 3b b8 bd 7d 19 37 3a 51 2d 38
       -4.6699424e-06 -4.4772918e-05 9.148786e-06 4.1322062e-05
000260 d3 8e ff 37 62 2a 1e b7 2b 91 cd b6 8b 30 4a 37
       3.0464877e-05 -9.427402e-06 -6.126376e-06 1.20514405e-05
000270 b9 51 b9 35 73 03 29 b7 b0 a2 5c b6 c1 19 47 33
       1.3807359e-06 -1.0073988e-05 -3.2877251e-06 4.635672e-08
000280 38 b3 38 35 db a8 3d b8 da ab 28 37 c7 fd ad b7
       6.880614e-07 -4.521837e-05 1.0053593e-05 -2.0741381e-05
000290 7b eb db b7 9e 99 13 b7 74 78 1e b7 a1 39 84 36
       -2.6216489e-05 -8.79765e-06 -9.445579e-06 3.9406154e-06
0002a0 bf a3 58 b6 22 86 d5 37 05 a1 16 b7 87 a5 b9 36
       -3.228182e-06 2.545404e-05 -8.978187e-06 5.5326996e-06
0002b0 b0 74 ef b7 2f f4 c0 36 b0 4a 79 b7 97 05 4d 37
       -2.8545357e-05 5.7504726e-06 -1.4858946e-05 1.2220254e-05
0002c0 f9 8b 82 36 98 ca 8d 37 58 e9 e6 b4 e0 68 59 b2
       3.890597e-06 1.690285e-05 -4.3010618e-07 -1.2654908e-08
0002d0 cc 04 ad 35 2c bd 80 b6 57 4f b2 37 bd 59 7a b6
       1.28909e-06 -3.8367198e-06 2.1256199e-05 -3.7305138e-06
0002e0 e5 7d 86 37 1d 0c d3 b6 80 50 98 b7 73 2e d3 37
       1.6032669e-05 -6.2897e-06 -1.8157298e-05 2.517479e-05
0002f0 ee 30 35 36 76 f8 ec b7 35 59 c2 b6 0a 33 08 37
       2.6999583e-06 -2.8249091e-05 -5.7920356e-06 8.118115e-06
000300 83 a7 08 b8 52 e3 5d 36 b7 c6 3d 38 fd 0c 18 37
       -3.2580934e-05 3.3063884e-06 4.524618e-05 9.06293e-06
000310 82 31 df b7 4b 49 c4 36 a9 3a cd b7 4a fe 1c 38
       -2.6606725e-05 5.8497876e-06 -2.446522e-05 3.7430123e-05
000320 0f 3c 5d 37 02 ca b7 35 f7 19 9e b5 1b 37 1b b8
       1.318661e-05 1.3693355e-06 -1.1779474e-06 -3.70062e-05
000330 50 f7 4e b6 a1 dc dc 36 da 98 02 b7 e1 9e 2b 37
       -3.0840347e-06 6.5821955e-06 -7.784192e-06 1.0229386e-05
000340 67 aa 54 37 96 26 61 36 e0 5a be b6 f3 75 33 b8
       1.267586e-05 3.3550073e-06 -5.6730205e-06 -4.2786774e-05
000350 41 ae 9c 36 4e 6b ab b7 45 95 85 37 38 07 6f b6
       4.669448e-06 -2.0434756e-05 1.5924345e-05 -3.5617977e-06
000360 7a fc 80 b7 14 3e d3 b6 1d 5b 2b b8 73 1f 2a 37
       -1.5376358e-05 -6.295517e-06 -4.0854433e-05 1.0140112e-05
000370 56 b5 21 b7 ce 4c 85 b7 fc 6e a2 37 61 16 51 35
       -9.638568e-06 -1.58906e-05 1.9363586e-05 7.789113e-07
000380 81 d0 42 b7 0f 84 2a b7 48 a3 68 b6 71 95 a7 37
       -1.1611847e-05 -1.0163537e-05 -3.4665736e-06 1.997754e-05
000390 82 46 c8 b6 c1 62 1b b7 18 9f a1 37 df 31 d3 b7
       -5.9686727e-06 -9.261713e-06 1.926678e-05 -2.5176383e-05
0003a0 36 ab bb 37 64 67 3a b6 8b 04 11 b7 d4 3b da b7
       2.2371863e-05 -2.777634e-06 -8.643731e-06 -2.6015485e-05
0003b0 42 76 9b b7 eb b4 32 36 86 86 4f 38 0c 07 a4 b7
       -1.8532508e-05 2.6629375e-06 4.947793e-05 -1.9553605e-05
0003c0 22 ef fe b7 41 d4 92 b6 8b d5 06 b8 fd c8 fd b6
       -3.0390514e-05 -4.3758487e-06 -3.2146967e-05 -7.5633857e-06
0003d0 4b a3 00 b7 ad 41 ad b7 0c ec 1e 38 d0 e6 11 b8
       -7.667414e-06 -2.065379e-05 3.788997e-05 -3.4785655e-05
0003e0 62 8b a3 35 d8 c0 bf 35 8f e9 c9 36 c5 6f 4b b7
       1.2185012e-06 1.4286734e-06 6.0174566e-06 -1.2125766e-05
0003f0 28 e9 14 34 00 f2 b1 b6 41 bc b3 36 3c b2 3c b6
       1.3868396e-07 -5.3031836e-06 5.3565313e-06 -2.811793e-06

bn1.weight f4 [800]
000000 16 44 d4 3e b7 90 28 3e 38 01 86 3e c9 a3 a9 3e
       0.41458195 0.16461454 0.26172805 0.3313277
000010 eb d8 ba 3e c3 59 9d 3e 25 a9 69 3e c2 af b5 3e
       0.3649362 0.30732545 0.2281843 0.35485655
000020 64 a2 7f 3e fa bd c6 3e 81 11 b3 3a fc 43 df 3e
       0.24964291 0.38816816 0.0013661833 0.43606555
000030 4b 2e 25 3e dc 9b d3 3e 6b 5b f0 3e a2 f8 cc 3e
       0.1613094 0.4132985 0.46944746 0.40033442
000040 24 59 c4 3e 0c ef a6 3e 2e 1e 05 3e 80 7f 2f ba
       0.3834926 0.32604253 0.12999794 -0.0006694719
000050 fe 34 98 3e f5 56 95 3e a1 f4 7c 3e 1f 34 d8 3e
       0.2972793 0.29167905 0.24702694 0.42227265
000060 75 d9 df 3e f0 4b a1 3e 14 04 d8 3e a8 71 28 3e
       0.43720594 0.31503248 0.4219061 0.16449606
000070 b8 aa a6 3e c1 f6 85 3e e3 34 b4 3e eb ee 9a 3e
       0.32552123 0.2616482 0.351966 0.30260405
000080 5a e6 ad 3e 35 ef 8e 3e d0 00 cf 3e 45 a7 e2 3e
       0.33964807 0.27916875 0.40430307 0.44268242
000090 5e 52 e5 3e 15 a7 fe 3e 0a 21 f6 3e 5f 70 a0 3e
       0.44789404 0.49736848 0.48072082 0.31335732
0000a0 8d 03 e1 3e aa ed fa 3e ab b3 dd 3e 9c 4f f6 3e
       0.43948022 0.49009448 0.43301138 0.48107612
0000b0 5a 49 9b 3e 8e 81 ec b7 45 c9 ce 3e 1f b5 ce 3e
       0.303294 -2.8193721e-05 0.4038793 0.4037256
0000c0 35 36 0b 3f 63 0e e6 3e 7d 3e 1f 3e ac 0c d2 3e
       0.5437959 0.4493285 0.15551181 0.41025293
0000d0 ad 00 90 3e b3 a8 bb 3e f1 42 f0 3e 1c 8c fc 3e
       0.28125516 0.36652145 0.46926072 0.49325645
0000e0 0a a8 eb 3e 85 7e dc 3e 6d 18 fa 3e 1a 94 d0 3e
       0.4602664 0.43065277 0.4884676 0.40737993
0000f0 4c 67 b6 3e 54 33 98 3e 6b f3 c9 3e f7 23 ca 3e
       0.35625684 0.2972666 0.39443526 0.39480564
000100 21 c4 82 3e 28 2e ac 3e c4 96 94 3e c7 ac b3 3e
       0.2554026 0.33628964 0.29021275 0.35092756
000110 dd f6 db 3e f9 2d 97 3e b9 26 d3 3e 1c fa db 3e
       0.4296178 0.29527262 0.4124048 0.42964256
000120 ee 6b da 3e f1 65 ef 3e 6e 6c c9 3e a9 71 c2 3e
       0.4266047 0.46757463 0.39340538 0.3797734
000130 cc 18 6f 3e a1 f5 ed 3e f3 e1 d2 3e be 18 51 3e
       0.23349303 0.46476462 0.4118801 0.20419595
000140 e7 c3 93 3e 44 1c d8 3e d8 17 f8 3e 67 88 e3 3e
       0.288604 0.42209065 0.4845569 0.44440004
000150 86 45 da 3e b9 33 a7 3e 0e cf 94 3e ba 20 54 3e
       0.42631167 0.3265665 0.2906422 0.20715609
000160 8c 0d 6c 3e 58 5f dc 3e 88 ff bf 3e b8 a3 ae 3e
       0.23052043 0.43041492 0.37499642 0.34109282
000170 6b 1d 8e 3e db b3 e6 3e 1d d5 d8 3e 92 3d ea 3e
       0.2775682 0.45059094 0.42350093 0.457501
000180 9f 2f b2 3e 2c b5 af 3e d0 6b cb 3e cc fc 00 3f
       0.34801957 0.3431791 0.39730692 0.5038574
000190 37 aa b0 3e 8d 50 f7 3e 1f 1b c3 3e 8c 5d ce 3e
       0.34504864 0.48303643 0.3810663 0.40305746
0001a0 c2 3a c3 3e 33 1e 67 3e 44 68 a8 3e 68 0e b7 3e
       0.38130766 0.22570114 0.32892048 0.3575318
0001b0 12 af 71 3e ff 1f ae 3e e4 da d5 3e 24 fb 9c 3e
       0.2360194 0.34008786 0.41768563 0.30660355
0001c0 12 72 a4 3e 71 29 f9 3e f8 b0 b7 3e ce fa f6 3e
       0.3211828 0.4866443 0.35877204 0.48238224
0001d0 45 a8 6e 3e fe 41 fd 3e 4c 78 cb 3e ce b2 f0 3e
       0.23306377 0.4946441 0.39740217 0.47011417
0001e0 7c 83 bb 3e 08 e4 ca 3e fc e2 91 3e 54 15 c7 3e
       0.36623752 0.396271 0.28493488 0.3888346
0001f0 3d 9f d5 3e db 4c ed 3d 6d 79 6f 3e 3d b3 96 3e
       0.41723052 0.11586925 0.23386164 0.29433623
000200 50 da dd 3e 1e 9f 43 3e 5d 8b a0 3c 0a ce ac 3e
       0.43330622 0.19103667 0.019597704 0.33750945
000210 b3 a1 25 3e 23 69 80 3e 0f 33 70 3e 70 91 ef 3e
       0.16174965 0.25080213 0.23456977 0.46790648
000220 3b 9e 02 3f fa 85 be 3e 07 39 c1 3e 3e 4e e3 3e
       0.5102269 0.3721159 0.3773882 0.44395632
000230 a0 76 81 3e 2a 0b d3 3e 0a b2 7a 3e 08 7a be 3e
       0.25285816 0.41219455 0.24481979 0.37202477
000240 3e 1b cf 3e 21 4a cd 3e 94 a5 4e 3e aa f2 94 3e
       0.40450472 0.40095618 0.2018035 0.29091388
000250 00 4e d0 3e 70 8c da 3e b8 ba d3 3e a8 21 ce 3e
       0.4068451 0.4268527 0.41353393 0.40260053
000260 44 4d bb 3e 96 27 c1 3e 3a 1e 02 3f d2 7f c6 3e
       0.36582386 0.37725514 0.5082737 0.38769394
000270 ec 9f 93 3e 6b 32 dc 3e 4f 70 d4 3e 2d 15 e1 3c
       0.28832948 0.43007216 0.41491935 0.027475918
000280 0e 67 92 3e df 17 d8 3e ce 15 bb 3e f8 ca eb 3e
       0.2859425 0.42205712 0.36540073 0.4605329
000290 61 25 ba 3e 63 d4 ae 3e 33 4e a3 3e 17 4a fa 3e
       0.36356643 0.34146413 0.318956 0.4888465
0002a0 3e 09 ac 3e 9b 1e d9 3e 1e b6 bd 3e 53 ed e5 3e
       0.336008 0.42406163 0.37053007 0.44907627
0002b0 1b 5e ea 3e 48 a8 f6 3e 5d 5d c4 3e 99 04 9d 3e
       0.45774922 0.48175263 0.3835248 0.3066757
0002c0 a2 e3 96 3e f6 8d c8 3e 06 de 2d 3e 83 54 7c 3e
       0.29470545 0.39170808 0.16979226 0.24641614
0002d0 fa c9 eb 3e 3c 35 9f 3e 03 6d ca 3e 0c 83 90 3e
       0.46052533 0.31095302 0.39536294 0.2822498
0002e0 0a 1c 02 3f a8 fd 02 3e 70 80 fd 3e 89 64 ed 3e
       0.50824034 0.12792075 0.49512053 0.46365765
0002f0 b8 d8 19 3e 28 ca de 3e 49 f1 b2 3e 88 dc d0 3e
       0.15024078 0.43513608 0.3494971 0.40793252
000300 a3 76 f3 3e bc e4 b1 3e 0a 51 db 3e 86 76 2d 3e
       0.4755145 0.34744823 0.42835265 0.16939744
000310 b6 a7 b6 3e e3 03 db 3e 86 26 d2 3e 09 34 dc 3e
       0.35674828 0.42776403 0.41045016 0.4300845
000320 25 15 bd 3e 95 51 9d 3e 3d 92 9f 3e cb 34 ae 3e
       0.36930194 0.30726305 0.31166258 0.34024653
000330 af 43 bd 3e 4d bb ab 3e 50 44 f9 3e 60 39 ab 3e
       0.369657 0.33541337 0.4868493 0.3344221
000340 21 01 b3 3e 2c fc b5 3e 20 31 dd 3e ae 64 cd 3e
       0.349618 0.35543954 0.43201542 0.40115875
000350 47 89 9e 3e f7 53 de 3e 67 78 bf 3e 8a 77 bc 3e
       0.3096411 0.43423435 0.37396547 0.3680995
000360 ca 5e a3 3e 72 e7 db 3e 7c 49 f8 3e 14 3c 98 3e
       0.31908256 0.42950016 0.48493564 0.29733336
000370 e3 e6 66 3e 89 24 c2 3e 5e 60 f0 3e d1 39 a1 3e
       0.22549014 0.379185 0.46948522 0.31489423
000380 4d 68 d2 3e d3 8b bd 3e 4a d2 ae 3e 39 2d e6 3e
       0.410952 0.3702074 0.34144813 0.44956377
000390 f7 fd 46 3e 8e 54 46 3e 16 d8 c6 3e cf 5b f7 3e
       0.19432817 0.19368193 0.38836735 0.48312232
0003a0 cf 13 ca 3e 1d d8 97 3e 71 c5 81 3e 33 3d ea 3e
       0.39468238 0.2965707 0.25345948 0.45749816
0003b0 1b 59 f4 3e 27 d2 bf 3e cd 0a e7 3e 24 05 b9 3e
       0.47724232 0.3746502 0.45125428 0.36136734
0003c0 ae d5 e1 3e 2d 7f 1f 3e ae 0a ed 3e 0d 28 62 3e
       0.44108337 0.15575857 0.4629721 0.2208559
0003d0 89 05 af 3e 3d ba c3 3e 83 51 ec 3e 25 07 fb 3e
       0.3418391 0.38228026 0.46155939 0.49028888
0003e0 8b 18 47 3e 89 4f ce 3e 98 c2 ad 3e 5e ce b2 3e
       0.19442956 0.40295056 0.33937526 0.3492307
0003f0 94 33 bf 3d d3 ff c6 3e e4 32 f9 3e 98 32 b3 3e
       0.093360096 0.38867053 0.4867164 0.34999537

bn1.bias f4 [800]
000000 6e 5c 78 be c7 74 82 be f1 f0 81 be 82 c7 44 be
       -0.24254009 -0.2547972 -0.25379136 -0.19216731
000010 68 60 81 be 91 68 5e be 57 7f 2d be 49 ff 50 be
       -0.25268865 -0.21719576 -0.16943108 -0.20409884
000020 8a ab 30 be c4 ef 8b be 08 ce a1 3b 51 d6 3f be
       -0.17252937 -0.27331364 0.004937891 -0.18734099
000030 fd 37 29 be 71 4b 9e be a6 e7 c0 be 37 c7 9d be
       -0.16525264 -0.30916932 -0.37676734 -0.3081605
000040 51 97 6b be 87 38 75 be 61 2e 53 be 6e 25 13 bc
       -0.23006941 -0.23947345 -0.20623161 -0.008981092
000050 3c bf 6a be 87 80 54 be 29 45 28 be 28 52 83 be
       -0.22924513 -0.20752154 -0.16432633 -0.25648618
000060 f2 a6 76 be cb 91 52 be c5 1f 3e be 23 9b 60 be
       -0.24087122 -0.20563428 -0.18566807 -0.2193418
000070 dc 52 69 be 95 05 c7 bd 56 05 29 be 52 f1 4c be
       -0.22785515 -0.097178616 -0.16505942 -0.20013931
000080 be f5 4c be 1d 2a 1c be 7c c4 6d be 35 d2 86 be
       -0.20015618 -0.1525044 -0.23219484 -0.2633225
000090 23 ab 75 be 42 72 99 be a4 bd ab be 03 d3 11 be
       -0.23991065 -0.29969984 -0.33543122 -0.14240651
0000a0 eb 32 44 be 23 0d 69 be 44 1b 79 be 9d 49 97 be
       -0.19160049 -0.22758918 -0.24326807 -0.2954835
0000b0 ca 8d 6b be c8 b6 60 3b d3 82 a8 be 46 92 44 be
       -0.23003307 0.0034288634 -0.3291231 -0.19196424
0000c0 69 d9 84 be 7d 99 81 be f3 bf 4b be 51 1e 76 be
       -0.2594712 -0.25312415 -0.19897442 -0.24035002
0000d0 e4 d1 6b be 3a a5 79 be c6 12 51 be 76 40 8b be
       -0.23029286 -0.24379435 -0.20417318 -0.27197617
0000e0 29 bf 69 be de af 50 be 83 07 3c be f4 a7 a1 be
       -0.22826828 -0.20379588 -0.1836224 -0.3157345
0000f0 66 cd 92 be f3 1f 62 be 76 aa 93 be 0d 4c 7b be
       -0.28672332 -0.220825 -0.2884099 -0.2454073
000100 d4 d2 6d be 4f 75 5b be 75 fa 60 be ad fe ce bd
       -0.23224956 -0.21431468 -0.21970542 -0.10107169
000110 22 f5 81 be ee a5 30 be 71 4e 2e be dd 2c 7f be
       -0.25382334 -0.17250797 -0.1702211 -0.24919458
000120 3a 7b 97 be 08 67 17 be e1 f7 96 be ad 32 ad be
       -0.29586202 -0.14785397 -0.29485992 -0.33827725
000130 ab 8f 60 be a5 00 86 be 38 45 d7 be f0 91 64 be
       -0.21929805 -0.26172367 -0.42044997 -0.22321296
000140 82 d4 2f be 2d 27 86 be 1d 5c 74 be 8d 90 55 be
       -0.17170909 -0.26201764 -0.23863263 -0.20855923
000150 92 fd 6f be 1b 71 86 be 6d 4f 29 be eb 7e 17 be
       -0.23436573 -0.26258168 -0.16534205 -0.14794509
000160 be 70 0b be 8c 35 54 be 53 3e 71 be a0 86 a3 be
       -0.13617226 -0.20723552 -0.23558931 -0.31938648
000170 71 1c 5d be 30 01 53 be b9 bc a5 be c1 75 31 be
       -0.21592881 -0.20605922 -0.32370546 -0.17330076
000180 5f f4 50 be ed 53 5a be 5a 51 8c be 2f 2e a6 be
       -0.2040572 -0.21321078 -0.27405816 -0.3245711
000190 bb 4a 53 be 47 3a ab be c5 48 7e be d3 b7 65 be
       -0.20633976 -0.334429 -0.24832447 -0.22433405
0001a0 5e 1b 2e be 7d b2 23 be 6f fe 36 be 61 1c 4e be
       -0.17002627 -0.15986057 -0.17870496 -0.20128013
0001b0 e7 f9 35 be 4c ed 60 be 37 c7 6a be ee 3e 74 be
       -0.17771111 -0.21965522 -0.22927557 -0.23852131
0001c0 96 86 25 be 5f 76 8e be 01 74 01 be 36 58 42 be
       -0.16164622 -0.27824685 -0.12641908 -0.18978962
0001d0 76 b1 28 be ec 92 81 be 2d 97 69 be 36 b4 a2 be
       -0.16473946 -0.25307405 -0.22811575 -0.31778115
0001e0 4f 7e 22 be 4a 69 6a be d6 d1 6a be fd cb 95 be
       -0.15868495 -0.22891727 -0.22931609 -0.29257193
0001f0 00 72 81 be bc e3 31 be 69 a8 6f be 65 4b 84 be
       -0.25282288 -0.1737203 -0.23404087 -0.2583877
000200 cb 77 e7 bd 9f dd 76 be 2f 95 b2 bd 39 72 4f be
       -0.113021456 -0.24107979 -0.08719861 -0.20258416
000210 53 34 2a be b4 d4 14 be 29 3d 5d be b2 39 03 be
       -0.16621523 -0.14534265 -0.21605362 -0.12814978
000220 e9 f8 7e be a1 fe 8d be 6f e8 5c be cb fb 98 be
       -0.24899639 -0.2773333 -0.21573041 -0.29879603
000230 4b 9d 61 be 7b 9e 0d be 01 e5 6e be 54 ad 58 be
       -0.22032659 -0.13829987 -0.23329546 -0.2115987
000240 08 d0 b6 be df 23 87 be 58 4e 88 be 48 32 8e be
       -0.3570559 -0.26394555 -0.26622272 -0.27772737
000250 a6 77 55 be e5 46 80 be 99 49 93 be 6f 41 41 be
       -0.20846424 -0.25054088 -0.28767088 -0.18872617
000260 18 8f 90 be 8a 7b 84 be 9d 51 7d be 0e b5 0c be
       -0.28234172 -0.25875503 -0.24738164 -0.13740942
000270 f4 99 2b be 8a 42 35 be 71 78 2e be b0 78 7d bd
       -0.16757947 -0.17701164 -0.17038132 -0.061882675
000280 47 35 84 be f1 6c 6c be 2a 73 38 be 16 7d 4e be
       -0.25821897 -0.23088433 -0.18012682 -0.20164904
000290 c6 10 61 be c1 57 46 be 38 0d 30 be e4 51 97 be
       -0.21979055 -0.19369413 -0.17192543 -0.29554665
0002a0 00 70 7b be 6f 46 30 be 18 87 43 be 5d 0e 80 be
       -0.24554443 -0.17214368 -0.19094503 -0.25010958
0002b0 2a 52 72 be 62 be a1 be 33 c3 7c be e1 be 81 be
       -0.23664156 -0.31590563 -0.24683838 -0.25340942
0002c0 a4 d4 4c be a5 eb 45 be b3 04 9b be 58 f5 20 be
       -0.20002991 -0.19328173 -0.30277023 -0.15718591
0002d0 f0 29 9d be 3b a6 4e be 49 17 94 be 13 32 05 be
       -0.30696058 -0.201806 -0.28924015 -0.13007383
0002e0 8c 63 5c be 0c 44 29 be 0a f7 ad be b2 61 5a be
       -0.21522349 -0.16529864 -0.33977538 -0.2132633
0002f0 53 ed 23 be 97 19 a8 be 3e 72 04 be ca e0 33 be
       -0.16008501 -0.32832024 -0.12934205 -0.17566219
000300 31 1f 80 be 7e bc 64 be 19 fd 69 be 45 56 70 be
       -0.25023797 -0.22337529 -0.22850455 -0.23470409
000310 ab b7 6e be e9 36 95 be 23 d2 1f be 54 21 4c be
       -0.23312251 -0.29143456 -0.15607505 -0.19934589
000320 29 e1 0b be 7c 94 77 be 5d 52 81 be b0 a1 48 be
       -0.1366011 -0.24177736 -0.2525815 -0.19592929
000330 d6 75 67 be 13 89 d0 bd 08 f0 81 be 65 ad 40 be
       -0.22603545 -0.10182395 -0.25378442 -0.18816145
000340 e6 a3 5f be 10 3b 5a be b3 ee 88 be ef 49 75 be
       -0.21839866 -0.21311593 -0.26744613 -0.23953985
000350 f2 98 86 be ff 10 73 be e4 27 6c be 30 34 63 be
       -0.26288563 -0.23736952 -0.23062092 -0.22187877
000360 70 3e 4b be 81 96 4f be 20 be a1 be b4 7b 8f be
       -0.19848037 -0.20272256 -0.31590366 -0.28024065
000370 5d 0a 7f be 0b bb 36 be 04 18 9d be f3 c6 68 be
       -0.24906297 -0.17844789 -0.30682385 -0.22732143
000380 8f 09 37 be 72 8e 54 be 72 a6 82 be ee 16 9c be
       -0.1787474 -0.20757464 -0.25517613 -0.30486244
000390 0d 3d 82 be f4 1c 26 be 21 72 05 be 00 22 a4 be
       -0.25437203 -0.16221982 -0.13031818 -0.3205719
0003a0 04 20 4a be 55 27 7b be 3c 54 90 be 3c 40 89 be
       -0.19738775 -0.24526723 -0.28189266 -0.2680682
0003b0 84 ce 84 be 42 8a 5a be 87 85 48 be ef 31 85 be
       -0.2593881 -0.21341804 -0.19582187 -0.2601466
0003c0 76 e7 9a be 39 da 12 be 67 bc 7b be de 9b 7a be
       -0.30254716 -0.14341058 -0.24583589 -0.24473521
0003d0 78 e8 75 be 1b 31 3b be 51 b9 3c be 9b 52 2b be
       -0.24014461 -0.18280451 -0.18430068 -0.1673073
0003e0 ff 48 63 be 1b 4c 49 be 75 fc 16 be 95 52 68 be
       -0.22195815 -0.19657938 -0.14744742 -0.22687753
0003f0 89 59 20 be 9c e0 6e be 2b 47 6a be d1 01 6c be
       -0.15659155 -0.23327869 -0.22878711 -0.23047568
