models/NFM_layer_2_20/from_train_mean/MLP610.pt (torch, 624200 bytes, 26 tensors)

bi_BN.weight f4 [10]
0	0x3e10d98c	0.14145488
1	0x3e258a0f	0.16165946
2	0x3e022210	0.12708306
3	0x3db84af7	0.089986734
4	0x3e3611b9	0.17780198
5	0x3e3b9c05	0.18321235
6	0x3e14984a	0.14511219
7	0x3e1e3ea0	0.15453577
8	0x3d1d8e09	0.038465533
9	0x3e1f9914	0.15585738

bi_BN.bias f4 [10]
0	0x3741030e	1.1504408e-05
1	0xb685db37	-3.989229e-06
2	0xb7595f8e	-1.2956456e-05
3	0x368c38fc	4.178959e-06
4	0xb78b130f	-1.6578966e-05
5	0x3714bda3	8.865641e-06
6	0xb71d9aef	-9.3940025e-06
7	0x36e73da6	6.8915133e-06
8	0x36c60c28	5.902275e-06
9	0xb629c607	-2.529823e-06

bi_BN.running_mean f4 [10]
0	0x448634cb	1073.6498
1	0x44a22508	1297.1572
2	0x449351f0	1178.5605
3	0x44b22468	1425.1377
4	0x44a006bc	1280.2104
5	0x447cb3ee	1010.8114
6	0x44a2ce82	1302.4534
7	0x44c2a9fe	1557.3123
8	0x44921c39	1168.882
9	0x44a510fc	1320.5308

bi_BN.running_var f4 [10]
0	0x4ac06e42	6.305569e+06
1	0x4ae440aa	7.479381e+06
2	0x4b056c1d	8.743965e+06
3	0x4af7a91c	8.115342e+06
4	0x4b2b64bb	1.1232443e+07
5	0x4abecdf5	6.2522825e+06
6	0x4b220c27	1.0619943e+07
7	0x4b36833d	1.1961149e+07
8	0x4af1036b	7.8975255e+06
9	0x4b12bb62	9.616226e+06

BN_num.weight f4 [135]
0	0x3f239634	0.63901067
1	0x3f4b2aef	0.79362386
2	0x3f623668	0.8836427
3	0x3f365064	0.71216416
4	0x3f59d09e	0.8508395
5	0x3f55339c	0.83281875
6	0x3f75d423	0.9602682
7	0x3de187af	0.11012208
8	0x3f4466a0	0.76719093
9	0x3f2900af	0.6601667
10	0x3f6bf1ae	0.9216565
11	0x3f2ecdbd	0.6828268
12	0x3f4c2545	0.7974437
13	0x3f546997	0.8297362
14	0x3eeae6bb	0.45879158
15	0x3f4ed34b	0.8079116
16	0x3f2fe2e4	0.6870558
17	0x3f026e49	0.5094953
18	0x3f6b0c22	0.9181539
19	0x3eec37d5	0.46136346
20	0x3f403b85	0.7509082
21	0x3f696c88	0.9118123
22	0x3f37f373	0.7185585
23	0x3f587d76	0.8456644
24	0x3f2b706b	0.6696841
25	0x3f5e567b	0.8685071
26	0x3f279387	0.65459484
27	0x3f007800	0.50183105
28	0x3f359069	0.7092348
29	0x3f6f6abb	0.9352223
30	0x3f193410	0.59845066
31	0x3e6d1e77	0.23156153
32	0x3f29f199	0.66384274
33	0x3f2cd7d0	0.67516804
34	0x3f228517	0.6348433
35	0x3f627167	0.8845429
36	0x3f390301	0.7227021
37	0x3f371e1e	0.7153033
38	0x3e94825b	0.29005703
39	0x3f6c7ed4	0.92381024
40	0x3f56ef60	0.8395901
41	0x3f1c0152	0.60939515
42	0x3f36dd9e	0.7143191
43	0x3f57744c	0.8416183
44	0x3f1dabeb	0.6159045
45	0x3f43ba8c	0.7645652
46	0x3f3322c3	0.6997492
47	0x3f267ef6	0.65037477
48	0x3f41156f	0.7542333
49	0x3f5d26e6	0.8638748
50	0x3f5023e3	0.8130476
51	0x3f5522fe	0.8325652
52	0x3f4877d1	0.78307825
53	0x3f4a6778	0.7906413
54	0x3f3d530a	0.7395483
55	0x3f40f5f0	0.7537527
56	0x3f0708be	0.52747715
57	0x3f378651	0.71689326
58	0x3f2ae31f	0.6675281
59	0x3f616ad8	0.88053656
60	0x3f685cd3	0.9076664
61	0x3f40fd5a	0.75386584
62	0x3f4b8b89	0.7950979
63	0x3f0ca07a	0.5493237
64	0x3ef9b999	0.48774412
65	0x3f785f84	0.97020745
66	0x3f37a5d9	0.7173744
67	0x3ef81a2c	0.48457468
68	0x3f43c107	0.7646641
69	0x3f557a6e	0.8338994
70	0x39cf0073	0.0003948245
71	0x3f6f8518	0.9356246
72	0x3f4d4e6b	0.8019778
73	0x3f19870a	0.5997168
74	0x3f2c1da7	0.67232746
75	0x3f14020d	0.5781563
76	0x3f10f65a	0.566259
77	0x3f547a6a	0.8299929
78	0x3f3a682a	0.7281519
79	0x3f802397	1.0010861
80	0x3f2c932d	0.6741207
81	0x3eead66a	0.4586671
82	0x3f71e95c	0.94496703
83	0x3f0a0be0	0.5392437
84	0x3f412f52	0.7546283
85	0x3f43919d	0.76394063
86	0x3f62949c	0.8850801
87	0x3f47876e	0.77941024
88	0x3f33776b	0.7010409
89	0x3f6499ba	0.8929707
90	0x3f35c5cc	0.7100494
91	0x3eee53dc	0.46548355
92	0x3f16dd82	0.58931744
93	0x3f2a4ddb	0.6652505
94	0x3f18c23d	0.59671384
95	0x3f3ad7d8	0.729856
96	0x3ef12900	0.47101593
97	0x3f34c94d	0.7061966
98	0x3f4ebb64	0.80754685
99	0x3f292ecb	0.66087025
100	0x3f630bb3	0.88689727
101	0x3f5a3919	0.85243374
102	0x3f5bd72a	0.8587519
103	0x3f1d87c3	0.6153528
104	0x3f160051	0.5859423
105	0x3f5af7c6	0.8553432
106	0x3f345f08	0.70457506
107	0x3f5a03a9	0.85161835
108	0x3f5f6996	0.87270486
109	0x3f30b0d5	0.69019824
110	0x3f45d0d5	0.7727178
111	0x3f70bc48	0.94037294
112	0x3f60883c	0.8770788
113	0x3f120dc0	0.5705223
114	0x3f2cfeec	0.6757648
115	0x3f350a28	0.7071862
116	0x3f365137	0.71217674
117	0x3f18190e	0.5941323
118	0x3f420863	0.7579405
119	0x3f492fe9	0.7858873
120	0x3f68b55f	0.9090175
121	0x3f5a8986	0.85366094
122	0x3f562e58	0.83664465
123	0x3f40b34e	0.752736
124	0x3f0c74d2	0.54865754
125	0x3f171e46	0.5903057
126	0x3f382886	0.71936834
127	0x3f2d45dc	0.6768472
128	0x3f802c10	1.0013447
129	0x3f1c561b	0.61068887
130	0x3f530f35	0.8244508
131	0x3eea5d22	0.4577418
132	0x3eaaeabe	0.3338222
133	0x3f537639	0.8260227
134	0x3f086103	0.5327303

BN_num.bias f4 [135]
0	0xb70b9261	-8.319127e-06
1	0xb77f49dd	-1.5216382e-05
2	0xb67b615e	-3.745859e-06
3	0x371618b1	8.946446e-06
4	0x36352a3f	2.6995692e-06
5	0x37d5b525	2.547593e-05
6	0x384e8eda	4.9247268e-05
7	0x36ebee37	7.0312776e-06
8	0x36c374ed	5.825065e-06
9	0xb70585eb	-7.958598e-06
10	0xb72cf21c	-1.0308369e-05
11	0xb5449a6e	-7.3240415e-07
12	0xb7ae72d1	-2.0795882e-05
13	0xb88bf0ec	-6.672912e-05
14	0xb7f81df2	-2.9577848e-05
15	0xb76b6e2e	-1.4032745e-05
16	0x37ec9a08	2.8205119e-05
17	0x3818f523	3.6467925e-05
18	0xb79fb2b5	-1.9037494e-05
19	0xb6a8afd8	-5.027261e-06
20	0xb701831e	-7.719527e-06
21	0x382c43de	4.1071202e-05
22	0x370ca604	8.383304e-06
23	0x3724a285	9.813001e-06
24	0xb7cff091	-2.4788345e-05
25	0xb6b3b931	-5.356175e-06
26	0xb6d1fe51	-6.2582917e-06
27	0xb59f7de0	-1.1883058e-06
28	0xb7982cea	-1.8140727e-05
29	0xb72fe1b2	-1.0483362e-05
30	0xb731f9eb	-1.0608211e-05
31	0x34614aa3	2.098191e-07
32	0xb71df3ef	-9.414724e-06
33	0x37ea7784	2.7950628e-05
34	0x374abb61	1.2083766e-05
35	0xb86b6d9b	-5.6130444e-05
36	0xb745438b	-1.1757841e-05
37	0xb7f2768f	-2.8903856e-05
38	0xb79b04e9	-1.8479726e-05
39	0x38109f18	3.4480443e-05
40	0x362d092a	2.5784343e-06
41	0xb70b61fe	-8.307861e-06
42	0x382e54ae	4.1563697e-05
43	0x368df409	4.230537e-06
44	0xb6864fce	-4.0028017e-06
45	0xb7bc12e8	-2.242015e-05
46	0xb7d9b030	-2.595046e-05
47	0xb778ae9f	-1.4822609e-05
48	0xb74ba72e	-1.2138667e-05
49	0x36747942	3.6429415e-06
50	0x37815b0d	1.5420397e-05
51	0x37af0020	2.0861684e-05
52	0xb7e76445	-2.7584038e-05
53	0x384428cb	4.6768033e-05
54	0x382935e3	4.0342926e-05
55	0x36477093	2.9718838e-06
56	0xb6ea3440	-6.979826e-06
57	0x36e129f6	6.7104074e-06
58	0x382e84b9	4.160844e-05
59	0xb5812097	-9.620734e-07
60	0x37982f8d	1.8141955e-05
61	0x370dee17	8.4596895e-06
62	0x379baddb	1.8558398e-05
63	0x37241fc1	9.782555e-06
64	0x3689280e	4.087581e-06
65	0xb69f710e	-4.7517306e-06
66	0x37950887	1.7766155e-05
67	0xb85d1e61	-5.27188e-05
68	0x37ece46d	2.8239761e-05
69	0x37a6fa47	1.9905287e-05
70	0x369d55c5	4.6889495e-06
71	0x374f2341	1.234637e-05
72	0xb53b6e2a	-6.982324e-07
73	0x37c0c6cd	2.2980757e-05
74	0x37d4e7bf	2.5380285e-05
75	0x35b65cc6	1.3587057e-06
76	0xb69741ab	-4.5077954e-06
77	0x374c0fca	1.2163024e-05
78	0xb6b82ccd	-5.488843e-06
79	0x383d81c3	4.518196e-05
80	0x36c4f1f2	5.8694213e-06
81	0x3773eaaf	1.453857e-05
82	0xb7c57d5e	-2.3542609e-05
83	0xb7c81e69	-2.3856019e-05
84	0xb68ea5e5	-4.2512424e-06
85	0xb7908888	-1.7229715e-05
86	0xb744fbe8	-1.1741162e-05
87	0xb789b90b	-1.641784e-05
88	0xb74813e5	-1.1925561e-05
89	0xb7ba4b09	-2.2207869e-05
90	0x37dd1ab3	2.6357686e-05
91	0x374b8963	1.2131731e-05
92	0xb65263c2	-3.1350505e-06
93	0xb5a475b7	-1.2253212e-06
94	0xb5d563d2	-1.5898788e-06
95	0x3638ba28	2.7526494e-06
96	0x3818ea48	3.6457815e-05
97	0x379ee468	1.8941428e-05
98	0xb80c6feb	-3.3482833e-05
99	0xb689fb12	-4.1121466e-06
100	0xb6264ee5	-2.478185e-06
101	0x373b6f25	1.1171946e-05
102	0x38570754	5.126682e-05
103	0xb74a59de	-1.2061062e-05
104	0x37650ba8	1.3652178e-05
105	0xb88c79c1	-6.698399e-05
106	0xb7904a76	-1.7200811e-05
107	0xb80b65d5	-3.323502e-05
108	0x379a08cb	1.8362325e-05
109	0x379b5cac	1.8520594e-05
110	0xb78a5ebc	-1.6494996e-05
111	0xb8452b74	-4.700893e-05
112	0xb84ab2b8	-4.8326998e-05
113	0x37a16669	1.9240384e-05
114	0xb807091b	-3.219499e-05
115	0x370f17ab	8.528975e-06
116	0xb83966c7	-4.4203156e-05
117	0xb6a0bea9	-4.7905673e-06
118	0xb7ad416f	-2.0653677e-05
119	0x37208bd6	9.569301e-06
120	0xb6d5246f	-6.352136e-06
121	0xb865ff19	-5.4835433e-05
122	0xb7f7b6f8	-2.9529896e-05
123	0xb8096204	-3.275463e-05
124	0x36de46ee	6.624373e-06
125	0x37f8e016	2.9668252e-05
126	0xb53a2902	-6.9350074e-07
127	0xb4307229	-1.6432809e-07
128	0xb70f3184	-8.534993e-06
129	0x3570e842	8.9744947e-07
130	0xb7be30af	-2.2672435e-05
131	0x37572f3f	1.2825999e-05
132	0x37ca7c1f	2.4138075e-05
133	0x363a02e2	2.7717838e-06
134	0xb6a00a77	-4.76959e-06

BN_num.running_mean f4 [135]
0	0x41046792	8.275286
1	0x40ab3b54	5.350992
2	0x40a54d9c	5.165724
3	0x40e80f44	7.2518635
4	0x40e184f3	7.047479
5	0x410ef1ea	8.934061
6	0x4100ffda	8.062464
7	0x4113bf56	9.234213
8	0x411242fc	9.141354
9	0x41062ddf	8.386199
10	0x41057cd6	8.342978
11	0x40f339ef	7.600822
12	0x41286bf8	10.52636
13	0x40ff7b91	7.983834
14	0x4136371e	11.388456
15	0x40fa3eed	7.8201814
16	0x411f3f69	9.952981
17	0x40cddfe9	6.433583
18	0x40d7a87f	6.7393184
19	0x40fce8fa	7.9034395
20	0x409ec48f	4.961494
21	0x40f73b45	7.725985
22	0x413a8fbf	11.660094
23	0x40b0b67a	5.522275
24	0x41022977	8.135123
25	0x40ca7ef5	6.3279977
26	0x40dee3b3	6.9652953
27	0x40d92a5b	6.7864203
28	0x411b920b	9.723155
29	0x40c24389	6.070744
30	0x40fe7abe	7.952483
31	0x412ab911	10.670182
32	0x40f8ebb2	7.7787714
33	0x4137d21d	11.488797
34	0x411bb21c	9.730984
35	0x40e71c42	7.2221994
36	0x40c8e035	6.277369
37	0x40e7dc67	7.2456546
38	0x40c2f79c	6.0927258
39	0x4115b587	9.356818
40	0x40d03d0f	6.5074534
41	0x4131588a	11.084116
42	0x40c8b0f3	6.2716002
43	0x41203a5c	10.014248
44	0x41105030	9.019577
45	0x41021008	8.128914
46	0x41137261	9.215425
47	0x4118d5dd	9.552213
48	0x40a9a8d3	5.3018584
49	0x411954b2	9.583178
50	0x40cad134	6.3380375
51	0x40ab5cdb	5.355085
52	0x40ad46f6	5.414912
53	0x40d86966	6.762866
54	0x40c8330a	6.2562304
55	0x410d5445	8.833074
56	0x40efa3a3	7.488725
57	0x4126a466	10.415136
58	0x40f49769	7.6434827
59	0x40a46de4	5.1384144
60	0x4107eb50	8.494949
61	0x40ea213a	7.316556
62	0x40a2b10e	5.084113
63	0x410e6b7d	8.901242
64	0x40f35d30	7.6051254
65	0x40e6766f	7.201957
66	0x40d921f1	6.785393
67	0x40f55420	7.666519
68	0x40c80663	6.2507796
69	0x410b5815	8.709004
70	0x4118c8a5	9.5489855
71	0x40a39384	5.1117573
72	0x40b2afa3	5.58394
73	0x40b91053	5.7832427
74	0x40c85779	6.260678
75	0x40fcf2c9	7.904637
76	0x40ed54d0	7.416603
77	0x40f03a28	7.507099
78	0x413b9400	11.723633
79	0x411692cb	9.410838
80	0x40e513fb	7.158689
81	0x411c9623	9.786654
82	0x40ba71a8	5.826374
83	0x41106c17	9.026389
84	0x40aa8a49	5.3293805
85	0x40e38d04	7.110964
86	0x413f9219	11.973168
87	0x40b767af	5.7314067
88	0x41144728	9.267372
89	0x4121c537	10.110648
90	0x4100fe57	8.062095
91	0x40d90185	6.7814355
92	0x40c12005	6.0351586
93	0x40ee6d7c	7.450865
94	0x411775a5	9.466222
95	0x4096542a	4.697774
96	0x4139243d	11.571347
97	0x40f03e2c	7.5075893
98	0x40b930b1	5.787194
99	0x41291bd9	10.569299
100	0x40ae761d	5.451918
101	0x409c20f7	4.879024
102	0x40e4f2f4	7.1546574
103	0x413023b3	11.008716
104	0x411ee5a4	9.931065
105	0x410dcb8e	8.862196
106	0x40d0e012	6.5273523
107	0x41073b29	8.451943
108	0x40b83e71	5.7576222
109	0x4112d407	9.1767645
110	0x40d5cae7	6.6810184
111	0x40c64b69	6.1967053
112	0x40f67cf0	7.702751
113	0x412da6ab	10.85319
114	0x40cdebc9	6.4350324
115	0x40fd43bc	7.9145184
116	0x40f39876	7.612361
117	0x41478a8c	12.471325
118	0x40e3fd72	7.124688
119	0x4118cebb	9.550471
120	0x40fb7dd5	7.8591104
121	0x410dc62f	8.860885
122	0x4111f7a2	9.122957
123	0x4118a9d0	9.541458
124	0x41579f21	13.47635
125	0x40da1bf0	6.8159103
126	0x4103f0d2	8.246294
127	0x4154cc1f	13.299834
128	0x40dc95f9	6.893307
129	0x40a6d1df	5.213119
130	0x40dddd54	6.9332676
131	0x40eac637	7.336696
132	0x4104d1f2	8.301256
133	0x40e79922	7.237443
134	0x4101cf51	8.113114

BN_num.running_var f4 [135]
0	0x3d92fcfb	0.071771584
1	0x3e2a5019	0.16632117
2	0x3e23374f	0.15939067
3	0x3f1dc5ed	0.61630136
4	0x3e6d1979	0.23154248
5	0x3e1a70a3	0.1508203
6	0x3ed88102	0.42285925
7	0x3fae8781	1.3635103
8	0x3e2c66c0	0.16836071
9	0x3f0c541b	0.54815835
10	0x3f7ec893	0.995248
11	0x3e930fe8	0.28723073
12	0x3d9ad447	0.0756002
13	0x3dfad5a8	0.12247783
14	0x3d5a18dd	0.053246368
15	0x400fe6f8	2.2484722
16	0x3ed0dec6	0.40794963
17	0x3e0eb133	0.13934784
18	0x3e2ae898	0.1669029
19	0x3dc811dd	0.09769032
20	0x3ee103da	0.4394825
21	0x3e108b2f	0.14115594
22	0x3d64c5e0	0.05585277
23	0x3d8cd276	0.0687608
24	0x3d9fb2fd	0.07797811
25	0x3ea2cfae	0.31799072
26	0x3ec4bad2	0.38423783
27	0x3d68a836	0.056801043
28	0x3ec25111	0.37952474
29	0x3d19cd6a	0.037549414
30	0x3f5d48d1	0.86439234
31	0x3daa5d1d	0.08318541
32	0x3e1ec759	0.15505733
33	0x3e76441b	0.24049418
34	0x3e6749fc	0.22586817
35	0x3ede0a82	0.43367392
36	0x3dc9cde9	0.09853727
37	0x3f64ea0f	0.89419645
38	0x3ebfa4a3	0.37430295
39	0x3ebf5427	0.3736889
40	0x3d4aebd8	0.049541324
41	0x3fd4f65a	1.663768
42	0x3ce5b8e7	0.02804227
43	0x3e35248b	0.17689721
44	0x3eb0f7b1	0.34563974
45	0x3de18c82	0.11013128
46	0x3dbf4009	0.093383856
47	0x3d68c4c6	0.056828283
48	0x3eaa657c	0.3328055
49	0x3e11ea88	0.14249623
50	0x3e4e1b89	0.20127691
51	0x3d704ccc	0.05866699
52	0x3f948737	1.1603764
53	0x3da42504	0.08014873
54	0x3e406d11	0.18791606
55	0x3da3c93d	0.079973675
56	0x3e6f5e86	0.23375902
57	0x3d4f4ac9	0.05060843
58	0x3e3ffac1	0.18747999
59	0x3d95d683	0.073163055
60	0x3e1f34c7	0.15547477
61	0x3f00991b	0.5023362
62	0x3d6d126d	0.0578789
63	0x3e3e069a	0.18557206
64	0x3d659ac8	0.056055814
65	0x3e1f05d6	0.1552957
66	0x3e05110f	0.12994789
67	0x3da0f880	0.078598976
68	0x3d4dc620	0.050237775
69	0x3e6f8f9f	0.23394631
70	0x402c004d	2.6875184
71	0x3dd55133	0.10415878
72	0x3cc3d297	0.023904128
73	0x3db1399a	0.08653565
74	0x3f3a8aa6	0.7286781
75	0x4070f791	3.7651103
76	0x3f60cff7	0.8781733
77	0x3e0fd35d	0.14045472
78	0x3d3d4a78	0.046213597
79	0x4032377c	2.7846365
80	0x3db07150	0.08615363
81	0x3fef4f35	1.8696047
82	0x3cc9b965	0.024624536
83	0x40270059	2.6093962
84	0x3d7f7996	0.062371813
85	0x3d3aca23	0.04560293
86	0x3db6cf41	0.08926249
87	0x3e4de526	0.20106944
88	0x3eba8228	0.36427426
89	0x3ffe3c6c	1.9862189
90	0x3de77a97	0.11302679
91	0x3e4297d2	0.19003227
92	0x3dd028f3	0.101640604
93	0x3e55c73b	0.20876782
94	0x3febc3d5	1.8419138
95	0x3df0a22d	0.117496826
96	0x3ddc066b	0.10743412
97	0x3ddfb8c2	0.10923912
98	0x3fe44f2b	1.783666
99	0x3d9142c3	0.07092812
100	0x3dcbe9df	0.09956717
101	0x3d96c1c5	0.07361177
102	0x3f46b3c1	0.7761803
103	0x3e56c610	0.20973992
104	0x3dc75633	0.09733238
105	0x3eddd13a	0.4332369
106	0x3d900e94	0.070340306
107	0x3f0dbef2	0.55369484
108	0x3e611a6f	0.2198274
109	0x3dccb40b	0.09995278
110	0x3e03c088	0.12866414
111	0x3e46f1a2	0.19428113
112	0x3d5fb908	0.05461982
113	0x3db9cb0a	0.0907193
114	0x3e909fb7	0.28246853
115	0x3e376fb7	0.1791371
116	0x3db36c21	0.08760858
117	0x3db79e5b	0.08965751
118	0x3f11e7ce	0.5699433
119	0x3df3dcd0	0.11907351
120	0x3fa81747	1.3132104
121	0x3ce7927b	0.02826809
122	0x3e0c0b8f	0.13676284
123	0x3fa06fc7	1.2534112
124	0x3e5cda79	0.21567716
125	0x4007a33a	2.1193376
126	0x3f15db13	0.58537406
127	0x3e386bc8	0.18009865
128	0x3e45dfa9	0.19323601
129	0x3d9f07e4	0.07765177
130	0x3d803dc6	0.06261782
131	0x405bdaff	3.4352415
132	0x3df85368	0.121252835
133	0x3f85ee14	1.0463281
134	0x3e0a8a0e	0.13529226

linear1.weight f4 [800, 135]
0	0x3d07447c	0.033024296
1	0x3d7de6f3	0.06198783
2	0x3e275a80	0.16343117
3	0x3e70d224	0.23517662
4	0xbde550fc	-0.11197087
5	0x3cc27c39	0.023740875
6	0xbdac985f	-0.084275
7	0x3cffdb71	0.031232568
8	0x3d3c7b98	0.046016306
9	0x39e8d63c	0.00044410105
10	0xbd1b0b5e	-0.037852637
11	0xbb914501	-0.0044332747
12	0xbd3780da	-0.044800617
13	0xbac2aa7d	-0.0014851835
14	0x3da030d6	0.07821815
15	0xbe26d038	-0.16290367
16	0xbdd3f8a8	-0.10350162
17	0x3de55f3e	0.11199807
18	0xbd3fb19a	-0.046800233
19	0xbdbb6873	-0.091507815
20	0xbe031a2b	-0.12802951
21	0x3d5aca29	0.05341545
22	0x3d6c553c	0.057698473
23	0xbdf07d54	-0.117426544
24	0xbd42ea37	-0.047586646
25	0xbbc23a06	-0.005927327
26	0xbdf2e800	-0.11860657
27	0xbdcb83a9	-0.099372216
28	0x3db54294	0.088505894
29	0x39d2b527	0.0004018929
30	0xbdc436e9	-0.09580786
31	0x3a8bbd96	0.0010661359
32	0x3e1f024c	0.1552822
33	0x3d38589c	0.04500638
34	0x3d35329e	0.044237725
35	0x3e1c6dbd	0.15276237
36	0x3c4ac1f4	0.012375344
37	0x3debb4ce	0.11509095
38	0xbc36a1bd	-0.01114696
39	0x3d887080	0.06662083
40	0xbbe2e8c4	-0.0069247205
41	0x39d9aa75	0.00041516466
42	0xbd30fbbb	-0.04320882
43	0x3df4ec78	0.11959165
44	0xbdcb3d92	-0.09923853
45	0xbc2b6b60	-0.010462612
46	0x3d686e88	0.056746036
47	0xbd9b2fa8	-0.07577449
48	0xbe03dfac	-0.12878293
49	0xbb8232a9	-0.0039733243
50	0x3c8d9db8	0.01728712
51	0xbdb5ad1c	-0.088709086
52	0xbcf96e38	-0.030448064
53	0xbdcf517d	-0.101229645
54	0xbd1434de	-0.03618323
55	0x3da83a9b	0.08214303
56	0xbd03f5c6	-0.03221681
57	0xbda4aaa9	-0.08040363
58	0x3da0604c	0.07830867
59	0xbd8673b1	-0.06565035
60	0xbd23f1b4	-0.040025428
61	0xbd82a2cd	-0.06378708
62	0x3d247b40	0.040156603
63	0x3d42fec6	0.047606252
64	0xbdf2ad0b	-0.118494116
65	0xbd8be9ac	-0.06831679
66	0xbda43022	-0.08016993
67	0x3da3236a	0.07965739
68	0xbd80d420	-0.0629046
69	0x3d52291d	0.05130874
70	0xbb8eb915	-0.0043555596
71	0xbda2f8cf	-0.07957613
72	0x3d0a774a	0.03380517
73	0xbc15cdf3	-0.00914334
74	0x3d980c11	0.074241765
75	0xbd11901a	-0.035537817
76	0xbd90d26a	-0.07071383
77	0x3d2d5cf5	0.04232498
78	0x3de39007	0.111114554
79	0xbe866d0f	-0.2625508
80	0xbe2070bd	-0.15668006
81	0xbc1d5d1c	-0.009604719
82	0x3c159898	0.0091306195
83	0xbd695ae9	-0.056971464
84	0xbd331ada	-0.04372678
85	0xbde8d685	-0.11369041
86	0x3e951d8a	0.291241
87	0xbd60a914	-0.054848745
88	0xbd7ce946	-0.061745904
89	0x3d3ff54c	0.046864793
90	0x3d08c708	0.033392936
91	0xbdecf2a7	-0.1156972
92	0xb8127417	-3.491723e-05
93	0xbd4a2d9e	-0.04935991
94	0xbda595d2	-0.080852166
95	0x3e22b2bc	0.15888494
96	0x3d6a0aa0	0.05713904
97	0x3cafc1d9	0.021454738
98	0x3cde95bb	0.027171006
99	0x3d455206	0.048173927
100	0xbd5b8b71	-0.05359978
101	0xbd182432	-0.037143894
102	0x3e0f4053	0.13989381
103	0x3cf70965	0.030155847
104	0xbda7d7a7	-0.08195429
105	0x3e03a88c	0.12857264
106	0x3e126595	0.14296563
107	0xbd2b14fa	-0.04176805
108	0x3e1f1647	0.15535842
109	0x3d61a008	0.05508426
110	0x3d2c0a21	0.042001847
111	0x3d1a204e	0.037628464
112	0xbcc6f83c	-0.02428829
113	0xbc9defa5	-0.01927931
114	0xbe167ff9	-0.14697255
115	0xbe0dce7d	-0.138483
116	0x3c9dd647	0.019267214
117	0xbd02970b	-0.031882327
118	0xbc9d45c7	-0.019198311
119	0x3e0dbc03	0.13841252
120	0xbdb486f9	-0.088148065
121	0xbcefd000	-0.029273987
122	0xbd64e000	-0.055877686
123	0x3e0df0b9	0.1386136
124	0xbdc0e7c1	-0.094192035
125	0xbcf39393	-0.029733455
126	0xbcd4d4f5	-0.025980452
127	0x3d86c205	0.06579975
128	0x3e0a41b7	0.1350163
129	0xbdabe32c	-0.08392939
130	0x3d9a8789	0.075453825
131	0xbe3b5a5b	-0.18296187
132	0x3c475f28	0.012168683
133	0x3ce58d69	0.028021531
134	0x3d30986f	0.043114122
135	0x3d818090	0.063233495
136	0x3c6cb9fa	0.014448637
137	0x3a8c5bd0	0.0010708515
138	0xbcf89952	-0.030346546
139	0xbc55d061	-0.01305017
140	0x3c498445	0.012299602
141	0xbc6c21f0	-0.014412388
142	0x3c3b727e	0.011440871
143	0xbc938eb8	-0.01801239
144	0xba9fa8b0	-0.001218101
145	0xbcfd47f0	-0.030918092
146	0x3b853e5b	0.0040662712
147	0xbcff58fa	-0.031170357
148	0x3bb36e5b	0.005475802
149	0x3d0e2c4c	0.034710214
150	0x3d4394ff	0.047749516
151	0x3d17a77b	0.037024956
152	0xbaa4ef83	-0.0012583587
153	0x3c57459b	0.013139154
154	0x3d046a71	0.032328073
155	0xbc4acefe	-0.012378452
156	0xba84dff5	-0.0010137545
157	0x3ca765bc	0.020434253
158	0xbbe58e0a	-0.0070054578
159	0x3cc457a6	0.023967575
160	0xbcaf97b3	-0.02143464
161	0x3cd4740b	0.02593424
162	0x3c106f18	0.008815549
163	0x3d773cb8	0.06036064
164	0xbc861dd2	-0.016371641
165	0x3cdd2f9a	0.027000237
166	0xbb93385e	-0.0044928035
167	0x3cc5388d	0.024074817
168	0x395ba2cc	0.00020946114
169	0x3cf5a754	0.029987015
170	0xbc98d5c5	-0.01865662
171	0x3b9e1cb2	0.004825198
172	0xbc024d77	-0.007953039
173	0x3b8683ef	0.004105083
174	0xbb971ad2	-0.0046113515
175	0x3c71fc80	0.014769673
176	0xbd0455a9	-0.032308254
177	0xbcaac671	-0.020846577
178	0x3d6b5fed	0.05746453
179	0x3d4133f6	0.047168694
180	0x3d271f27	0.040801194
181	0x3d8d89b3	0.0691103
182	0xbbe63bf4	-0.00702619
183	0xbcaa100b	-0.020759603
184	0x3da4499e	0.08021854
185	0x3d1425a8	0.036168724
186	0xbd4ecb71	-0.050486986
187	0x3da90f1e	0.082548365
188	0x3d1a626c	0.03769152
189	0xbcbfe34a	-0.02342381
190	0xbcd5c6c2	-0.026095752
191	0x3d00c6ec	0.031439707
192	0x3c016d5c	0.007899608
193	0x3cb6cc4d	0.022314215
194	0x3ccdbef5	0.02511547
195	0x3d2e3c70	0.042538106
196	0x3d1bd9ca	0.038049497
197	0xbd073368	-0.03300801
198	0x3cdf5568	0.027262405
199	0x3c15f364	0.009152267
200	0x3cf4dc9c	0.029890351
201	0x3caf96f7	0.02143429
202	0x3c821e6e	0.01588365
203	0xbd23bb83	-0.039973747
204	0x3bf7a887	0.007557932
205	0xb936ea87	-0.00017444241
206	0x3d84e839	0.064896055
207	0xbd1aa06a	-0.03775064
208	0xbbc180e9	-0.00590526
209	0x3c6dc8a4	0.0145131685
210	0xbd600794	-0.054694727
211	0x3d3dbc70	0.046322286
212	0x3d00be5b	0.031431537
213	0x3cecaeda	0.02889197
214	0x3cf756bd	0.030192727
215	0xba830275	-0.0009995239
216	0x3d2b2e7f	0.04179239
217	0x3cff53e5	0.031167934
218	0x3cef24e1	0.02919239
219	0xbd50242b	-0.050815742
220	0x3d0505d7	0.032476272
221	0xbd2151e7	-0.03938475
222	0x3c989a1c	0.018628173
223	0x3d437aae	0.04772442
224	0x3d15be7f	0.036558624
225	0xbcfa07a8	-0.030521229
226	0x3d005b6c	0.031337187
227	0xbcdb0fea	-0.026740987
228	0xbaadc3c5	-0.0013257196
229	0x3b1894ce	0.0023282054
230	0x3cee13d2	0.029062185
231	0x3bfdc057	0.007743876
232	0xbb9a517a	-0.00470942
233	0x3b1aab0e	0.0023600492
234	0xbc9fccf1	-0.019506903
235	0xbd9fc958	-0.07802075
236	0x3cd78e7a	0.026313055
237	0x3ccf4886	0.025303137
238	0x3bb7180a	0.0055875825
239	0x3b05b3b1	0.0020401294
240	0xbc3e1b73	-0.011603224
241	0x3b86ba81	0.0041115885
242	0x3d51709a	0.051132776
243	0x3bd5767b	0.006514368
244	0x3b25a4fb	0.0025275338
245	0x3b1c4a0a	0.0023847842
246	0xbd2f0997	-0.042733755
247	0x3d14c955	0.036324818
248	0xbbe55964	-0.0069991816
249	0xbc049999	-0.008093261
250	0x3d136882	0.03598834
251	0x3d4d02a8	0.05005136
252	0xbcf3daa6	-0.029767346
253	0xbcfc17da	-0.030773092
254	0xbcd319ce	-0.02576914
255	0xbd358497	-0.0443159

linear1.bias f4 [800]
0	0x35b078f9	1.314823e-06
1	0xb4b720f4	-3.4110383e-07
2	0x35ec4f02	1.7606365e-06
3	0xb561f45d	-8.4174627e-07
4	0xb5c5a4d5	-1.4725616e-06
5	0xb569aa7d	-8.7047357e-07
6	0x34ef7eee	4.4609573e-07
7	0x365261eb	3.1349434e-06
8	0x361513d5	2.2214274e-06
9	0xb4b26cd2	-3.323426e-07
10	0x800685dc	-5.99033e-40
11	0x36f38f4a	7.2586454e-06
12	0x3539fc2b	6.9284823e-07
13	0xb731116f	-1.0554081e-05
14	0xb7069995	-8.022781e-06
15	0x35376656	6.832173e-07
16	0x36ad3c6b	5.1628354e-06
17	0xb7772b6d	-1.4732458e-05
18	0x30922350	1.0632935e-09
19	0x80067c9b	-5.95713e-40
20	0x3656b09e	3.199129e-06
21	0xb624a34a	-2.453295e-06
22	0x34b381dd	3.3435836e-07
23	0x3684a9af	3.9536603e-06
24	0x371cf97f	9.356415e-06
25	0x3640ac71	2.8710604e-06
26	0x369ff58c	4.7671547e-06
27	0xb48e40ff	-2.6496852e-07
28	0xb5d57595	-1.5903958e-06
29	0x36103d06	2.1493192e-06
30	0xb6b0acc5	-5.2653218e-06
31	0xb62f8d3a	-2.6159237e-06
32	0xb2e4b01a	-2.6622775e-08
33	0x356a8714	8.736836e-07
34	0xb640bcbd	-2.872009e-06
35	0xb69e13e3	-4.711082e-06
36	0x360b1b70	2.0728585e-06
37	0x369e3daa	4.7159456e-06
38	0xb5a3431b	-1.2163977e-06
39	0xb5634db6	-8.4677174e-07
40	0x34cb724a	3.7894853e-07
41	0xb6faa86f	-7.470189e-06
42	0xb6d5ca78	-6.371465e-06
43	0x357bdfcd	9.383046e-07
44	0x345037e4	1.9391842e-07
45	0x80060921	-5.54288e-40
46	0x35e557ec	1.7087418e-06
47	0xb710b071	-8.62415e-06
48	0x366be18d	3.5149017e-06
49	0xb64d6571	-3.0606427e-06
50	0xb500687f	-4.783578e-07
51	0x360f5968	2.1360702e-06
52	0x35687477	8.6596214e-07
53	0x3630f52b	2.636875e-06
54	0x363b06d0	2.7869137e-06
55	0x3785424a	1.5885704e-05
56	0x369b3025	4.6249647e-06
57	0xb6c5c3d3	-5.8938544e-06
58	0xb58fafb7	-1.070547e-06
59	0x3615b851	2.2310016e-06
60	0x35d96479	1.6197001e-06
61	0xb580c5a8	-9.594269e-07
62	0xb39103f1	-6.7528056e-08
63	0xb69ec4fe	-4.7317e-06
64	0xb2a2afa3	-1.8939152e-08
65	0x35a8fc88	1.2590472e-06
66	0xb584a40c	-9.88251e-07
67	0x3660261d	3.3400786e-06
68	0xb7105d38	-8.604773e-06
69	0xb594a2a1	-1.107419e-06
70	0x371e8e71	9.450699e-06
71	0xb5ab8402	-1.2778912e-06
72	0x361292d8	2.184117e-06
73	0xb6f68dd0	-7.3478805e-06
74	0x3602157f	1.9384022e-06
75	0x3580ffe7	9.61122e-07
76	0xb51ef8a0	-5.9221384e-07
77	0xb4d46ac6	-3.9565765e-07
78	0xb6c4f2c7	-5.869518e-06
79	0x34c6f73b	3.7060258e-07
80	0xb629421b	-2.522144e-06
81	0x3689b8bc	4.104424e-06
82	0x36400f11	2.8619e-06
83	0xb6124186	-2.1793835e-06
84	0xb6d4c538	-6.3410516e-06
85	0xb65a8eee	-3.2567727e-06
86	0xb6397bba	-2.7639167e-06
87	0x35acbb14	1.2869446e-06
88	0xb25479c1	-1.2367708e-08
89	0xb481c15b	-2.4168807e-07
90	0xb5b47b7f	-1.3446987e-06
91	0x36141bd3	2.2069914e-06
92	0xb4899fb3	-2.5634435e-07
93	0x3677438c	3.6845186e-06
94	0x340423e2	1.2306512e-07
95	0xb6dd0ed6	-6.5880404e-06
96	0x360d4461	2.105044e-06
97	0x365b9b27	3.2723854e-06
98	0x358262af	9.714475e-07
99	0x3612803f	2.1830344e-06
100	0x3720ff9a	9.596255e-06
101	0x343ae62f	1.740634e-07
102	0x3611235d	2.1627268e-06
103	0xb6104bb8	-2.1501746e-06
104	0xb5577fe9	-8.0279875e-07
105	0xb5082369	-5.0715477e-07
106	0x35d4e9ce	1.5863277e-06
107	0xb63646e6	-2.7161382e-06
108	0x367801c0	3.6955898e-06
109	0xb66fc83d	-3.573033e-06
110	0x35ec5273	1.7607366e-06
111	0x34d71ef1	4.0069384e-07
112	0xb5a0fda1	-1.1994745e-06
113	0xb6fbc426	-7.5032176e-06
114	0x358172e7	9.64469e-07
115	0xb690ddea	-4.3173686e-06
116	0xb6aa2921	-5.071183e-06
117	0x374cb1d5	1.2200752e-05
118	0x36e77741	6.8982195e-06
119	0x3555ebc9	7.9691796e-07
120	0x360d9aff	2.1100857e-06
121	0xb6c9467d	-5.9984727e-06
122	0xb41fe034	-1.4889594e-07
123	0xb4806188	-2.391282e-07
124	0xb4c1fbc3	-3.6132232e-07
125	0x3157440a	3.1325293e-09
126	0x361c8b15	2.3326768e-06
127	0x34ca5f67	3.7694846e-07
128	0xb623f534	-2.443162e-06
129	0xb5386974	-6.8698796e-07
130	0x8006a44c	-6.09952e-40
131	0xb636218f	-2.7139647e-06
132	0x349c1894	2.9075147e-07
133	0x364fd9b9	3.0972135e-06
134	0xb2ddb197	-2.5808545e-08
135	0x364c4755	3.043989e-06
136	0xb622e353	-2.4272201e-06
137	0xb58f6c0e	-1.0685778e-06
138	0xb736293e	-1.0857648e-05
139	0xb639a692	-2.7664105e-06
140	0xb2ed8303	-2.7650009e-08
141	0x36864c0b	4.0023638e-06
142	0x3636799d	2.7190902e-06
143	0x355d7201	8.2494813e-07
144	0x369aa271	4.6084683e-06
145	0xb6b2da7f	-5.3302497e-06
146	0xb2171b8a	-8.7956185e-09
147	0x34c3aa76	3.6445607e-07
148	0x36354a65	2.7014405e-06
149	0xb69c6ca9	-4.661812e-06
150	0xb6ea3e8b	-6.9810244e-06
151	0x36864318	4.001322e-06
152	0xb599fe5e	-1.1473419e-06
153	0x358e3e9f	1.059805e-06
154	0xb3de5b22	-1.03542575e-07
155	0xb650b292	-3.1098357e-06
156	0xb3d84c27	-1.0072136e-07
157	0x3574c2fa	9.118081e-07
158	0x36476463	2.9711744e-06
159	0x94184be8	-7.689009e-27
160	0x36922dcd	4.356471e-06
161	0xb6c048f5	-5.730539e-06
162	0x35834be5	9.782349e-07
163	0x36457d20	2.942812e-06
164	0xb79654bf	-1.7920856e-05
165	0x35a39af3	1.2189543e-06
166	0xb43a4547	-1.7347803e-07
167	0xb76ba38a	-1.4045168e-05
168	0xb652365d	-3.1324082e-06
169	0xb58ab5e1	-1.0334735e-06
170	0x363a5e3c	2.7771011e-06
171	0x36923c08	4.3581276e-06
172	0x36777f00	3.6879792e-06
173	0x36f66be5	7.343932e-06
174	0x35b1a594	1.3235717e-06
175	0x364c24c4	3.041977e-06
176	0xb6c55ca2	-5.8818414e-06
177	0x361282a6	2.1831743e-06
178	0x331dcfee	3.6743522e-08
179	0x356d0d3a	8.830863e-07
180	0xb71314df	-8.766742e-06
181	0xb59edc1a	-1.1835975e-06
182	0xb64e5040	-3.0743104e-06
183	0xb4ad913c	-3.2329433e-07
184	0x34c741a5	3.71144e-07
185	0x343d95d8	1.765651e-07
186	0x3411b560	1.3570161e-07
187	0x36193758	2.283099e-06
188	0xb49ab0ef	-2.8813471e-07
189	0xb411e5dc	-1.35878e-07
190	0xb5b232bb	-1.3276798e-06
191	0x362b0953	2.5486413e-06
192	0x36b3183d	5.3374374e-06
193	0xb692e86a	-4.3781956e-06
194	0xb69e00e1	-4.7088693e-06
195	0x363afbb2	2.7862666e-06
196	0xb68fcf61	-4.285874e-06
197	0x3693df03	4.4069034e-06
198	0xb7af07d0	-2.0865264e-05
199	0xb60b2dcd	-2.0739274e-06
200	0xb5874991	-1.0079694e-06
201	0x353cd4a1	7.0344873e-07
202	0x3549c733	7.516821e-07
203	0x3303ac41	3.065748e-08
204	0x357cc17f	9.415889e-07
205	0x3615dc8c	2.2331105e-06
206	0x3598ed6c	1.1393981e-06
207	0x3597b1cc	1.1302122e-06
208	0xb5f267e6	-1.8060643e-06
209	0x35fa14a9	1.8632464e-06
210	0xb67562a4	-3.6565261e-06
211	0x3606e896	2.0102939e-06
212	0xb41eeb87	-1.4800581e-07
213	0x358e5cf2	1.0606875e-06
214	0x34c87fcf	3.7345896e-07
215	0x36a22526	4.832301e-06
216	0x3246a338	1.15622285e-08
217	0x36371a95	2.7284598e-06
218	0x36998701	4.575472e-06
219	0xb69f9170	-4.7555004e-06
220	0x30eb5ea6	1.7125401e-09
221	0x361dee6d	2.3533605e-06
222	0xb58dafd6	-1.0556494e-06
223	0xb64c0701	-3.0402446e-06
224	0x3654c66e	3.1705963e-06
225	0xb68d6854	-4.214273e-06
226	0xb5d735d7	-1.6034418e-06
227	0x36b27e64	5.319527e-06
228	0xb62303ce	-2.4291107e-06
229	0xb3d7b067	-1.0043805e-07
230	0x35f6f5ed	1.8400002e-06
231	0x36f5426c	7.3093015e-06
232	0xb50186e7	-4.8252554e-07
233	0x35cc3a55	1.5216161e-06
234	0x360a0f25	2.0572418e-06
235	0xb656b623	-3.1994502e-06
236	0x367c251b	3.7572524e-06
237	0xb691fdd5	-4.3508867e-06
238	0x363ce5e0	2.8147988e-06
239	0x3639c02e	2.7679012e-06
240	0xb4874015	-2.5192335e-07
241	0xb407391e	-1.2593634e-07
242	0x367a81bd	3.732842e-06
243	0xb4b0621b	-3.2853936e-07
244	0xb68c51c7	-4.1818453e-06
245	0x3588b25f	1.0184702e-06
246	0x37743da9	1.455789e-05
247	0xb6fa461c	-7.4587424e-06
248	0x32ad4726	2.0172205e-08
249	0x36d23319	6.2644363e-06
250	0xb6c03c38	-5.7290563e-06
251	0xb6a09eb2	-4.786846e-06
252	0x338f2fe7	6.66767e-08
253	0x35851e79	9.918141e-07
254	0xb645a7cf	-2.9452965e-06
255	0xb3b1937e	-8.2690335e-08

bn1.weight f4 [800]
0	0x3edf06cd	0.43559876
1	0x3e1b2406	0.1515046
2	0x3e558c1f	0.20854233
3	0x3e9d9f9f	0.30785844
4	0x3eb058ab	0.34442648
5	0x3e5cb8ea	0.21554914
6	0x3e1b5d28	0.15172255
7	0x3ead07d8	0.33795047
8	0x3e793fb0	0.24340701
9	0x3ec9d5a3	0.39420804
10	0xb9695673	-0.00022252816
11	0x3ec9f6a3	0.3944598
12	0x3e3465c3	0.17616944
13	0x3ed2ff8e	0.41210598
14	0x3efca244	0.4934255
15	0x3edc1b39	0.4298952
16	0x3ebfe74f	0.37481162
17	0x3eaf4db6	0.34238976
18	0x3d94c21e	0.072635874
19	0xb65bd071	-3.2754872e-06
20	0x3e9323b7	0.28738186
21	0x3e8b6a46	0.27229518
22	0x3e694f66	0.22784194
23	0x3ecde439	0.40213183
24	0x3ee034dd	0.4379033
25	0x3e9a634e	0.30153888
26	0x3ed2fa5c	0.41206634
27	0x3dfed51a	0.1244299
28	0x3e994646	0.29936427
29	0x3e76abea	0.24089018
30	0x3e9992da	0.2999485
31	0x3e8f79c8	0.280226
32	0x3e98afba	0.2982157
33	0x3e63eb8e	0.22257826
34	0x3ed27cf4	0.41110957
35	0x3ee3948f	0.4444928
36	0x3eb98405	0.36233535
37	0x3eee1a94	0.46504653
38	0x3edf1776	0.43572587
39	0x3e84c0aa	0.2592824
40	0x3eda933b	0.42690453
41	0x3efbeae4	0.49202645
42	0x3ebef504	0.37296307
43	0x3eea270c	0.45732915
44	0x3e8c6ef9	0.27428415
45	0xb4283abb	-1.5667585e-07
46	0x3ec096a5	0.37614933
47	0x3eddf5eb	0.43351683
48	0x3f0f5160	0.55983543
49	0x3edb3f19	0.42821577
50	0x3e2793c3	0.1636496
51	0x3ec4d1b7	0.3844125
52	0x3e84765c	0.2587155
53	0x3e987688	0.29777932
54	0x3eec74f2	0.46182972
55	0x3eef411d	0.46729365
56	0x3ee7455a	0.451701
57	0x3ebd0308	0.36916375
58	0x3efbc20e	0.4917149
59	0x3ec0b0e8	0.3763497
60	0x3ea8415e	0.3286237
61	0x3e84da20	0.25947666
62	0x3ec36c69	0.38168648
63	0x3ec23e6b	0.37938246
64	0x3e64aca1	0.22331478
65	0x3e9d58f0	0.30731916
66	0x3e8f1289	0.2794383
67	0x3eacb02a	0.33728153
68	0x3edc73f6	0.4305722
69	0x3eaa4035	0.3325211
70	0x3ecaed46	0.3963415
71	0x3ed25c47	0.41086027
72	0x3ee058da	0.43817788
73	0x3ed2406b	0.41064772
74	0x3eb71903	0.3576127
75	0x3eb5598c	0.3541988
76	0x3e5a7555	0.21333821
77	0x3eca80ed	0.39551488
78	0x3ee10a76	0.43953294
79	0x3e419b01	0.18906786
80	0x3e8cb4c5	0.27481666
81	0x3eec2313	0.4612051
82	0x3ee13df0	0.43992567
83	0x3ed17932	0.40912777
84	0x3ebd5576	0.36979264
85	0x3eb02037	0.34399578
86	0x3e8a9d15	0.2707297
87	0x3e59af29	0.21258225
88	0x3e4ab602	0.19795993
89	0x3ec3f429	0.38272217
90	0x3ee203ff	0.44143674
91	0x3eb6a9bb	0.3567637
92	0x3ea011ab	0.3126348
93	0x3ed1b8ef	0.40961406
94	0x3eefb45f	0.468173
95	0x3ee011e7	0.43763658
96	0x3ea15674	0.3151127
97	0x3ea6b546	0.32560176
98	0x3ece6d90	0.40317965
99	0x3f01b5c7	0.50667995
100	0x3ea8584e	0.3287987
101	0x3ee702a2	0.45119196
102	0x3eb8861c	0.36039817
103	0x3eb8ac63	0.3606902
104	0x3eb92094	0.36157668
105	0x3e5b87f1	0.21438576
106	0x3eb4bb9a	0.3529938
107	0x3eab0809	0.33404568
108	0x3e7d7120	0.24750185
109	0x3e8a695a	0.27033502
110	0x3eba63e3	0.36404333
111	0x3e9a8778	0.3018148
112	0x3e86bc4f	0.26315543
113	0x3ef58bb8	0.4795816
114	0x3ebacffe	0.3648681
115	0x3eef22d8	0.4670627
116	0x3e77ddab	0.24205653
117	0x3ee37c36	0.44430703
118	0x3ebd8275	0.37013593
119	0x3edcb7c8	0.43108964
120	0x3eb183e6	0.34670943
121	0x3ec6825c	0.3877133
122	0x3e85f298	0.26161647
123	0x3eaa3715	0.3324515
124	0x3ecf4047	0.40478727
125	0x3d42a523	0.047520768
126	0x3e57feb1	0.21093251
127	0x3e95b43b	0.29239067
128	0x3ec255f0	0.3795619
129	0x3e49fdc8	0.19725716
130	0x802a6feb	-3.89724e-39
131	0x3ebb38bd	0.36566725
132	0x3db71381	0.08939267
133	0x3e8252aa	0.25453693
134	0x3e07e6ba	0.13271609
135	0x3ed77107	0.4207842
136	0x3ee4b7f3	0.44671592
137	0x3eabd1ee	0.335586
138	0x3ebc7842	0.368105
139	0x3ec77b56	0.38961285
140	0x3e920368	0.28518224
141	0x3eb36374	0.35036814
142	0x3e78a0da	0.2428011
143	0x3ea81275	0.32826582
144	0x3ee76540	0.45194435
145	0x3ebb1c8f	0.36545226
146	0x3df791fa	0.1208839
147	0x3e97a6ea	0.29619533
148	0x3eb9afa3	0.36266813
149	0x3ed312d7	0.4122531
150	0x3ee349ab	0.44392142
151	0x3ec7c6c4	0.39018834
152	0x3eb453ed	0.3522028
153	0x3eb3953e	0.350748
154	0x3ee77fbd	0.45214644
155	0x3eb77bd9	0.35836676
156	0x3e809ef8	0.25121284
157	0x3ebdaf5f	0.3704786
158	0x3ec29ece	0.38011783
159	0x2d991d89	1.7407202e-11
160	0x3e99a9ed	0.30012456
161	0x3ece13f0	0.40249586
162	0x3ea1b75a	0.315852
163	0x3eecf7a8	0.46282697
164	0x3ebf4dae	0.37363952
165	0x3eb58b14	0.3545767
166	0x3e8e62c9	0.27809742
167	0x3f04e3f4	0.5191033
168	0x3e9d018e	0.3066525
169	0x3ecd357a	0.40079862
170	0x3ec30223	0.38087568
171	0x3ee4990a	0.4464801
172	0x3ed5dfa2	0.4177218
173	0x3ef29728	0.47380948
174	0x3eb75918	0.3581016
175	0x3eae6ddb	0.34068188
176	0x3e9f188e	0.3107342
177	0x3ebb4acf	0.36580512
178	0x3e003852	0.12521484
179	0x3e72e21d	0.23719068
180	0x3eec35a9	0.4613469
181	0x3ea1c44c	0.31595075
182	0x3ebb6e7e	0.36607736
183	0x3e6c2ee2	0.2306476
184	0x3f00aa2f	0.5025968
185	0x3d91a584	0.07111648
186	0x3f011d1b	0.50435036
187	0x3ee1c8e3	0.44098577
188	0x3e02eedd	0.12786432
189	0x3ee2b5ba	0.4427927
190	0x3ea2703f	0.31726262
191	0x3ebee51b	0.3728417
192	0x3ef6b513	0.48185024
193	0x3eab37aa	0.33440906
194	0x3ec79f83	0.38988885
195	0x3e4c9e15	0.19982179
196	0x3ebd6dd1	0.36997846
197	0x3edc0e40	0.42979622
198	0x3ec59048	0.3858664
199	0x3ec5f66b	0.38664564
200	0x3ea7d14a	0.32776862
201	0x3e9c13e8	0.30483937
202	0x3e7ffb2a	0.24998155
203	0x3ebc621b	0.367936
204	0x3ec96083	0.39331445
205	0x3ea2070a	0.31645995
206	0x3ee659d0	0.44990396
207	0x3e97e873	0.29669532
208	0x3e91bce6	0.2846443
209	0x3ea9d10c	0.33167303
210	0x3ee7e891	0.45294622
211	0x3ede6e38	0.43443465
212	0x3ea12b79	0.3147848
213	0x3ec692f1	0.38783982
214	0x3eb89fa8	0.36059308
215	0x3eb584a8	0.3545277
216	0x3e8dfb15	0.27730623
217	0x3ed80266	0.4218933
218	0x3ef90e3a	0.48643667
219	0x3e8f149a	0.27945405
220	0x3e00db6f	0.12583707
221	0x3eb3b82d	0.35101452
222	0x3ee141f2	0.43995625
223	0x3e9a6a3e	0.3015918
224	0x3eb5e68b	0.35527453
225	0x3e9512ad	0.2911581
226	0x3e9cfaf7	0.3066022
227	0x3ee23567	0.44181368
228	0x3e43bf05	0.19115837
229	0x3e2b54ba	0.1673154
230	0x3ec89fd4	0.3918444
231	0x3efbf624	0.49211228
232	0x3ebf637b	0.37380585
233	0x3e9983f5	0.29983488
234	0x3e8d4109	0.2758868
235	0x3edea68e	0.43486446
236	0x3ef2c8e6	0.47418898
237	0x3edbe821	0.42950538
238	0x3edea1ed	0.43482915
239	0x3ebf543c	0.37368953
240	0x3ee6e975	0.4509999
241	0x3e2289bc	0.15872854
242	0x3ee711ca	0.4513076
243	0x3e31a714	0.17348891
244	0x3ea32f56	0.31872052
245	0x3eb2fcf6	0.3495862
246	0x3ee9a857	0.45636246
247	0x3ee56acb	0.4480804
248	0x3df23396	0.118262455
249	0x3ec481d3	0.38380298
250	0x3eaf2116	0.3420493
251	0x3eb94015	0.36181703
252	0x3d631fd1	0.055450264
253	0x3eb20355	0.34768167
254	0x3ee4fd06	0.44724292
255	0x3e9df643	0.30851945

bn1.bias f4 [800]
0	0xbe46dc3d	-0.19419952
1	0xbe5c56d3	-0.21517496
2	0xbe8e6281	-0.27809528
3	0xbe4db3c9	-0.20088114
4	0xbe7784bc	-0.24171728
5	0xbe897424	-0.2684642
6	0xbe4b9598	-0.19881284
7	0xbe5b519e	-0.21417853
8	0xbe3268a8	-0.17422736
9	0xbe5dab68	-0.21647418
10	0xba2eb315	-0.00066642585
11	0xbe774935	-0.2414902
12	0xbe024d96	-0.12724909
13	0xbe9603ab	-0.29299673
14	0xbea9f4c2	-0.33194548
15	0xbe7af3bb	-0.24507038
16	0xbe4727d5	-0.19448788
17	0xbe73ee3a	-0.23821345
18	0xbe0ce1fa	-0.13758078
19	0xb42c0eac	-1.6024086e-07
20	0xbe67ace2	-0.22624543
21	0xbe5331b4	-0.20624429
22	0xbe1a19dc	-0.15048927
23	0xbe828d94	-0.2549864
24	0xbe685f2a	-0.22692552
25	0xbe51799b	-0.20456545
26	0xbe49c797	-0.19705044
27	0xbe5918aa	-0.21200815
28	0xbe806f9c	-0.2508515
29	0xbe020923	-0.12698798
30	0xbe6166fb	-0.2201194
31	0xbe5304a9	-0.20607246
32	0xbe6959e9	-0.22788204
33	0xbe36aadb	-0.17838614
34	0xbe5dda5e	-0.21665332
35	0xbe7292a2	-0.23688748
36	0xbe8bdc0b	-0.27316317
37	0xbea64553	-0.32474765
38	0xbeb32a39	-0.3499315
39	0xbe37296f	-0.178869
40	0xbe42f7dc	-0.19039863
41	0xbe618cf7	-0.2202643
42	0xbe7ffa26	-0.24997768
43	0xbe95e545	-0.2927648
44	0xbe714f67	-0.23565446
45	0xb1778945	-3.602126e-09
46	0xbeb104f1	-0.34574082
47	0xbe210ce0	-0.15727568
48	0xbe8b53f4	-0.2721249
49	0xbe86a702	-0.26299292
50	0xbe338279	-0.1753024
51	0xbe7a0561	-0.24416114
52	0xbe5e7c29	-0.21727051
53	0xbe8ebb8e	-0.27877468
54	0xbe41300e	-0.18865988
55	0xbe85a12b	-0.26099524
56	0xbe5716b7	-0.21004759
57	0xbe89baea	-0.26900417
58	0xbe3cf595	-0.18453057
59	0xbea6395e	-0.32465643
60	0xbe95d2ab	-0.2926229
61	0xbe7c5907	-0.24643336
62	0xbe93b0e3	-0.2884589
63	0xbe859c17	-0.2609565
64	0xbe5cd476	-0.21565422
65	0xbe80d97c	-0.25165927
66	0xbe4fd157	-0.202947
67	0xbda16e06	-0.078823134
68	0xbe71662f	-0.23574136
69	0xbe12f81d	-0.1435246
70	0xbe440449	-0.1914226
71	0xbe7f3da2	-0.24925855
72	0xbe8d1922	-0.27558237
73	0xbe3580f2	-0.1772497
74	0xbe997ab1	-0.2997642
75	0xbea67d30	-0.32517385
76	0xbe53012a	-0.20605913
77	0xbe9620e7	-0.29321977
78	0xbeb47a54	-0.3524958
79	0xbe5a1487	-0.21296893
80	0xbe2d70e7	-0.169376
81	0xbe562e2a	-0.20916048
82	0xbe8e86b3	-0.27837142
83	0xbe6b89aa	-0.23001733
84	0xbe8b4ad9	-0.27205542
85	0xbe5d36ac	-0.21602887
86	0xbe366268	-0.17810977
87	0xbe023a9d	-0.12717672
88	0xbe214390	-0.1574843
89	0xbe77ed39	-0.24211587
90	0xbe370bba	-0.17875567
91	0xbe89779d	-0.2684907
92	0xbe2322a0	-0.15931177
93	0xbe72306b	-0.23651282
94	0xbe8c826c	-0.27443254
95	0xbe575058	-0.21026742
96	0xbe6d0848	-0.2314769
97	0xbe4fb6bf	-0.20284556
98	0xbe87522f	-0.2642989
99	0xbe954c33	-0.29159698
100	0xbe4f462d	-0.20241614
101	0xbeae5108	-0.34046197
102	0xbe8227a9	-0.25420883
103	0xbe89092a	-0.26764804
104	0xbe33e67e	-0.17568395
105	0xbe153281	-0.14570047
106	0xbe064931	-0.13113858
107	0xbe454b4e	-0.19267008
108	0xbe22256e	-0.15834591
109	0xbe8657fe	-0.26239008
110	0xbe8ba16a	-0.27271587
111	0xbe5a54d0	-0.21321416
112	0xbe57b66f	-0.21065687
113	0xbe9dbda6	-0.30808753
114	0xbdd68d19	-0.10476131
115	0xbe5c1b7d	-0.21494861
116	0xbe165170	-0.14679503
117	0xbe961601	-0.29313663
118	0xbe7646a3	-0.24050383
119	0xbea64f05	-0.32482162
120	0xbe29f2b3	-0.16596489
121	0xbe639271	-0.22223832
122	0xbe4aa97a	-0.19791213
123	0xbe9fba6c	-0.31196916
124	0xbe8afa07	-0.2714388
125	0xbdc832a6	-0.097752854
126	0xbe6bafc8	-0.23016274
127	0xbe6f5dbd	-0.23375602
128	0xbe1b5c7c	-0.15171999
129	0xbe422853	-0.18960695
130	0xb2ab13bd	-1.9915996e-08
131	0xbe363a30	-0.17795634
132	0xbe49ee3e	-0.19719788
133	0xbe20a669	-0.1568848
134	0xbe83793f	-0.2567844
135	0xbe2d4e11	-0.16924311
136	0xbe9d604d	-0.30737534
137	0xbea0097f	-0.31257245
138	0xbe2eed7a	-0.17082778
139	0xbea12cdc	-0.31479537
140	0xbe2aaf5f	-0.16668461
141	0xbe429ab7	-0.19004332
142	0xbe3f6f0d	-0.18694706
143	0xbe620e40	-0.22075748
144	0xbe96f49b	-0.29483494
145	0xbe84d828	-0.25946164
146	0xbe6e4351	-0.23267867
147	0xbe89f6cd	-0.26946107
148	0xbe64c757	-0.22341667
149	0xbe56dbd4	-0.20982295
150	0xbe841ef7	-0.25804874
151	0xbe3bb051	-0.18328978
152	0xbe8daa61	-0.2766905
153	0xbe755209	-0.23957075
154	0xbe917e10	-0.2841649
155	0xbdf20b75	-0.118185915
156	0xbe4c3269	-0.19941105
157	0xbe538a22	-0.20658162
158	0xbe38dcdd	-0.18053003
159	0xaca19a89	-4.593052e-12
160	0xbe75596b	-0.23959891
161	0xbe3a2123	-0.18176703
162	0xbe55a74a	-0.20864597
163	0xbe41d274	-0.18927938
164	0xbe497f16	-0.19677386
165	0xbe3ba800	-0.18325806
166	0xbe3f4717	-0.18679462
167	0xbe86278e	-0.26202053
168	0xbe6ba950	-0.23013806
169	0xbe3d267b	-0.1847171
170	0xbe28deca	-0.16491237
171	0xbe63178f	-0.22176956
172	0xbe8ade0b	-0.2712253
173	0xbe912da0	-0.28355122
174	0xbe808be9	-0.25106743
175	0xbe512105	-0.20422752
176	0xbe3ecb99	-0.18632354
177	0xbe5c3db4	-0.21507913
178	0xbe5fe618	-0.21865118
179	0xbe0b7647	-0.13619338
180	0xbe8c3f16	-0.2739188
181	0xbe29df19	-0.16589011
182	0xbe98019b	-0.29688725
183	0xbe270a84	-0.16312605
184	0xbe7094df	-0.2349429
185	0xbe1e2480	-0.15443611
186	0xbe90f49e	-0.28311628
187	0xbe6a4c7b	-0.22880737
188	0xbe1ea350	-0.15491986
189	0xbe907a92	-0.28218514
190	0xbe0c71e4	-0.13715321
191	0xbe573e0c	-0.21019763
192	0xbe684c83	-0.22685437
193	0xbe3e1af4	-0.1856497
194	0xbe700762	-0.23440316
195	0xbe16b082	-0.1471577
196	0xbe549042	-0.20758155
197	0xbe8a99a9	-0.27070358
198	0xbe17a2fb	-0.14808266
199	0xbe6369b0	-0.22208285
200	0xbe25818f	-0.16162704
201	0xbe529eb4	-0.20568353
202	0xbe94224e	-0.28932422
203	0xbe3f9974	-0.18710881
204	0xbe3c6cc0	-0.1840086
205	0xbddb8f16	-0.10720651
206	0xbe89a1ad	-0.2688116
207	0xbe43c9cd	-0.1911995
208	0xbe792e00	-0.24333954
209	0xbe62c1a5	-0.22144182
210	0xbe6187eb	-0.22024505
211	0xbe557e7b	-0.2084903
212	0xbe73f0b6	-0.23822293
213	0xbe8ea140	-0.278574
214	0xbe7c425c	-0.24634689
215	0xbe70437f	-0.23463248
216	0xbe68f207	-0.22748576
217	0xbe37a0ce	-0.17932436
218	0xbe9dac34	-0.30795443
219	0xbe87b8f5	-0.265083
220	0xbe8ef4aa	-0.2792104
221	0xbe4255c9	-0.18978037
222	0xbea0d9e3	-0.31416234
223	0xbe615a0a	-0.22007003
224	0xbe5b1c49	-0.21397509
225	0xbe72bab1	-0.2370403
226	0xbe867564	-0.26261437
227	0xbe9123c0	-0.28347588
228	0xbe6ffa4d	-0.23435326
229	0xbe18ed35	-0.14934237
230	0xbe09f3e4	-0.13471943
231	0xbe8f4cb7	-0.27988216
232	0xbe3934d0	-0.18086553
233	0xbe511021	-0.20416309
234	0xbe64028e	-0.222666
235	0xbe801bac	-0.25021112
236	0xbe7cc783	-0.24685483
237	0xbe093552	-0.13399246
238	0xbe4ce902	-0.2001076
239	0xbe840d22	-0.2579127
240	0xbe773fb8	-0.241454
241	0xbe1d9b31	-0.15391232
242	0xbe4b91b2	-0.19879797
243	0xbe667107	-0.22504054
244	0xbe7ab30f	-0.24482368
245	0xbe3f46bc	-0.18679327
246	0xbe24906b	-0.16070716
247	0xbe4d20b1	-0.20032002
248	0xbe58645c	-0.21132034
249	0xbe3a985d	-0.18222184
250	0xbe0f8dc5	-0.14018925
251	0xbe553a18	-0.20822942
252	0xbde1adb7	-0.110194616
253	0xbe75060f	-0.23928092
254	0xbe86954e	-0.26285785
255	0xbe72afa5	-0.23699816

bn1.running_mean f4 [800]
0	0xb6785f15	-3.7010225e-06
1	0xb5c7fc84	-1.4900147e-06
2	0x36203bc9	2.3876657e-06
3	0xb6a83c05	-5.0137774e-06
4	0x34b76fe1	3.416781e-07
5	0xb6078e43	-2.0199375e-06
6	0x35f36d32	1.8136691e-06
7	0xb66cda89	-3.5293945e-06
8	0x355f82d1	8.3264337e-07
9	0x36a7a53b	4.996223e-06
10	0x00002f1a	1.6897e-41
11	0x3601b38a	1.9327003e-06
12	0xb5c69e6f	-1.479826e-06
13	0xb65de030	-3.306206e-06
14	0x36306370	2.6283924e-06
15	0xb6410dbb	-2.8767233e-06
16	0x366c6277	3.5224054e-06
17	0xb5937e28	-1.098907e-06
18	0xb3a26e33	-7.563758e-08
19	0x80004857	-2.595e-41
20	0xb659579b	-3.2386513e-06
21	0x35fcf443	1.8846553e-06
22	0x35c633a3	1.4767178e-06
23	0x36fb8eb9	7.496998e-06
24	0x365caa6f	3.288176e-06
25	0x3611f586	2.1749597e-06
26	0xb7204b75	-9.554312e-06
27	0xb630839f	-2.6302657e-06
28	0x354fbcfb	7.738851e-07
29	0x362b568d	2.5531365e-06
30	0xb63958bb	-2.7618796e-06
31	0xb5354119	-6.7522484e-07
32	0xb6ff036f	-7.599992e-06
33	0xb663819f	-3.3901085e-06
34	0xb627626c	-2.4942228e-06
35	0x35f1c5b2	1.8013436e-06
36	0x36b16047	5.286219e-06
37	0x36a39c59	4.87598e-06
38	0xb61f4ace	-2.3736388e-06
39	0x354ee160	7.7068944e-07
40	0x362452a3	2.4486005e-06
41	0xb694e128	-4.4369554e-06
42	0x36a7c8fa	5.0003846e-06
43	0xb685cfa3	-3.987881e-06
44	0xb55c8947	-8.215615e-07
45	0x0000002d	6.3e-44
46	0xb61622cc	-2.2371996e-06
47	0xb44e4f4a	-1.921409e-07
48	0x36d87cea	6.4518435e-06
49	0xb65eb63a	-3.3186648e-06
50	0xb5a741fe	-1.2461676e-06
51	0x36884cb7	4.0620466e-06
52	0x3674a1aa	3.6452934e-06
53	0x34d6f678	4.0039936e-07
54	0x348516dd	2.4789816e-07
55	0xb6cce6a5	-6.1065243e-06
56	0xb5866cbf	-1.0015427e-06
57	0xb6423eca	-2.89448e-06
58	0xb5edfc7a	-1.7731356e-06
59	0xb60ec224	-2.1272654e-06
60	0x36a7c49e	4.999877e-06
61	0x3550d3cc	7.7794243e-07
62	0xb42c904e	-1.6071246e-07
63	0xb4ec79c0	-4.404701e-07
64	0xb65618d0	-3.1902928e-06
65	0x35fe791d	1.8959723e-06
66	0x369fcdeb	4.7625413e-06
67	0x35d3d942	1.5783955e-06
68	0xb55e4ddb	-8.281474e-07
69	0xb6a1b4a1	-4.819202e-06
70	0x36cbf3ad	6.078239e-06
71	0x3686217d	3.9974097e-06
72	0xb4a4d7de	-3.0704444e-07
73	0xb6143877	-2.2086585e-06
74	0x36d1710d	6.241846e-06
75	0xb632396e	-2.6557495e-06
76	0xb4e35b84	-4.234863e-07
77	0xb5b1db62	-1.3251376e-06
78	0xb629486c	-2.5225117e-06
79	0x36851b5d	3.9668944e-06
80	0x3611606c	2.1662809e-06
81	0xb5e35f17	-1.6940493e-06
82	0xb68e9f73	-4.250492e-06
83	0xb66cbf09	-3.5277938e-06
84	0xb646aea9	-2.9605965e-06
85	0x3693f392	4.4092967e-06
86	0x360fd112	2.1430355e-06
87	0x36a03a12	4.775132e-06
88	0x360d20fc	2.1029837e-06
89	0x3695c14a	4.463048e-06
90	0x353bea6b	7.000405e-07
91	0x352852c8	6.270534e-07
92	0x36431e71	2.9074984e-06
93	0xb65028a8	-3.101808e-06
94	0xb4513097	-1.9482319e-07
95	0x37048940	7.899769e-06
96	0xb69040b0	-4.299065e-06
97	0xb5f9469b	-1.8572495e-06
98	0xb6aae61e	-5.093184e-06
99	0x36f77f16	7.3759684e-06
100	0x3634e0a0	2.695284e-06
101	0x350837fa	5.0745405e-07
102	0xb5b08bc5	-1.31537e-06
103	0xb5b5b336	-1.3537708e-06
104	0xb4e458c1	-4.2532886e-07
105	0x35cc1789	1.5206034e-06
106	0x36026682	1.9431177e-06
107	0xb5e30323	-1.6913731e-06
108	0xb5b8c6fb	-1.3766979e-06
109	0x367e0e45	3.7857255e-06
110	0xb59d2f35	-1.1711151e-06
111	0x36ce9605	6.156743e-06
112	0xb5739abb	-9.0749717e-07
113	0xb3d4364c	-9.881896e-08
114	0x36987a2d	4.544176e-06
115	0xb480c9de	-2.3988736e-07
116	0x34397fa1	1.7275899e-07
117	0xb7245e84	-9.797168e-06
118	0xb68eeb27	-4.259305e-06
119	0xb6c0be54	-5.744203e-06
120	0x366a3f8b	3.4905704e-06
121	0xb69865af	-4.5417905e-06
122	0x35967d45	1.1212329e-06
123	0x35bbc7d7	1.3990747e-06
124	0xb652c826	-3.140894e-06
125	0x3507ae8a	5.0545407e-07
126	0x35601830	8.34817e-07
127	0x363abc27	2.782568e-06
128	0x35038c5e	4.9005564e-07
129	0xb535b3c8	-6.768937e-07
130	0x000010ec	6.07e-42
131	0xb6160fae	-2.2360869e-06
132	0x3505b471	4.980894e-07
133	0x3510b22b	5.390345e-07
134	0x35cdd33e	1.533517e-06
135	0xb5d3ad00	-1.5771075e-06
136	0x34165d6e	1.4003828e-07
137	0xb55a50f4	-8.132913e-07
138	0x35b32601	1.33476e-06
139	0x35da6a3a	1.6273182e-06
140	0x36286528	2.5092831e-06
141	0x35bdc853	1.4139899e-06
142	0x33e79df8	1.078551e-07
143	0x359e774e	1.180664e-06
144	0x35d63c42	1.596178e-06
145	0xb5f6f969	-1.8401016e-06
146	0x35854cf2	9.931666e-07
147	0xb526fcbe	-6.220761e-07
148	0xb57076c8	-8.9579817e-07
149	0x35bca456	1.405492e-06
150	0xb6109f65	-2.1550452e-06
151	0x35cfa540	1.5470796e-06
152	0x3517d547	5.6562243e-07
153	0xb5048f47	-4.938233e-07
154	0xb6e151b3	-6.7150336e-06
155	0xb6227882	-2.4210026e-06
156	0xb4f9740f	-4.6464308e-07
157	0x3622593d	2.4191825e-06
158	0x36b21e4c	5.3083404e-06
159	0x975842da	-6.9877743e-25
160	0x36264488	2.4775818e-06
161	0x36b82e96	5.4890506e-06
162	0x365d74df	3.2999594e-06
163	0xb4c1ad8b	-3.607532e-07
164	0x330ed329	3.3254e-08
165	0xb5cba911	-1.5173883e-06
166	0x35ae36da	1.2979974e-06
167	0x3626d934	2.4862356e-06
168	0x3601a1de	1.9316717e-06
169	0xb6675103	-3.4468837e-06
170	0xb4684683	-2.1632336e-07
171	0x34add5c2	3.237929e-07
172	0x35c1a1b5	1.4426683e-06
173	0x36a9092d	5.0376607e-06
174	0x34f8723e	4.6276722e-07
175	0x359f7b7b	1.1882361e-06
176	0x361065a4	2.1516835e-06
177	0xb59a73d1	-1.1507601e-06
178	0xb5dcaead	-1.6442115e-06
179	0x363b13ad	2.7876624e-06
180	0xb542ca33	-7.256487e-07
181	0xb680b203	-3.8354206e-06
182	0xb6aae3fa	-5.0929348e-06
183	0xb5913e16	-1.0821411e-06
184	0x35d9e49c	1.6234294e-06
185	0xb58d094b	-1.0508023e-06
186	0x36566564	3.1947502e-06
187	0x3615baf1	2.2311544e-06
188	0xb3f1aff5	-1.12544434e-07
189	0xb56cb937	-8.8186374e-07
190	0x35ca42b7	1.5069589e-06
191	0x35db8827	1.6356397e-06
192	0x36bf408e	5.6997587e-06
193	0xb5aabf7f	-1.272172e-06
194	0x3587973a	1.0102297e-06
195	0x3634d9d9	2.6948894e-06
196	0xb677a349	-3.6900913e-06
197	0x351ea86a	5.910466e-07
198	0xb5b71701	-1.3641258e-06
199	0xb5f2521b	-1.8054301e-06
200	0xb5ef7f86	-1.7844002e-06
201	0x3697cbaf	4.5238626e-06
202	0xb6089be0	-2.035631e-06
203	0xb61a0e6d	-2.2956185e-06
204	0xb658a07f	-3.227993e-06
205	0x3637befd	2.7380295e-06
206	0x3685926f	3.980756e-06
207	0x3506f012	5.026824e-07
208	0x35b26e0a	1.3294059e-06
209	0x35a70c81	1.2446109e-06
210	0x35851de9	9.917977e-07
211	0xb5f89473	-1.8520644e-06
212	0xb5d34ce7	-1.5743107e-06
213	0xb6418d8d	-2.8841635e-06
214	0xb6a51b10	-4.9205337e-06
215	0x369d7c74	4.693453e-06
216	0x34a2bd2b	3.031249e-07
217	0xb630134c	-2.6237276e-06
218	0xb61b40d2	-2.313453e-06
219	0x35d04a57	1.5518843e-06
220	0x35bfb358	1.4282805e-06
221	0x3689d6a0	4.107904e-06
222	0xb6bf9eb7	-5.7107204e-06
223	0x3596bcbe	1.1230802e-06
224	0xb60a451d	-2.0603832e-06
225	0xb683d661	-3.929061e-06
226	0x3591bc37	1.085812e-06
227	0x36047ec6	1.9743325e-06
228	0x3686e6af	4.0203663e-06
229	0x35b62e56	1.3573542e-06
230	0xb5f9329a	-1.8566673e-06
231	0x3616d55d	2.2475936e-06
232	0xb5319b4d	-6.616363e-07
233	0x35b37b88	1.3372492e-06
234	0x35c00c43	1.4308683e-06
235	0x36139204	2.19897e-06
236	0x36a5435d	4.9252253e-06
237	0x35dbafa0	1.6367885e-06
238	0x3600aacc	1.9172903e-06
239	0x33e45459	1.063242e-07
240	0xb6367f9c	-2.7194392e-06
241	0x36003cf0	1.9108957e-06
242	0x370773a8	8.073555e-06
243	0x33cff367	9.683463e-08
244	0x35afbd88	1.3093677e-06
245	0x35cd550c	1.5298442e-06
246	0x36fec49d	7.5926787e-06
247	0xb48dd08f	-2.6415043e-07
248	0x35868d1d	1.0024847e-06
249	0x36576e96	3.2101866e-06
250	0xb6ae0900	-5.186652e-06
251	0xb5bbc29e	-1.3989227e-06
252	0xb56370de	-8.4728333e-07
253	0xb56ef6ec	-8.902123e-07
254	0xb637d1d4	-2.739126e-06
255	0x362a6900	2.5393092e-06
