models/NFM_layer_2_20/MLP610.pt (torch, 627400 bytes, 26 tensors)

bi_BN.weight f4 [10]
00000000: 1c74 0c3e 2e8c 723d 2708 883d 7488 513e
00000010: 264b d03d 5464 c33d 1f7d e23d abba 323e
00000020: d701 133e 3960 213e
0.13716167 0.059215717 0.0664218 0.20462209 0.101705834 0.095406204 0.11059021 0.1745402
0.1435617 0.15759362

bi_BN.bias f4 [10]
00000000: 944e 7337 2488 8a36 bc95 9136 567d f4b4
00000010: 07c1 0bb7 d23d 3136 4db2 7837 0ada 0eb8
00000020: 6725 dd35 3a27 9237
1.4502224e-05 4.1285693e-06 4.338768e-06 -4.5539736e-07 -8.329988e-06 2.641104e-06 1.4823466e-05 -3.4058503e-05
1.6476669e-06 1.7422823e-05

bi_BN.running_mean f4 [10]
00000000: 15f8 c244 6fb3 b344 c3de c244 1b4b 9944
00000010: 49d7 9b44 a65f 9944 9a5c 9d44 18fe b744
00000020: 5469 b344 8c19 b344
1559.7526 1437.6073 1558.9613 1226.347 1246.7277 1226.989 1258.8938 1471.9404
1435.2915 1432.7983

bi_BN.running_var f4 [10]
00000000: 9f97 3c4b 0203 274b 016b 184b 78e9 de4a
00000010: db7e 1b4b 79f0 004b 5ffe e94a 6ed1 274b
00000020: 109c 004b 55cc 144b
1.2359583e+07 1.0945282e+07 9.988865e+06 7.30438e+06 1.0190555e+07 8.450169e+06 7.6675035e+06 1.0998126e+07
8.42856e+06 9.751637e+06

BN_num.weight f4 [136]
00000000: 9c76 583f e07a 393f e6dc 093f 6099 6f3f
00000010: ecc5 323f 8b70 f73e 3d49 a93b 3a23 4f3f
00000020: cdcf 0f3f e972 433f edd2 5b3f d22c 293f
00000030: bfa8 7f3f 7d8d 393f 1214 143f a346 333f
00000040: 7172 91bb ab85 4a3f 7b00 2a3f ffae 5c3f
00000050: b8a4 533f 2507 9c3e 8e16 6f3f 9e01 213f
00000060: cbf7 423f b658 3b3f e66b b03e fd61 543f
00000070: de10 363f ae96 4b3f 5ec5 6d3f d466 7b3f
00000080: be8e 2e3f bdfc 773f 77b1 243f 3d8e d73e
00000090: 6e93 423f b69a 423f 8b73 2b3f 0535 163f
000000a0: 9220 223f ddfa 363f 1dae 263f 5f5e 0a3f
000000b0: 7948 593f 2b18 503f 61f8 2c3f 9a69 243f
000000c0: 2228 5b3f f591 443f 0d88 3f3f 7b05 663f
000000d0: 01d5 103f be48 483f e362 653f 737d 8d3e
000000e0: 3a5d 673f 7ac9 fd3e b8ab 723f e093 0b3f
000000f0: 5d7c 1d3f 3762 ac3e 6513 4c3f dbe4 5a3f
00000100: 6787 423f e0e6 ed3e d0be fe3e f1da 843f
00000110: cf05 403f 9ecb 553f 869d 363f 7c36 283f
00000120: 7c14 4b3f d933 633f 8ef2 243f c90d 3d3f
00000130: fdfc 4a3f ff0b 5b3f dce1 333f 32e7 573f
00000140: 19fb 553f 4ab8 143d ada9 343f b6ed 3e3f
00000150: 901c 233f 9f7c 783f 9887 2a3f 8eb8 443f
00000160: b22d 443f 9166 6a3f 039a 273f 0c72 173f
00000170: 3fbf 2b3f 5185 363f 7ab6 263f 4461 3c3f
00000180: 1bb0 283f e27f 6f3f 3593 383f 8492 253f
00000190: 499c 453f 184f 463f 4550 3e3f 2b9f fe3e
000001a0: 3ded 343f ea0f 193f 53d7 133f 3e12 f03e
000001b0: 73ce 503f 3d8b 3a3f 1c53 3e3f 7110 4b3f
000001c0: 49b4 483f df49 423f b47f d73e 3b8b 2d3f
000001d0: f885 233f b571 463f 7b65 6a3f 7635 3d3f
000001e0: de58 323f 4ecc 5c3f d741 3b3f ed0d 5b3f
000001f0: 3f96 433f 0e51 003f 4b76 133f e34b 5e3f
00000200: 7967 333f 743e 323f 657a 443f 7ffe 4f3f
00000210: dd80 153f 0d68 503f 5635 243f f868 493f
0.84555984 0.7245312 0.5385269 0.93593407 0.69833255 0.4832805 0.0051662014 0.80913126
0.56176454 0.76347214 0.8586872 0.66084015 0.9986686 0.7248152 0.57843125 0.7002966
-0.0044386913 0.7911021 0.66406983 0.8620452 0.82673216 0.304742 0.9339379 0.6289309
0.7615935 0.7318224 0.3445732 0.8296202 0.7111949 0.79526794 0.92879283 0.9820378
0.6818656 0.96870023 0.6433329 0.42100707 0.7600621 0.7601732 0.6697318 0.5867465
0.6333095 0.71476537 0.65109426 0.5405025 0.8487621 0.8128688 0.67566496 0.64223635
0.8560811 0.7678521 0.7481697 0.8985211 0.5657502 0.78235996 0.89604014 0.27634773
0.9037663 0.49567777 0.9479327 0.54522514 0.6151789 0.33668682 0.79717094 0.85505456
0.7598786 0.46465206 0.49754953 1.0379316 0.75008863 0.8351382 0.7133411 0.65708137
0.7932813 0.8875099 0.6443261 0.7384916 0.7929228 0.8556518 0.7026651 0.8433715
0.8358627 0.036308564 0.70571405 0.7458147 0.6371546 0.97065157 0.6661315 0.7684411
0.76632226 0.91562754 0.6546938 0.59158397 0.67088693 0.71297175 0.6512219 0.73585916
0.65893716 0.9355451 0.7209962 0.6467669 0.771916 0.7746444 0.7434123 0.4973081
0.70674497 0.5978991 0.57750434 0.46888918 0.81565017 0.7286871 0.74345565 0.7932196
0.78400093 0.7589397 0.42089617 0.67790574 0.63876295 0.77517253 0.91561097 0.739097
0.6966685 0.86249244 0.7314734 0.85568124 0.7640113 0.5012368 0.57602376 0.86834544
0.7007976 0.69626546 0.7674926 0.81247705 0.58399755 0.8140877 0.64143884 0.78675795

BN_num.bias f4 [136]
00000000: 8ed9 0938 99a1 3837 a3ac b2b6 0584 a2b7
00000010: 452e 9137 d6f6 6eb6 b282 3436 5f62 c4b7
00000020: 0f04 a2b7 fb83 2037 a14e 31b8 a447 06b8
00000030: 3a9a 23b7 a7de c836 4877 d335 c6a9 f736
00000040: c9d5 01b6 dcab 4838 715d 47b6 7020 85b6
00000050: 8552 45b7 5642 a1b6 1cf1 09b7 13e5 67b6
00000060: ee9b 0ab8 f004 3ab8 eac2 6a37 dd5b 2738
00000070: 835f ec35 eddd 0236 15b7 0738 3a35 f836
00000080: 9516 c4b7 32e7 a137 81b8 85b6 bc2b 3138
00000090: c216 d436 7a24 72b8 564b 44b7 5758 5137
000000a0: 711c 15b5 a9d9 acb6 b380 56b6 37db d5b7
000000b0: 4840 1438 6e8b fdb6 a743 8636 949f a9b7
000000c0: 9469 ccb6 5649 dcb7 bab5 0c38 000d 8635
000000d0: e3a3 6137 6764 bcb7 a8bd fdb7 ea8d d637
000000e0: 25b5 15b6 af93 1cb7 988b dc37 8c77 fab6
000000f0: 85a7 f837 97a5 a8b7 bfca 22b8 9672 c737
00000100: a05c 6837 b937 8d36 6aa1 bfb7 313d 6337
00000110: 37ee dfb7 f521 c6b7 1b22 0ab8 ae96 83b7
00000120: 4762 e1b7 34d9 3136 2b8b c5b7 6b8e 24b6
00000130: 3c1f 5db7 1fed 1cb8 2c29 ffb7 e291 8d38
00000140: 3f28 eab7 e49d f636 7670 c1b7 180d 0fb8
00000150: 7765 be37 216d 2937 bbbd 0f38 01ce 99b6
00000160: dd67 aa36 952c e6b7 5b84 e635 17c3 2ab7
00000170: 4946 b037 bd99 87b7 c03d ea36 8357 50b7
00000180: 3f7f 4236 08fc b7b7 3e41 f0b7 68ab 8ab7
00000190: 9f63 ad37 3173 0eb8 d50d 2cb7 54c5 e6b6
000001a0: f2e0 b5b7 f932 9cb6 88fd d237 3f5e 6135
000001b0: 6daf 3ab5 0d79 8137 9e0b 0b37 880d c937
000001c0: fa57 e437 0ef5 39b6 09db b3b5 6933 2237
000001d0: fa13 31b7 e88b 3638 0bcb 8937 3ae7 4038
000001e0: 6a2a bcb7 02f5 1736 4968 42b7 3245 1538
000001f0: 296d e036 a05a 6537 255a 04b8 1ca2 13b8
00000200: c71d c9b7 691f d3b6 31b0 8f37 b246 7737
00000210: 4bab ee37 9d26 1038 a5e4 87b7 2ed4 e2b6
3.286596e-05 1.10048795e-05 -5.324911e-06 -1.9373381e-05 1.7306893e-05 -3.560844e-06 2.6898165e-06 -2.3410828e-05
-1.9313795e-05 9.567472e-06 -4.2273317e-05 -3.201481e-05 -9.751466e-06 5.9863846e-06 1.575544e-06 7.380938e-06
-1.9346937e-06 4.7843772e-05 -2.97077e-06 -3.967485e-06 -1.1761328e-05 -4.8058964e-06 -8.221974e-06 -3.455502e-06
-3.3046985e-05 -4.4350454e-05 1.3992869e-05 3.9901457e-05 1.7611168e-06 1.9500687e-06 3.2357017e-05 7.3971723e-06
-2.3375536e-05 1.9300354e-05 -3.985188e-06 4.224082e-05 6.3207417e-06 -5.7731268e-05 -1.1700051e-05 1.2477939e-05
-5.5548213e-07 -5.1513384e-06 -3.1963398e-06 -2.5493659e-05 3.5345816e-05 -7.5562193e-06 4.001387e-06 -2.022068e-05
-6.0919647e-06 -2.6260193e-05 3.3547847e-05 9.987561e-07 1.3449203e-05 -2.24581e-05 -3.0248266e-05 2.5576872e-05
-2.230817e-06 -9.33271e-06 2.6291047e-05 -7.4644977e-06 2.9641911e-05 -2.010427e-05 -3.8812632e-05 2.3776007e-05
1.38498435e-05 4.2086144e-06 -2.2844139e-05 1.3544502e-05 -2.6694599e-05 -2.3619252e-05 -3.2933527e-05 -1.5686583e-05
-2.6867854e-05 2.6501484e-06 -2.3549035e-05 -2.4520803e-06 -1.3179899e-05 -3.7414135e-05 -3.0417541e-05 6.750577e-05
-2.7913715e-05 7.349752e-06 -2.3059762e-05 -3.410605e-05 2.2697013e-05 1.00985935e-05 3.4270557e-05 -4.5837373e-06
5.078486e-06 -2.7438897e-05 1.7174856e-06 -1.01782125e-05 2.1013564e-05 -1.6164844e-05 6.980932e-06 -1.24181415e-05
2.898232e-06 -2.1932661e-05 -2.864061e-05 -1.65307e-05 2.0669597e-05 -3.396272e-05 -1.0255219e-05 -6.877506e-06
-2.168163e-05 -4.6550963e-06 2.515201e-05 8.395618e-07 -6.954568e-07 1.5434367e-05 8.2877505e-06 2.3967368e-05
2.7220685e-05 -2.7709789e-06 -1.3400287e-06 9.667922e-06 -1.0554673e-05 4.352248e-05 1.6426222e-05 4.5991714e-05
-2.2431097e-05 2.2643367e-06 -1.1587582e-05 3.558881e-05 6.688428e-06 1.3670564e-05 -3.1555206e-05 -3.5198507e-05
-2.3974933e-05 -6.2919466e-06 1.7128974e-05 1.4738807e-05 2.8451575e-05 3.4368237e-05 -1.6199725e-05 -6.760026e-06

BN_num.running_mean f4 [136]
00000000: b345 0241 29db 1141 f779 f540 df83 0141
00000010: c590 fd40 7357 a140 35da e840 89ac 0d41
00000020: 6a1c 1d41 70f4 e240 debb b240 ecf7 c040
00000030: e780 0d41 c83c e840 00d4 c840 3224 a240
00000040: 6ec5 1941 9084 ba40 b206 b940 0122 0841
00000050: fe71 aa40 c190 1441 143b c140 bc79 f440
00000060: 9f3d e740 5312 b740 d8e8 3541 b201 e140
00000070: 0f66 4741 bb09 af40 b33c a040 cab7 ba40
00000080: 3e57 c740 778e 1741 1875 0041 69ea d840
00000090: 0a77 0141 4b8f 2841 5446 0441 ba1d 0c41
000000a0: 76da 1241 de93 1241 8054 f440 3d04 3941
000000b0: 541d fe40 7937 1941 d7ad a540 4378 f840
000000c0: 2114 1641 22f5 ce40 7bc0 0e41 2cd3 c540
000000d0: a680 fd40 6012 0741 7b13 dd40 2d44 2a41
000000e0: 3883 c740 8071 5741 0798 ff40 c5d5 ef40
000000f0: d590 1141 8750 2441 c0e7 0c41 845f ab40
00000100: 62c4 d040 5389 d940 7f0d ee40 d40a e740
00000110: f4f0 1341 2a7d 2241 ca71 3741 8454 ca40
00000120: 4c91 ca40 e61c d040 361d 1f41 42c1 1041
00000130: 952e 9c40 31ae ca40 774f ef40 7219 0541
00000140: 4dd6 dd40 a7a7 1841 5ff0 fc40 6343 e640
00000150: 756a d940 40b7 0b41 253a 1941 1369 ea40
00000160: 19aa b940 2d02 d840 fdd3 d840 a49e 0341
00000170: e395 aa40 0430 1341 5be8 2841 fa9a d840
00000180: cad8 1e41 b27e c240 45ae ef40 e1a7 df40
00000190: f7a0 ae40 de98 c740 d3de 9640 9f4f ee40
000001a0: d9bd e940 b638 0e41 bdef 2f41 3d62 0241
000001b0: 7390 3f41 30db c340 1877 e640 033f c040
000001c0: 5cde fa40 6515 0641 d719 1c41 a9c0 d340
000001d0: 01b3 f740 d406 b140 3ef7 f540 88db d240
000001e0: a4d3 ac40 32aa a440 390d e940 fa94 f740
000001f0: 5262 e340 0530 1341 235a 0541 b467 0b41
00000200: 5d76 3a41 1080 2641 e91a c940 f109 2041
00000210: a084 3041 3c2d d340 25af f340 51dc 5441
8.142016 9.116006 7.6711383 8.094695 7.923922 5.041925 7.2766366 8.854623
9.819437 7.0923386 5.585433 6.030264 8.84397 7.2574196 6.275879 5.0669184
9.610701 5.828682 5.7820673 8.508302 5.326415 9.28534 6.0384617 7.63986
7.226272 5.720987 11.369347 7.031457 12.462417 5.469938 5.0074096 5.834935
6.2293997 9.472281 8.028587 6.7786145 8.091562 10.534984 8.26717 8.757257
9.178335 9.1611 7.635315 11.563535 7.94108 9.576043 5.1774707 7.7646804
9.379914 6.4674234 8.921992 6.182028 7.921954 8.441986 6.908628 10.6416445
6.234768 13.46521 7.987308 7.494845 9.097859 10.26966 8.80658 5.3554096
6.5239725 6.798013 7.4391475 7.220072 9.246326 10.155558 11.465281 6.322817
6.3302364 6.5035276 9.944632 9.047182 4.8806863 6.3337636 7.4784503 8.318712
6.93241 9.540931 7.904342 7.195726 6.7942452 8.732239 9.576695 7.3253264
5.802014 6.7502656 6.7758775 8.226231 5.3307967 9.199223 10.556727 6.768918
9.927927 6.0779657 7.490023 6.989243 5.457149 6.2374105 4.7147 7.4472194
7.304425 8.888845 10.99603 8.148984 11.972766 6.1205063 7.202038 6.007692
7.8396435 8.380223 9.756309 6.617268 7.740601 5.5320835 7.686431 6.5892982
5.400835 5.145776 7.282864 7.7369356 7.105752 9.1992235 8.334506 8.712818
11.653897 10.406265 6.284535 10.002427 11.032379 6.599272 7.61513 13.303788

BN_num.running_var f4 [136]
00000000: f987 a73d 60ba 093e 7bf7 9d3d 32b1 c03e
00000010: d73c 503f 6e64 733e 4325 0e3f 02b2 eb3c
00000020: d67d ec3f ba98 383d 6a56 c33c 2b3b c43d
00000030: 5a94 e23e 0926 5e3f 2e7a ad3d 3953 673d
00000040: 8807 2240 c949 ed3f 76ac 5b3e cecd 223e
00000050: 481d f23d 56ac a73f 81ad 053e f84e 4c3e
00000060: 5266 4f3d 385f 3b3e d282 633d 1658 633e
00000070: 68bf ad3d 53b8 b03d 68e8 f53e 8cdb c93c
00000080: 56d1 323f 867a 2940 5483 e53e 35b3 fc3e
00000090: 451f f03d c46e a43d 72c5 8f3d 41bf a740
000000a0: 5a33 cb3d a655 1f3e b230 9c3e 9571 da3d
000000b0: 7eb4 4b3e 9fc1 0b3e ab6d 2e3e 3028 183e
000000c0: 1d66 bb3e 5217 843e 2686 143e f77e 333e
000000d0: 2bed 7c40 5f02 013f ea33 363e 1767 bb3d
000000e0: 77f5 0a3e fd68 663e a98f f53d 0b54 623e
000000f0: a20d a63e 5965 5e3e cfac b13d 719a 663d
00000100: 479d 8d3d e65a 4b3e 3227 5840 e12a 183e
00000110: 1b1c b93e 82d5 f73f c35e 743e d98d e23e
00000120: d429 3e3e 20d0 633e 2650 ce3e 9415 c33e
00000130: 2332 8f3d 0d7e 853e 4a8e da3d 244e 823f
00000140: 43d9 7a3d 42fa df3f 6cb4 443e ced4 cb3e
00000150: 0922 653d f46f 853e b657 953f 8a47 f33e
00000160: 5d32 ae3d 683c 3a3e 9ad6 e63d e260 563e
00000170: 2add 323e 1e99 b03d 59be 8d3d 4b24 9b3d
00000180: ac06 b03d 8b5e 0b3d 5f7b 173e 56d8 cc3e
00000190: 0a00 a73f c4b0 2c3e 7b36 473e 324a 603f
000001a0: 7376 2c40 40cd 343e dc5c 523e 1224 0b3e
000001b0: a158 9f3d 64ae ba3d fa4e 843f 7af9 a13d
000001c0: 8048 9a3f d5fa 103f 0eac 693e 76c7 b63e
000001d0: 0741 3b3e 18ff 863d c690 6d3d f0e1 3e3e
000001e0: cfd0 3d3d 51f8 913d 07d8 113f 2e86 0b3e
000001f0: 1d2d 3b3f d089 373e 49c9 e03d d69f 643e
00000200: 46cd 553d ef3f 533d a2e4 cd3d 9d5c 2a3e
00000210: 0fe7 d63f e84a a83f f3c0 bc3d b717 3f3e
0.081802316 0.13450003 0.07713219 0.3763519 0.81342834 0.2376878 0.55525607 0.028771404
1.8475902 0.045067526 0.023844916 0.09581598 0.44253808 0.8677679 0.084705696 0.05647585
2.5317097 1.8538142 0.21452507 0.15898821 0.11821991 1.3099468 0.13054468 0.19951999
0.05063469 0.18298042 0.05554468 0.22201571 0.084837735 0.08628907 0.48028874 0.02464082
0.6985067 2.6481032 0.44826758 0.49355474 0.11724714 0.08028939 0.070200816 5.2420964
0.09921904 0.15560016 0.30505902 0.10666195 0.19893071 0.1364808 0.17034023 0.1485908
0.36601344 0.25799042 0.14504299 0.17528902 3.9519756 0.50394243 0.17793241 0.09150522
0.135702 0.22500987 0.119902916 0.22102372 0.32432276 0.21718349 0.08675539 0.05629963
0.06914764 0.19858894 3.3773923 0.14860107 0.36154255 1.9362032 0.23864274 0.44248846
0.18570644 0.22247362 0.40295523 0.381024 0.06991985 0.26072732 0.10671671 1.0180097
0.061242353 1.7498248 0.1920945 0.39810795 0.05594066 0.26061976 1.1667392 0.47515517
0.085057 0.18187106 0.11271401 0.20935395 0.1746718 0.08622955 0.069210716 0.07575282
0.085950226 0.03402571 0.14793156 0.400088 1.3046887 0.16864306 0.19454376 0.87613213
2.6947296 0.17656422 0.20543236 0.13587978 0.077805765 0.091152936 1.0336602 0.07908912
1.2053375 0.5663274 0.2281954 0.35699052 0.18286525 0.06591624 0.057999395 0.18640876
0.046341714 0.07127441 0.56970257 0.13625404 0.7311571 0.17923665 0.10975892 0.22326598
0.052197717 0.051574644 0.10053374 0.16636892 1.6789263 1.314786 0.0921649 0.1866139

linear1.weight f4 [800, 136]
00000000: 5991 85bd 9e66 0cbd 38e1 ae3d 0b2b 96bc
00000010: bfa8 5bbd c8a2 03bd 496a 5ebb 3c08 a1bd
00000020: afef 86bd 9674 02be b476 66bd 8e5f 5f3e
00000030: 773e adbd f0d9 16be e39e 6fbd a540 6c3c
00000040: 90bf 663b db75 323d cd2b f53d d0f6 8abd
00000050: 8a19 4d3d e1bb 03bd 17df c1bd eab1 023e
00000060: c071 283c 1178 2c3e 211c c2bc 0b6a 803d
00000070: d6d2 53bd f8ed 31be cbd0 0abd 5e66 a9bd
00000080: 42d9 12ba 385b 193d 6c2b 923d 3bd6 45bd
00000090: dfa3 fabc 9ee4 c7bd 9b04 953c c5b1 0e3e
000000a0: 6841 b13c da86 3ebc c77f 903d b1dd 20bd
000000b0: d791 bd3d 5b00 d33b 3727 e63c 6345 9c3b
000000c0: db3f be3c 78b3 a4bd de27 1fbe 87d1 333d
000000d0: 49be a3bc ce2a b3bc d789 d33d 6ebd 693d
000000e0: 12eb 49ba daf7 5ebd 8ebf bebd 76f5 52bd
000000f0: 3780 9a3d b2ab 743d a1f9 253c 833e 51be
00000100: 8687 1abd 4e16 7b3c 16af 323c 31d6 29bd
00000110: f1ff c1bd 4712 813d 498f 223e c8de 84bd
00000120: 860c 22be 7ed3 aebd e809 0c3d 0353 33bd
00000130: 7950 08bb 3cb7 ff3d 3363 9b3d 77de f93d
00000140: afd3 b2bd d992 65bc a403 93bc a09b 123e
00000150: 0ac6 e0bd 32cb a93d 8724 d03c c2c8 8ebc
00000160: f0ab a6bc c0c9 67bb 85a9 173d 3648 d13a
00000170: 050e 003e ea7f f4bd 4a60 053d 6f69 f43c
00000180: f971 bc3c 8316 0abd 20e4 9dbd ab55 06bd
00000190: be0c acba 2f62 d83d 6f17 eebd e780 593c
000001a0: 6a6a b9bd 1f9d 2a3d 932e 113e 3cac 5cbd
000001b0: c2e3 14be 660c 66be eda3 cc3d 6908 6d3d
000001c0: c94a cabd 8669 00bc b591 483d f657 1abc
000001d0: 86de 0d3e 5316 033b 6fda abbb c994 98bc
000001e0: bd9e 8c3c 2f24 373e 0beb 323d 5794 5f3c
000001f0: 2fde 57bd 8012 f5bd 0d71 3dbe 8a36 f53c
00000200: 7b60 13bd 2691 a8bd 8782 2f3d 627e e03d
00000210: aa07 063b 43a9 f33c 74ea 6e3d c8d4 a9bd
00000220: 35f2 903c 7531 47bd 15a9 8d3d 10e1 d5bd
00000230: 4124 aebc e414 8fbd bc5b aa3b 2394 0abe
00000240: d6ef b83c 0f50 083c 9971 d139 da91 81bd
00000250: 1566 c43d f30b 08bd 2ff1 d73b 3667 833c
00000260: b67c 223c 8054 84bd eaba b83d acb7 f93d
00000270: 925f 8c3d 7c71 92bd 0c26 db3c ff5f febd
00000280: 3c48 f53d 1cce 10be 2857 213d 6be1 d9bb
00000290: a1c9 0f3d 3daf 493d e752 363d 0c8e a73d
000002a0: 8050 e0bc ecd4 1c3d aa77 3dbc 52a0 9e3b
000002b0: 3ec7 c33d a9c7 4fbd 6a80 66bd 325d 84ba
000002c0: fe40 c43d c04f c9bc b117 0dbe a098 883c
000002d0: a654 03bd ba24 1e3c e339 9dbc 65ee 5339
000002e0: c5eb 373e 70f0 833d ad40 883d 787b 593e
000002f0: f526 45bd edbf ad3d 4392 1fbb d635 863d
00000300: ed96 d9bd 01e9 87bd 90c8 c2bd 3238 16bc
00000310: 0a6d 053d fbf9 2c3b 7956 543d 06db 103e
00000320: e3cb f0bc c8f4 a6bb cedc 4dbd 2f8a 0fbe
00000330: 6a1c c03c 1d33 f43d 2231 cebc 5a8e 633d
00000340: 3069 893c 1316 10bd 6b63 1abd e4c1 32bd
00000350: 10ab 8ebc e092 353d 3b49 3e3c f296 933d
00000360: 44bc a2bd 66dd aebb 3a0d ddbd 25e5 0d3c
00000370: fad5 2e3c a5c4 5fbc 9d00 023d d012 07be
00000380: f4f1 29bb ffd8 cbbd b1c2 a43d 8d78 a4bb
00000390: d3de a03a d7d5 823d 6e49 5cbc 1bbf ccbd
000003a0: 2e55 8abd f177 5d3e 47db 22bd 27b8 21bd
000003b0: d242 8fbd d67f 543c 988c 213c a801 b23c
000003c0: 3b90 eebc 5752 23bd 8eab 9e3d a166 9ebd
000003d0: 26a6 bb3d 57c4 54bd 815a 8e3d 227d 9abd
000003e0: 65ef 18be d488 0bbc aca4 fdba 3fd4 ffbc
000003f0: a1f5 1ebc ef5a 1a3d b680 e33d d160 ddbd
-0.065218635 -0.03427755 0.08539051 -0.018331071 -0.053627726 -0.032137662 -0.0033937863 -0.07862899
-0.06588685 -0.12739787 -0.056265548 0.21813795 -0.0845918 -0.14731574 -0.058501136 0.014419709
0.0035209395 0.043569427 0.11971245 -0.06785357 0.050073184 -0.032161597 -0.09466379 0.12763181
0.010281026 0.16842677 -0.023695054 0.06270226 -0.05171474 -0.17375934 -0.033890527 -0.08271478
-0.0005601832 0.03744051 0.07137188 -0.04830001 -0.030595718 -0.09760402 0.018190673 0.13935001
0.021637633 -0.011628831 0.070556216 -0.03927392 0.09256332 0.0064392514 0.028094871 0.0047690137
0.023223808 -0.080420434 -0.15542552 0.043900993 -0.019988196 -0.021870997 0.10329025 0.05706542
-0.000770257 -0.05443559 -0.0931388 -0.05150362 0.07543986 0.059734054 0.010130317 -0.20434003
-0.0377269 0.015325142 0.010906002 -0.041464034 -0.09472645 0.06302314 0.15874971 -0.06487805
-0.1582509 -0.08536433 0.034189135 -0.043780338 -0.0020799919 0.12486121 0.0758728 0.12200635
-0.08731782 -0.014012062 -0.017946072 0.14317179 -0.10975273 0.082907096 0.025408043 -0.017429713
-0.020345658 -0.0035368055 0.0370269 0.0015966955 0.12505348 -0.1193846 0.03256253 0.02983543
0.023003565 -0.033712875 -0.07709527 -0.032796543 -0.0013126356 0.10565602 -0.11625563 0.013275362
-0.090535 0.04165375 0.14177923 -0.053875193 -0.14540008 -0.22465667 0.09992204 0.05786935
-0.098775454 -0.007837659 0.048967082 -0.009420386 0.13854417 0.002000232 -0.005244545 -0.018625634
0.017165536 0.17884897 0.043681186 0.013646207 -0.052702125 -0.11966419 -0.18500157 0.029933233
-0.035980683 -0.0823081 0.04284909 0.109616056 0.0020451345 0.029743796 0.05832906 -0.08292538
0.017693618 -0.04863115 0.069170155 -0.10443318 -0.021257522 -0.069864064 0.005198924 -0.13533072
0.0225753 0.008319869 0.00039948223 -0.06326647 0.09589783 -0.03321452 0.0065900306 0.016040426
0.009917429 -0.064614296 0.09020026 0.12193236 0.06854166 -0.07150552 0.02675154 -0.124206536
0.11976668 -0.14141124 0.03938976 -0.0066491864 0.035104398 0.049239386 0.044512656 0.0818139
-0.027382135 0.038288996 -0.011564175 0.004840889 0.09559487 -0.05072752 -0.05627481 -0.0010098575
0.09582709 -0.02457416 -0.13778569 0.01667434 -0.03206315 0.009652311 -0.019192642 0.00020211337
0.17961033 0.06442344 0.06652961 0.21238506 -0.048132855 0.084838726 -0.0024348653 0.06553237
-0.1062449 -0.06636239 -0.095109105 -0.009168671 0.03257469 0.0026394117 0.05184028 0.14146051
-0.029394096 -0.005095098 -0.050259404 -0.14017557 0.023451049 0.119238116 -0.025169913 0.05555568
0.01677379 -0.0351773 -0.03769247 -0.04364194 -0.017415553 0.044329524 0.011614139 0.07206525
-0.07946065 -0.0053364513 -0.107935384 0.008660589 0.010671133 -0.013657724 0.031738866 -0.1319077
-0.0025931569 -0.09953498 0.08044947 -0.0050192536 0.0012273438 0.06388443 -0.013445241 -0.09997388
-0.06754528 0.21627785 -0.0397599 -0.039482262 -0.06995167 0.012969932 0.00986018 0.021729305
-0.029121509 -0.039873447 0.07747565 -0.07734419 0.0916255 -0.051945057 0.06950856 -0.075433984
-0.14935072 -0.008516509 -0.0019351444 -0.031229137 -0.009702117 0.037684377 0.11108534 -0.10809482

linear1.bias f4 [800]
00000000: d100 af35 21c4 47b6 75f0 01b6 dfa2 d735
00000010: 310a 9634 e49e fdb2 4510 bab4 af7d a535
00000020: fa31 77b6 afe6 ac35 90c9 34b5 06da 9e36
00000030: 8130 b936 669b 3bb7 6ab1 01b6 31ab 43b6
00000040: 3604 a835 04bb 86b6 ba6b 5d35 2f40 7035
00000050: 4550 6836 8a44 76b4 0287 b531 9bce 44b5
00000060: 98b1 3036 8289 38b5 d516 1536 b43d e035
00000070: 6e74 9db4 2c82 3f34 25bc e535 e01c 44b6
00000080: a14a 7735 608d 0835 9417 90b5 70c6 d7b5
00000090: 7fa5 3f36 7e19 4bb6 0134 c331 23fe e436
000000a0: c80c 32b6 7a55 08b6 648c 20b3 b2bb 1c36
000000b0: e77d 1bb6 8dd8 d3b6 d4ba bb34 637f 32b6
000000c0: eeee dd34 2dbc 4cb4 e777 0f35 cf60 33b4
000000d0: 341f ac35 314b 8db5 5a9a 1d36 23c4 9fb6
000000e0: b21a 6e35 f7c4 da35 968b 5d36 d2f6 25b7
000000f0: 61a3 a1b5 6d02 beb6 6478 3036 50d5 17b3
00000100: 487d 87b5 88c8 c6b4 463a 3db5 bbae bdb3
00000110: ba77 63b6 6bed 1634 a71e fb31 7403 bb35
00000120: 0640 18b6 ca30 ddb4 b7aa acb6 a146 a7b5
00000130: d3b6 ebb0 7b02 03b4 d674 8436 68c9 6936
00000140: 973c d3b5 6443 4935 5083 3736 7118 63b4
00000150: 9f35 0680 1d8c d735 8572 81b5 92b0 f336
00000160: 3a5f 4736 7861 3134 77e8 cd34 b972 8635
00000170: 5639 e932 43bc 06b6 a4cf 6bb5 45fb 80b4
00000180: 1d29 55b6 fa61 1236 9e65 e735 1076 91b6
00000190: 9953 f3b6 2c69 3bb4 e0db 90b5 3d17 7a34
000001a0: 4023 e036 d440 85b4 a9c6 b8b5 dae6 f836
000001b0: 7d60 a8b5 f913 f236 4d18 dd35 ad95 d4b4
000001c0: 0636 0836 5b66 64b5 492e 6ab4 8895 20b5
000001d0: 3899 b136 1f94 39b7 6db8 18b6 8e45 2835
000001e0: b190 9c2e 4ac6 2137 addd b0b3 9834 5c35
000001f0: 0f3a 01b6 ef97 2cb6 3a07 2436 d821 0535
00000200: 48c1 17b6 0a6e 3533 92ee a6b5 f59a 3bb5
00000210: b775 8f34 f60a e935 258e 7ab4 4314 97b6
00000220: 62d8 6435 6a51 b936 ccf9 31b5 db86 46b6
00000230: e9ca 0b36 8bf8 ca33 9793 03b7 97c8 5cb6
00000240: 80ba 17b4 b742 88b6 46ec 8fb6 5510 0432
00000250: a998 a5b5 3d5a 28b5 07ff f135 4bc2 c634
00000260: 2bab 84b1 42c1 0b36 894a cab3 61c1 b3b3
00000270: 7bb1 6fb6 d498 bf34 9f08 7634 b34a 8536
00000280: 224f f8b5 e057 8e36 97e4 a1b6 f166 ffb4
00000290: bbfc 0cb6 f23f 89b6 9a09 b3b3 8ae0 23b5
000002a0: 52d5 6f35 62bd 722a 6853 c534 890f 0680
000002b0: abc9 7fb6 3b21 dbb5 e74e 8a35 b754 b6b5
000002c0: fe3f 87b6 aff8 8735 12e2 0cb5 db94 46b6
000002d0: a79f bbb5 1e71 2cb5 9c02 b235 400b 3eb6
000002e0: dd58 5f37 44db 2736 4a0b 8237 3616 c6b6
000002f0: 921e 4d34 bb76 9436 68ff f335 cda9 a534
00000300: b0df 4936 7829 24b6 c42e 4735 1c37 0736
00000310: ba09 0080 22d5 9d36 4721 aeb5 4491 4436
00000320: c96c 1a36 54df 12b6 b392 39b7 df49 29b6
00000330: 7586 4db2 5305 9c35 4a15 54b6 24f9 a1b5
00000340: a985 0334 c5a5 78b6 022f ca34 5c93 26a9
00000350: 084a c1b6 e587 e634 3e7a 0600 ce1a 2ab7
00000360: d2a4 66b6 515e 0835 6bae 1fb4 795e 93b6
00000370: 6f4a 0fb5 7e34 aab6 e43c f6b4 7198 5936
00000380: 07d2 7c36 53a9 2934 507f 8036 9ec0 fcb5
00000390: f418 3bb6 2578 8eb5 dd53 4937 c495 fa35
000003a0: e566 85b5 22af 5137 b99b a936 03b3 a035
000003b0: f1f3 1036 9ea6 1834 4d0b 0eb6 ee94 4435
000003c0: e752 4034 cfe9 2cb5 d7fd 0cb7 b2dc 90b5
000003d0: 5abe 16b6 7c60 0036 44fb 3d35 61df f6b4
000003e0: 482f b134 4f3a 3136 bfc1 0c36 c954 9233
000003f0: b89c 81b4 7aa5 04b6 42c9 d7b5 5867 7ab5
1.3038754e-06 -2.9767473e-06 -1.9362462e-06 1.606615e-06 2.7947092e-07 -2.9525332e-08 -3.4657037e-07 1.2330037e-06
-3.6834958e-06 1.2882136e-06 -6.734854e-07 4.734148e-06 5.5190762e-06 -1.118225e-05 -1.9325767e-06 -2.915691e-06
1.2518201e-06 -4.0152827e-06 8.248568e-07 8.9500367e-07 3.4617417e-06 -2.293547e-07 5.283142e-09 -7.331634e-07
2.6329417e-06 -6.874544e-07 2.221602e-06 1.6707259e-06 -2.9328243e-07 1.7835617e-07 1.7116587e-06 -2.9223083e-06
9.212327e-07 5.0869676e-07 -1.0735698e-06 -1.6076501e-06 2.855755e-06 -3.0264196e-06 5.681159e-09 6.824515e-06
-2.6531507e-06 -2.0315333e-06 -3.7380588e-08 2.3355065e-06 -2.3170085e-06 -6.3135e-06 3.49674e-07 -2.6598216e-06
4.1338302e-07 -1.9067438e-07 5.344613e-07 -1.6705893e-07 1.282408e-06 -1.0527202e-06 2.3484668e-06 -4.7614026e-06
8.8700756e-07 1.629959e-06 3.3012816e-06 -9.892234e-06 -1.2042984e-06 -5.6627237e-06 2.629612e-06 -3.5351434e-08
-1.0094745e-06 -3.702628e-07 -7.0492786e-07 -8.8327816e-08 -3.3895326e-06 1.4056211e-07 7.308546e-09 1.3933591e-06
-2.2687032e-06 -4.1199957e-07 -5.1458733e-06 -1.2463025e-06 -1.7150462e-09 -1.2201228e-07 3.947508e-06 3.483694e-06
-1.5738359e-06 7.49764e-07 2.734556e-06 -2.1149914e-07 -5.70249e-40 1.6059527e-06 -9.644579e-07 7.26252e-06
2.970874e-06 1.6519868e-07 3.8353366e-07 1.0017167e-06 2.7150843e-08 -2.0077139e-06 -8.784648e-07 -2.402468e-07
-3.1763404e-06 2.1812725e-06 1.7240416e-06 -4.335081e-06 -7.2516964e-06 -1.7453993e-07 -1.0792828e-06 2.3291518e-07
6.679824e-06 -2.482035e-07 -1.3766886e-06 7.4178506e-06 -1.2545057e-06 7.214487e-06 1.6472856e-06 -3.959698e-07
2.0297025e-06 -8.5085566e-07 -2.1809787e-07 -5.982224e-07 5.292848e-06 -1.1061346e-05 -2.2757115e-06 6.268609e-07
7.119761e-11 9.642516e-06 -8.235961e-08 8.203292e-07 -1.9256292e-06 -2.5718434e-06 2.444211e-06 4.959561e-07
-2.2613258e-06 4.2242426e-08 -1.2437397e-06 -6.988842e-07 2.6721474e-07 1.7363043e-06 -2.3334776e-07 -4.5025095e-06
8.52515e-07 5.5229075e-06 -6.630114e-07 -2.9582795e-06 2.0830723e-06 9.451568e-08 -7.842572e-06 -3.2899313e-06
-1.4130819e-07 -4.0608825e-06 -4.289238e-06 7.687125e-09 -1.2337888e-06 -6.271619e-07 1.8030122e-06 3.702174e-07
-3.861165e-09 2.0825105e-06 -9.419916e-08 -8.3705125e-08 -3.5717082e-06 3.568772e-07 2.2913672e-07 3.972405e-06
-1.850047e-06 4.24216e-06 -4.8247853e-06 -4.757235e-07 -2.1008734e-06 -4.0903624e-06 -8.3370836e-08 -6.104898e-07
8.934486e-07 2.1559623e-13 3.6754795e-07 -5.56586e-40 -3.8115347e-06 -1.6326443e-06 1.0304765e-06 -1.3584712e-06
-4.030763e-06 1.013066e-06 -5.248304e-07 -2.9590944e-06 -1.3979051e-06 -6.42396e-07 1.3262793e-06 -2.8318755e-06
1.3312526e-05 2.5012569e-06 1.5502465e-05 -5.9034455e-06 1.9103234e-07 4.4245658e-06 1.8179244e-06 3.085719e-07
3.0081537e-06 -2.4462042e-06 7.420133e-07 2.0148645e-06 -3.489e-42 4.7037765e-06 -1.2973695e-06 2.9290832e-06
2.301111e-06 -2.188569e-06 -1.1061015e-05 -2.522596e-06 -1.19631425e-08 1.1624455e-06 -3.1602854e-06 -1.2067944e-06
1.2248951e-07 -3.705137e-06 3.7659635e-07 -3.6987218e-14 -5.7604666e-06 4.2939715e-07 5.94865e-40 -1.0139031e-05
-3.4368609e-06 5.0801196e-07 -1.4871482e-07 -4.3919395e-06 -5.3379966e-07 -5.0725057e-06 -4.5865374e-07 3.2424252e-06
3.7673178e-06 1.5800951e-07 3.8295184e-06 -1.8831522e-06 -2.7879696e-06 -1.0614791e-06 1.20000595e-05 1.8670039e-06
-9.939218e-07 1.2498147e-05 5.054721e-06 1.1973028e-06 2.1599665e-06 1.4216718e-07 -2.1166227e-06 7.323241e-07
1.7911553e-07 -6.441523e-07 -8.403752e-06 -1.0793067e-06 -2.246254e-06 1.9129648e-06 7.0773626e-07 -4.59836e-07
3.300322e-07 2.6408995e-06 2.09744e-06 6.814077e-08 -2.414215e-07 -1.9765853e-06 -1.6077322e-06 -9.328264e-07

bn1.weight f4 [800]
00000000: 2a32 d03e 1aeb b63e 85ee e73e 41a1 1d3e
00000010: b57d dc3e f0e7 6d3e 4b9c 9b3e db9e a63e
00000020: 8e4f a83e dfc1 ad3e af69 363e 8062 b93e
00000030: 789c ce3e e736 c73e 4da0 a73e 6d86 f93e
00000040: a14a fa3e a014 bc3e 71ea 7b3e 43ec a83e
00000050: 8603 b73e c330 bf3e 19aa 143e efdd b93e
00000060: 5d95 bc3e 966b 9b3e 258c ac3e 466c d63e
00000070: 8fd8 a83e f0d6 0cbc 6f5b e63e 298e df3e
00000080: b378 b83e 3442 bd3e 18fc e53e 1f44 ca3e
00000090: 5924 f23e 6b40 c83e 3da5 1e3d 662b d93e
000000a0: b7d5 843e e6b9 e93e 5aa1 b13e d392 d43e
000000b0: e15f b93e b725 d13e c146 b43e 6c97 c03e
000000c0: 3a8f ee3e a864 a63e adb8 8b3e 3685 083f
000000d0: 953d c53e 4300 aa3e ff12 8b3e f588 6d3e
000000e0: f841 a53e 79bb a73e 7828 b43e cfad e83e
000000f0: c0c4 803e 6a93 d93e 6477 ba3e f89c ff3d
00000100: c9b1 e03e f241 853e bd11 a33e f81e 4e3e
00000110: 32c1 c93e d52b a83e 6623 073e 069a 503e
00000120: d781 d43e af0a c13e 6966 083f fabd 9e3e
00000130: bd96 b33d 870f 8a3e e1f2 b33e 454c 993e
00000140: 9138 f43e f75b c03e 1461 b13e 53a8 753e
00000150: 3ee7 0580 b19d d73e f404 8d3e 5e88 b83e
00000160: dad7 b43e 5f79 8a3e 935c ac3e 9ac2 533e
00000170: 6ed4 843d 893d b23e b27c 803e 5d27 bf3e
00000180: 47b6 ea3e 1d56 b23e cbb3 b33e b75a c23e
00000190: d9be e73e 824a 7f3e 2dcd b43e a703 333e
000001a0: da16 ef3e c359 9f3e 1679 b73e bf2a 073f
000001b0: 4d27 ba3e c2df 893e 0d60 bf3e f721 8f3e
000001c0: 90f0 c73e f99c 5b3e 87aa 943e a219 7d3e
000001d0: 05fe df3e 4486 de3e 6ed9 aa3e 4f26 c53e
000001e0: eaba 193d 1b67 a43e f789 823e fbd1 b63e
000001f0: 73fc cc3e f843 e33e cb7d 873e 8b97 b73e
00000200: ecd8 c33e 40b9 f43d f954 aa3e a1d8 943e
00000210: 106b a13e caf0 d93e 7dcf bf3e d6b6 e23e
00000220: 5889 883e 4233 ff3e 4ac3 9d3e 75d8 f43e
00000230: 5a9f d53e 3752 513e c899 bd3e 5ddb a53e
00000240: 87de 393e a170 963e 6550 f13e 33d5 ab3d
00000250: 8ad8 ab3e a00d b13e 6b3c 983e c2db 313e
00000260: 4f3c bd3e d8f4 ef3e db94 613e 067e 003e
00000270: 6d0c c33e 62e3 9e3e 0315 853e 08a6 c83e
00000280: 027f b53e dd71 ce3e fe26 c53e 9f41 683e
00000290: 8a1b c23e 71dc ed3e b47d 713e 025c ee3e
000002a0: 6c11 c43e 4040 433d c459 513e 9ec4 0480
000002b0: 4bef c23e d3fc c43e 6d0f ae3e 21aa d13e
000002c0: b617 d13e 4335 493e 9107 cc3e a64f b63e
000002d0: 03b1 ce3e 174a de3e 477c ba3e 7476 b53e
000002e0: 733d 0e3f 2eb3 b23e ca92 fc3e bd5d c33e
000002f0: a8f2 8e3e 1ba6 c53e e32c ad3e d40e b83e
00000300: 0707 c63e 3162 b13e 7863 ee3d 5341 c53e
00000310: eea4 f337 1828 cf3e b465 e93e c6dc c33e
00000320: ff32 c63e 3bbf 973e c2e8 d73e 86bb ef3e
00000330: 8524 1f3d 1fe6 a83e 7b99 b03e 728c bc3e
00000340: 6d65 e83e 69a8 903e 89e4 b03e 5cfc 3b3c
00000350: ff72 cc3e 4924 523e adb6 20ba f0db dc3e
00000360: b0be c33e 968b b03e 43cd cc3e 5908 e73e
00000370: 1b7c 023f c051 bd3e 10fe e13e 1be6 833e
00000380: a24f c83e 8a53 bd3d 6a20 a03e 53e2 a73e
00000390: 893a e63e 829f 743e 421d df3e a0ca b53e
000003a0: 41fa e13e 47a0 cf3e 6170 cc3e 6e45 bd3e
000003b0: b2fc 8b3e 80dc b23e b712 a23e 532d cf3e
000003c0: a9e4 653e 8ad1 ca3e d8d2 033f 293e a33e
000003d0: 5946 c73e 3014 c73e dbc6 c23e b904 533e
000003e0: 2680 a03e 4e43 953e d41d 6d3e 2d77 3e3e
000003f0: 58c8 4b3e 9b1a b13e 9084 bd3e fcd5 7d3e
0.40663272 0.35726243 0.45299163 0.15393545 0.43064657 0.23233008 0.3039268 0.32543072
0.32873195 0.33936974 0.17813753 0.36207962 0.4035375 0.38909075 0.32739487 0.4873537
0.48885062 0.36734486 0.24601151 0.32992753 0.35744876 0.3734189 0.14518012 0.36302134
0.36832705 0.3035552 0.33700672 0.4187948 0.3297772 -0.008596167 0.44991633 0.43663147
0.36029586 0.3696457 0.44918895 0.39505097 0.47293356 0.39111647 0.038731802 0.42415923
0.259443 0.45649642 0.34693414 0.41518268 0.36205962 0.40849087 0.3521023 0.37615526
0.46593648 0.3249867 0.27289334 0.53328264 0.38523546 0.33203325 0.2716293 0.23196776
0.32276893 0.32760218 0.35187125 0.45445105 0.25150108 0.4249528 0.36419213 0.12481111
0.4388564 0.26026875 0.3184947 0.20129001 0.3940521 0.3284594 0.13197097 0.20371255
0.4150531 0.37703463 0.53281265 0.31004316 0.087689854 0.2696497 0.3514624 0.29941002
0.47699407 0.37570164 0.34644377 0.23989992 -5.42132e-40 0.42112496 0.2754284 0.3604154
0.35320932 0.27045724 0.3366438 0.20679703 0.0648583 0.34812573 0.25095135 0.3733472
0.45842192 0.34831324 0.3509811 0.37959835 0.45262793 0.24930766 0.35312787 0.17481862
0.46697122 0.3112317 0.3583457 0.527996 0.3635811 0.26928526 0.37377968 0.279556
0.39050722 0.21446599 0.29036352 0.2471681 0.4374849 0.43461812 0.3336901 0.3850579
0.03753177 0.32109913 0.25495884 0.35707077 0.40036353 0.44387794 0.2646316 0.35857806
0.38251436 0.11949396 0.33267954 0.29071525 0.31526995 0.4256652 0.37462988 0.44280118
0.26667285 0.49843794 0.30813056 0.47821394 0.41723138 0.20441519 0.37031388 0.32393923
0.18151294 0.29382804 0.4713165 0.08390274 0.33563644 0.34580708 0.29733595 0.17368987
0.36960074 0.46866488 0.2202944 0.12548074 0.38095418 0.31032854 0.25992593 0.39189172
0.35448462 0.40321246 0.3850631 0.22681282 0.37911636 0.46457246 0.23583108 0.4655457
0.38294542 0.047668695 0.20444399 -4.37875e-40 0.3807319 0.3847414 0.33996144 0.4095011
0.40838403 0.19649224 0.39849523 0.35607642 0.40369424 0.434159 0.3642294 0.35441935
0.55562514 0.34902328 0.4933074 0.38157454 0.27919507 0.3860329 0.33823308 0.35948813
0.38677236 0.34645227 0.11640066 0.385264 2.9044659e-05 0.40460277 0.45585406 0.38254374
0.38710782 0.29638085 0.42169768 0.46822757 0.038853187 0.32988068 0.34492096 0.368259
0.45389882 0.28253487 0.34549358 0.011473741 0.39931485 0.20521654 -0.00061307364 0.4313655
0.3823142 0.34481496 0.40000352 0.45123556 0.5097062 0.36976433 0.44139147 0.25761494
0.39123255 0.092444494 0.3127473 0.3278986 0.44966534 0.23888972 0.4357701 0.35506153
0.4413624 0.4055197 0.39929488 0.36967033 0.2734123 0.34933853 0.31654903 0.40464267
0.22450508 0.3961299 0.514936 0.31883362 0.38920859 0.3888259 0.3804234 0.2060727
0.3134777 0.29152912 0.2315591 0.1860015 0.19900644 0.3459061 0.370152 0.2478866

bn1.bias f4 [800]
00000000: 1708 98be 427b 39be 49c2 3fbe 60ee 86be
00000010: 17d8 60be 7159 8ebe bc1a 7dbe f4f6 3ebe
00000020: b2fb 30be 1217 27be e29f 48be 49e7 87be
00000030: 1755 88be 0ced 70be a742 83be e142 8cbe
00000040: 9f27 92be d22c 86be 3bdf 05be 224f 98be
00000050: 8a24 82be 28f6 9ebe fd61 3ebe a31f 81be
00000060: f9a4 87be 5b88 3fbe 2753 7bbe 10d2 80be
00000070: 563c 99be f906 993d 450c a2be 8d75 86be
00000080: a6f9 76be 8f45 50be 23e2 65be 4912 18be
00000090: dd4b 9bbe e07e a1be 1d3d 6abd 58e2 22be
000000a0: fa46 30be f265 acbe 1b6f 8bbe 8f4c 8cbe
000000b0: 296d 96be 7ac1 96be 2f11 39be 6ceb 9abe
000000c0: b504 a6be f75c 76be cbbb 2abe fb26 80be
000000d0: bb49 15be 6b06 42be 35b9 8abe 02e3 e0bd
000000e0: 9f2e 5ebe b389 70be 4cc5 35be 0e22 a0be
000000f0: a7a5 46be b603 3cbe 26c1 98be 03fa 4cbe
00000100: 0a14 bcbe fa82 63be 4d21 8dbe 7c1c 58be
00000110: 178f 2bbe 2a75 7abe eea2 15be 42a0 34be
00000120: 8436 83be 9caf 29be da63 6bbe ab03 90be
00000130: 8be5 37be 2bff 54be 8a3c 55be 930d 6fbe
00000140: 39fa 50be ced5 cfbd 1d87 60be 8ad4 41be
00000150: cb6f 2b36 326b 98be 5828 84be 43f3 45be
00000160: 1e3d b4be f742 8abe 213c 76be 9e12 53be
00000170: 18f3 a9bd def5 b2be 9cb0 4fbe 4df4 3dbe
00000180: dbb1 68be da0e 89be 8d99 5ebe 0326 20be
00000190: 99ba a1be 8b07 38be 6227 7cbe e5b2 76be
000001a0: f4f1 5abe d5c5 85be 7a8b a0be 634d bebe
000001b0: a54e 9bbe 97b1 17be 1557 45be f536 79be
000001c0: b392 6fbe 573b 21be 367e 99be 0897 70be
000001d0: 538e 64be 7536 b9be d71f 31be 97f2 42be
000001e0: fe2b acbd 2408 77be f65b 62be 16f8 7dbe
000001f0: c9c0 79be de9e 8ebe 4305 13be 02ae 61be
00000200: e4cb 6fbe 5ff6 55be 74a3 24be a88b a1be
00000210: 13a4 45be 7c74 a0be 8b0d b5be b849 94be
00000220: cbe0 71be 27cc 79be 644d 65be 1331 9bbe
00000230: 40db 4dbe 79c0 87be 16c6 5bbe 1bee 80be
00000240: 0ed5 45be 349d 8dbe 63b8 5cbe f8a6 3cbe
00000250: 73f3 68be c4fc 7dbe 4579 62be c395 51be
00000260: bdd0 a7be 7753 8cbe 824b 9fbe 0b82 34be
00000270: 9344 82be 26d5 6dbe 4de1 8abe 334a 69be
00000280: 9b81 77be afb5 8abe e715 84be cb56 75be
00000290: 4176 6fbe c044 7fbe 9de6 8dbe be6a 9fbe
000002a0: 216f 09be df09 cbbd b12d 35be 21aa ffaa
000002b0: 131a 4bbe f28d 84be b66c 45be 25f0 46be
000002c0: 3ad1 b0be 1fe3 73be 8ffb 9abe bd7e 79be
000002d0: bad2 aebe b57a a2be 82a9 83be 4eed 8bbe
000002e0: da99 85be 2595 83be 9a1c a5be 96cd 9fbe
000002f0: 6dcf 91be be95 9cbe 6558 64be 7292 98be
00000300: 5b65 84be 7e8a 42be 8cb4 e6bd 0642 4bbe
00000310: d5dc ccb7 8f1b 6fbe 5a4d acbe e12e 34be
00000320: 0450 7ebe 13b2 7dbe 3c8c 71be bbfb 84be
00000330: 3ec0 7dbd fceb 47be d37e 3dbe 8b7d 24be
00000340: 5f5a 9ebe c723 9dbe ffbe 8bbe 053c 85bc
00000350: 707f 73be 46a3 2abe 1c4c 18bb 4ccd 82be
00000360: 402b 85be c452 85be fa21 77be 8b12 a9be
00000370: 8f81 a0be dde8 9bbe 986e 8dbe 764f 62be
00000380: 1e05 79be bdbc 10be 5ba7 b2be 2860 34be
00000390: 67ec e1bd e4a1 6fbe e385 52be 4cc2 57be
000003a0: cda6 8fbe 8e48 97be 2f13 4bbe 6d4a 88be
000003b0: b90d 48be 1bee 8dbe 13cd 86be 07e8 88be
000003c0: 4285 5bbe 0633 80be 35d0 5ebe 8291 b8be
000003d0: bea0 52be 59bd 99be 3108 69be 14e9 67be
000003e0: 8f05 8fbe af44 54be d436 53be e2fc 8fbe
000003f0: 8930 63be 3d78 8cbe ba39 34be a720 39be
-0.29693672 -0.18113425 -0.18726458 -0.2635374 -0.21957432 -0.27802613 -0.2471723 -0.18648893
-0.17283514 -0.16317394 -0.1959224 -0.26543644 -0.26627418 -0.23527926 -0.2563679 -0.27394775
-0.28545853 -0.2620607 -0.13073437 -0.29747874 -0.25418502 -0.31047177 -0.18592067 -0.2521945
-0.26493052 -0.18704359 -0.24543439 -0.25160265 -0.29928845 0.07472033 -0.31649986 -0.2626156
-0.24118671 -0.20339034 -0.22449546 -0.14850725 -0.30331317 -0.3154211 -0.05718719 -0.15906656
-0.17214575 -0.33671528 -0.27233204 -0.2740216 -0.29380158 -0.29444486 -0.18072961 -0.30257738
-0.32425466 -0.24058901 -0.166732 -0.2502974 -0.14578907 -0.18947761 -0.27094427 -0.10980798
-0.21697472 -0.23490028 -0.17751044 -0.31275982 -0.19399129 -0.1836079 -0.2983486 -0.20017247
-0.3673404 -0.22217932 -0.2756447 -0.21104616 -0.16753803 -0.24458757 -0.14612934 -0.17639259
-0.2562753 -0.16570896 -0.22987309 -0.28127798 -0.17958657 -0.20800464 -0.20823875 -0.23345022
-0.20407952 -0.10148202 -0.21926542 -0.18928733 2.5546058e-06 -0.29769284 -0.2581203 -0.19331078
-0.3520288 -0.27004215 -0.24046375 -0.2061257 -0.082983196 -0.34953207 -0.20282215 -0.18550225
-0.22724096 -0.26769143 -0.21738262 -0.156395 -0.31587675 -0.17971627 -0.24624398 -0.2409168
-0.2138136 -0.26127496 -0.31356412 -0.37168416 -0.3033344 -0.14813839 -0.192715 -0.2433737
-0.23395805 -0.15745293 -0.29979104 -0.23495114 -0.22319917 -0.3617436 -0.17297302 -0.19037853
-0.08406828 -0.24124199 -0.22105393 -0.24801669 -0.24389948 -0.2785558 -0.14357476 -0.22039035
-0.23417622 -0.20894764 -0.16077977 -0.31551862 -0.1930087 -0.3133887 -0.35361895 -0.28962493
-0.23620908 -0.24394284 -0.22392803 -0.30310878 -0.20103168 -0.26514032 -0.21462283 -0.2518166
-0.19319555 -0.27659 -0.21554713 -0.18423069 -0.22749119 -0.24803454 -0.22116573 -0.20467286
-0.32776442 -0.2740743 -0.31112295 -0.17627732 -0.25442943 -0.23225841 -0.27125016 -0.22782211
-0.24170534 -0.2709174 -0.2579796 -0.2395889 -0.23384954 -0.2492857 -0.27715006 -0.31136125
-0.13421299 -0.09913992 -0.17693211 -4.541515e-13 -0.19834165 -0.25889546 -0.19279751 -0.19427545
-0.34534627 -0.23817109 -0.3027005 -0.24364753 -0.34145147 -0.31734243 -0.25715262 -0.27329487
-0.26093942 -0.25699726 -0.32248384 -0.31211537 -0.28478566 -0.30582994 -0.22299345 -0.2979923
-0.25858578 -0.18998143 -0.11264905 -0.19849405 -2.4421528e-05 -0.23350357 -0.33652765 -0.17596008
-0.24835211 -0.24774961 -0.23588651 -0.25973305 -0.061950915 -0.19523615 -0.18505411 -0.16063516
-0.30928323 -0.30691358 -0.27294156 -0.016263971 -0.23779082 -0.16663846 -0.0023238724 -0.25547254
-0.2600956 -0.26039708 -0.24134055 -0.3302196 -0.31348845 -0.30451098 -0.2762344 -0.22100624
-0.24318358 -0.14134498 -0.34893307 -0.17614806 -0.11031418 -0.234016 -0.20558886 -0.21070212
-0.28056946 -0.29547542 -0.19831537 -0.26619282 -0.19536485 -0.27720723 -0.26328334 -0.26739523
-0.21437553 -0.25038928 -0.21759112 -0.36048514 -0.20569131 -0.30027273 -0.22757031 -0.22647506
-0.27933928 -0.20729326 -0.20626384 -0.28122622 -0.22186483 -0.27435485 -0.17600146 -0.18078862

bn1.running_mean f4 [800]
00000000: e90a 94b6 0e03 f234 4f77 5fb4 1837 96b5
00000010: 297f 1d36 bed3 7cb5 2821 8f36 df03 8836
00000020: c664 84b6 d954 c9b6 32a3 85b5 10da 8536
00000030: 0da3 24b5 2462 0bb6 9e9d 7d35 2232 ab36
00000040: 8be5 0c37 c4e6 33b5 3aa7 3335 9324 8db6
00000050: a0a4 e0b6 c04d b1b6 5269 cfb5 e055 79b6
00000060: d42d b835 3c25 6bb6 8d80 2036 8b13 29b6
00000070: a6da 7035 008c 02b5 7dfe 0a36 45dc b236
00000080: 591d d735 bd32 2cb6 f9b2 d236 5509 b0b6
00000090: 1cf3 1e36 7dcd e7b4 5af1 e1b4 0ff6 54b6
000000a0: ca62 1735 e0f0 0c35 c952 3836 11f6 57b6
000000b0: 9e86 afb5 3b87 8bb6 2929 16b6 fe55 57b6
000000c0: f66a ac35 a981 f0b5 9944 c835 83e7 7a36
000000d0: e429 b235 dbd1 ec34 4ff5 34b5 8ed9 5ab5
000000e0: e55d ffb5 34e5 b3b5 841e a8b6 174e aab6
000000f0: 4e2d 96b5 5d11 8d35 1314 35b6 537c 72b6
00000100: 8ae8 46b6 c85d 8eb5 b520 2a36 c23b a8b4
00000110: 1a31 e7b5 8401 f7b5 9e0b c4b5 17db bc33
00000120: 7037 a1b5 9666 08b7 baa6 1db6 8f7a 1fb6
00000130: 2d41 8534 aeb0 e9b5 6785 09b6 8ba6 d9b5
00000140: 5add aa35 f0d3 47b4 5c61 76b5 7b56 38b6
00000150: f954 0000 63b7 84b6 54f6 82b5 993a cab6
00000160: c60a 1135 e56d 4d36 0060 47b4 6619 8a35
00000170: f7df 81b4 13fd 4934 a5c5 cfb5 9ea5 88b4
00000180: ef70 8035 5db4 40b6 c23b 4736 0396 1135
00000190: 1760 d335 fbbd 8836 ea41 a036 d1a3 7cb5
000001a0: a023 4136 b9ca 09b6 96a2 cfb6 ea1c d5b4
000001b0: 2fc9 31b6 f93f a636 2347 a6b6 8749 db34
000001c0: 151f 1eb6 aa39 bb35 6adb 1536 abc8 1b36
000001d0: a0c8 26b5 087c 2d36 488a edb6 84fd 4a35
000001e0: 983b 2033 fd3d 1bb6 d436 f4b6 635b 2a37
000001f0: 8090 a535 bdd5 80b6 205a 3bb6 f81b 0cb6
00000200: 1436 9db6 949c b4b3 2c4b 8bb6 40e8 1eb5
00000210: 58f4 9136 e5d7 eb35 32dd 7e35 f427 21b7
00000220: 0255 b536 1f07 f634 f571 0d35 eab6 8434
00000230: a727 af33 4936 82b5 0e3f 8b36 2c7f d435
00000240: 185a a8b5 4bd1 29b6 9ba0 8eb5 f8b6 61b3
00000250: d6b1 3bb5 2049 ec36 53c4 75b6 0696 3436
00000260: 1093 6736 12a5 24b5 97ff e534 9719 3935
00000270: 87ac c135 8a50 39b6 8fef 83b5 8982 9935
00000280: c3e0 02b7 57ce 8d35 a7c2 1a36 3de2 afb6
00000290: d74f de36 6e44 0f36 71be a9b5 c538 8735
000002a0: 09d0 92b6 bec3 9035 1cea 2836 1807 0080
000002b0: 6d77 87b5 e3ee e7b6 a465 91b6 6eab 2ab6
000002c0: aae5 25b5 3279 9735 dbb2 9eb6 6b33 5a36
000002d0: 8d39 a6b6 b1b9 ff35 6e71 6c36 6ea4 80b6
000002e0: a6e5 d3b6 d70a ee36 9864 4fb6 a253 4936
000002f0: 7aee 05b6 ea19 9eb6 be41 8a35 38bf d035
00000300: 12f6 89b5 2bf2 8fb6 0158 83b5 4978 c835
00000310: f8a1 0000 01de 9bb6 1b10 9f34 5ba3 8835
00000320: 27eb e835 03ad 86b6 16b9 6536 4ad1 0e36
00000330: 89cc 2db0 73b0 b635 228c 8536 fe46 71b6
00000340: 213f e435 7339 8db6 c6ab 9ab6 3694 5b32
00000350: b793 e1b6 4fe2 b3b5 ff25 8a29 a8de 3636
00000360: dc4c d336 2c60 79b5 3e41 c636 e6f8 a636
00000370: 23a9 2936 799b 2eb6 c5fe 4636 379c 46b6
00000380: d58e 8736 5eee 67b4 f360 95b4 5ae0 3d36
00000390: 17c3 da32 52b2 e634 dc90 4fb6 803e e9b5
000003a0: 98ee a1b5 3478 6336 3f74 9bb4 c0cb 2ab5
000003b0: 1970 8d36 46c6 82b6 52b3 c334 072c 3d36
000003c0: 7cf7 93b5 9bfd 0536 e2ae 25b7 1a6a 21b5
000003d0: 2f7f 34b6 dcd5 1536 2525 8fb6 6dd8 01b6
000003e0: 571a f535 c645 8bb6 2095 8534 768e 5eb6
000003f0: 264a a635 ae1e 85b3 fea7 db36 fc79 dab5
-4.412014e-06 4.5078235e-07 -2.0811898e-07 -1.1191905e-06 2.346884e-06 -9.418544e-07 4.265592e-06 4.0535665e-06
-3.945638e-06 -6.0001444e-06 -9.956768e-07 3.9890947e-06 -6.133203e-07 -2.076974e-06 9.447921e-07 5.1020334e-06
8.398095e-06 -6.7018505e-07 6.6926043e-07 -4.2063853e-06 -6.694885e-06 -5.2840624e-06 -1.5453354e-06 -3.7153877e-06
1.3722406e-06 -3.5039402e-06 2.3916684e-06 -2.5194338e-06 8.972514e-07 -4.86325e-07 2.0711734e-06 5.330456e-06
1.602729e-06 -2.565953e-06 6.279323e-06 -5.246295e-06 2.3685343e-06 -4.3176615e-07 -4.2085122e-07 -3.1733687e-06
5.639564e-07 5.2504583e-07 2.7466324e-06 -3.2180726e-06 -1.3077695e-06 -4.1582657e-06 -2.23757e-06 -3.208755e-06
1.2846128e-06 -1.791913e-06 1.4921126e-06 3.738766e-06 1.3274225e-06 4.4111115e-07 -6.7412196e-07 -8.152791e-07
-1.9026307e-06 -1.3403246e-06 -5.0103426e-06 -5.0754857e-06 -1.1189056e-06 1.0510372e-06 -2.6982786e-06 -3.6133176e-06
-2.9639655e-06 -1.0607118e-06 2.5351012e-06 -3.1335918e-07 -1.7225132e-06 -1.8403375e-06 -1.4606519e-06 8.7942844e-08
-1.2011569e-06 -8.130117e-06 -2.349187e-06 -2.3764185e-06 2.4820602e-07 -1.7411273e-06 -2.0492241e-06 -1.621623e-06
1.2730409e-06 -1.8610422e-07 -9.178382e-07 -2.7468475e-06 3.0482e-41 -3.9552556e-06 -9.757446e-07 -6.026891e-06
5.4032387e-07 3.0611347e-06 -1.8568244e-07 1.0289193e-06 -2.4191078e-07 1.8811652e-07 -1.5480224e-06 -2.5452476e-07
9.569611e-07 -2.8715215e-06 2.9688094e-06 5.4235005e-07 1.5748691e-06 4.0752325e-06 4.776045e-06 -9.41157e-07
2.8779978e-06 -2.053259e-06 -6.1880082e-06 -3.969538e-07 -2.649216e-06 4.954633e-06 -4.955467e-06 4.0845427e-07
-2.3561927e-06 1.3949368e-06 2.2330446e-06 2.3213604e-06 -6.2131767e-07 2.5851205e-06 -7.0792485e-06 7.561978e-07
3.7307103e-08 -2.3132882e-06 -7.2781495e-06 1.0154067e-05 1.2335513e-06 -3.8395797e-06 -2.791763e-06 -2.0877906e-06
-4.68526e-06 -8.4103846e-08 -4.151274e-06 -5.9197555e-07 4.349782e-06 1.7571698e-06 9.4944255e-07 -9.60565e-06
5.4041166e-06 4.5826252e-07 5.269242e-07 2.4720003e-07 8.156285e-08 -9.701554e-07 4.1498633e-06 1.5832243e-06
-1.2543196e-06 -2.5304787e-06 -1.0626567e-06 -5.2553304e-08 -6.9921714e-07 7.041861e-06 -3.662212e-06 2.6909415e-06
3.4507284e-06 -6.133497e-07 4.284054e-07 6.895511e-07 1.4429833e-06 -2.7614028e-06 -9.829981e-07 1.1437379e-06
-7.800935e-06 1.0565371e-06 2.306109e-06 -5.241744e-06 6.62541e-06 2.1348492e-06 -1.2646907e-06 1.0074806e-06
-4.3753575e-06 1.0785805e-06 2.517022e-06 -2.545e-42 -1.0093041e-06 -6.9121465e-06 -4.3331693e-06 -2.543176e-06
-6.1801495e-07 1.1285649e-06 -4.7295885e-06 3.251446e-06 -4.9538853e-06 1.9053024e-06 3.5232765e-06 -3.8338394e-06
-6.3150246e-06 7.0942147e-06 -3.0903957e-06 3.0000015e-06 -1.9957356e-06 -4.7117837e-06 1.0300935e-06 1.555286e-06
-1.0278911e-06 -4.289924e-06 -9.785873e-07 1.4936169e-06 5.8103e-41 -4.6452046e-06 2.9627776e-07 1.0180332e-06
1.7353785e-06 -4.0136524e-06 3.4231393e-06 2.1281471e-06 -6.3227695e-10 1.361141e-06 3.9800225e-06 -3.5953121e-06
1.7005697e-06 -4.2088154e-06 -4.6095547e-06 1.2781177e-08 -6.722719e-06 -1.3402404e-06 6.1350224e-14 2.7249716e-06
6.2972376e-06 -9.2899677e-07 5.908455e-06 4.976161e-06 2.5281413e-06 -2.6018517e-06 2.9652595e-06 -2.9595228e-06
4.0399414e-06 -2.1600269e-07 -2.7823953e-07 2.8293784e-06 2.5467257e-08 4.2970584e-07 -3.0929723e-06 -1.7378043e-06
-1.2064875e-06 3.3895603e-06 -2.895558e-07 -6.362643e-07 4.2151773e-06 -3.897384e-06 3.6452053e-07 2.8188822e-06
-1.1024381e-06 1.9966162e-06 -9.8754845e-06 -6.013157e-07 -2.689612e-06 2.2327213e-06 -4.2660563e-06 -1.9348474e-06
1.8261588e-06 -4.1506455e-06 2.4881683e-07 -3.31635e-06 1.2389544e-06 -6.198876e-08 6.5462655e-06 -1.6277768e-06
